Model/detnet_bs.pth (torch, 678370 bytes, 31 tensors)

conv1.conv.weight f4 [16, 1, 3, 3]
000000 f2 0a 8e 3d 39 2a a6 3d cb 24 8d bb 40 6d 49 bc
       0.069356814 0.08113522 -0.0043073646 -0.012294114
000010 11 b5 1f bf 1e 1c 66 be 9e a8 2f 3e 3a 54 04 be
       -0.6238566 -0.22471663 0.17154166 -0.12922755
000020 52 ff 07 3c a2 ff 83 be dc a6 3c 3e d6 b2 31 be
       0.008300619 -0.2578097 0.18423027 -0.17353377
000030 eb 5c 61 3e 56 6d 03 be e2 08 b0 3d 92 b4 c3 bd
       0.22008102 -0.12834677 0.08595444 -0.095559254
000040 b2 ec 0f be d1 fd ea 3d 0f c0 85 3e da 6d a0 3e
       -0.14055136 0.11474193 0.26123092 0.3133381
000050 ed 6e 92 be f2 02 35 3e 42 ff 6e be 30 55 9e be
       -0.28600255 0.17676905 -0.2333956 -0.30924368
000060 13 ff 43 3e 41 5f 30 be da 6a fd 3d 7f bf 84 bc
       0.19140272 -0.17223836 0.12373896 -0.016204594
000070 51 74 be 3e 8b 17 b6 3e 74 d5 e9 3c a1 b5 87 be
       0.37198117 0.35564837 0.028544165 -0.2650576
000080 8b 8f af be 60 6a af 3d b4 40 b4 bd ca b6 de bd
       -0.34289202 0.08565211 -0.08801404 -0.10874708
000090 66 ef 17 3e 14 63 c5 be c7 24 15 3b 59 8d b7 be
       0.14837417 -0.38552153 0.0022757517 -0.35850027
0000a0 66 ad 82 3e f7 4b d6 ba c3 64 4e 3d b7 38 87 bd
       0.25522918 -0.0016349544 0.050389063 -0.066026144
0000b0 e4 30 de bd 0f 1b d3 bb 2f 5b 99 bd 48 38 cc 3d
       -0.10849169 -0.0064424346 -0.07488095 0.09971672
0000c0 18 cf 0e 3e 21 5c bf be ca a1 8a 3c a9 49 b3 3d
       0.13946187 -0.37374976 0.01692285 0.08754284
0000d0 e1 4b 5a be aa 82 1d 3e 97 5d a9 be 43 a9 24 bd
       -0.21318008 0.15381876 -0.33079216 -0.040200483
0000e0 d7 31 0a 3d 1e eb 90 3e 08 a4 80 be e1 d7 c6 3e
       0.033738937 0.2830438 -0.25125146 0.38836578
0000f0 ff f4 7f bd 94 21 85 bd 65 bc d2 bd 59 77 f5 bd
       -0.062489506 -0.06500545 -0.1028984 -0.119856544
000100 c5 d3 c3 bc fa 3c 76 be bc bd 9c be fe 3d fc bd
       -0.02390469 -0.24046698 -0.30613506 -0.123165116
000110 af aa 9a be ed b9 b9 3e e4 25 52 3e 44 fe 85 be
       -0.30208346 0.36274663 0.20522267 -0.26170552
000120 ac 72 01 3d 1a 7f 97 be 11 ef bc bc 39 fa a0 be
       0.0316035 -0.29589158 -0.023063214 -0.31440905
000130 33 02 54 3d 35 87 14 3e fa 1b f6 bd 14 65 dc 3e
       0.05175991 0.14504702 -0.12017055 0.43045866
000140 a7 ec 19 3d 88 e6 ba 3d 0f 43 cf be 27 32 3f 3e
       0.037579205 0.091260016 -0.4048085 0.18671475
000150 79 be b5 3e ef 86 71 be fe ed e5 3d b5 ff 17 3d
       0.35496882 -0.2358663 0.11227034 0.037109096
000160 f1 ab c5 bd 0d 36 33 3e 1b b6 9b be 15 cc 95 3d
       -0.09651936 0.17501087 -0.30412373 0.07314316
000170 db a1 ff 3d bb 22 b9 3d 4b e0 b2 3d 3d 61 45 3e
       0.12482043 0.090398274 0.08734187 0.19275375
000180 43 15 b2 be 4f dd 98 3d 1b fe 32 3e 14 20 74 be
       -0.34781846 0.07464086 0.17479746 -0.23840362
000190 af 7f 22 bd 5a 9e 1e bd 69 95 0e bd c2 22 84 3e
       -0.03967255 -0.038725235 -0.034810457 0.25807768
0001a0 00 47 9b be 52 c1 28 be 46 59 61 be dd db 90 be
       -0.30327606 -0.16479996 -0.22006711 -0.28292742
0001b0 d4 ae 2a 3e 9e 89 06 be fd 6e ed bc 01 65 71 be
       0.16668254 -0.13138434 -0.028983587 -0.23573686
0001c0 ff b2 32 3d e8 29 c2 3e 92 fd 80 be 61 51 01 bd
       0.043627735 0.37922597 -0.2519346 -0.03157175
0001d0 d2 ac 8b 3c 41 ef 1c 3e 85 49 0d 3e 68 8f 2d be
       0.01705018 0.15325643 0.13797577 -0.16949236
0001e0 b2 cc 64 3e 54 7e 63 3d a6 b1 11 be 11 82 bb be
       0.2234371 0.055540398 -0.14227924 -0.3662267
0001f0 e6 ce 58 bc 23 5a 25 be c8 17 46 3d a2 da 54 be
       -0.013232922 -0.16147666 0.048362523 -0.20786527
000200 d7 50 ab be 5a 2f 83 bd 7d 3f 0f 3f 38 16 90 bc
       -0.33460113 -0.06405516 0.5595625 -0.01758872
000210 c1 37 67 bb ea 07 e8 3c 43 d0 8b 3c c6 f8 4c 3d
       -0.0035281035 0.028324086 0.01706708 0.050041936
000220 35 d4 31 3d bb 55 72 bc 6c b6 a3 3c a8 ee 88 be
       0.043415267 -0.014790948 0.019984446 -0.2674458
000230 a1 fa 3f 3e b0 f5 cf 3e bf 07 a5 be d1 be 7c be
       0.18747951 0.40617132 -0.32232472 -0.24682166

conv1.conv.bias f4 [16]
000000 e5 f5 07 3e a5 50 67 be 0e aa d7 bc 27 6e 1f 3e
       0.13277395 -0.22589357 -0.026326206 0.15569364
000010 00 82 0e 3e 8a 9d bd bd de 51 34 be 49 f3 3d 3e
       0.13916779 -0.09258564 -0.17609355 0.18549837
000020 a9 9a 52 bc b8 16 91 be 5e f7 5c 3e 05 c2 8f 3e
       -0.012854257 -0.28337646 0.21578738 0.28077713
000030 ce d2 de bd 3f e0 af bc 31 3e a6 bd 9e ff 8f 3d
       -0.108800516 -0.021469234 -0.08117331 0.07031177

skip1.conv.weight f4 [16, 16, 3, 3]
000000 0e 34 72 be 8f d7 2c be bc 53 38 be ee 4b 6b be
       -0.2365267 -0.16879104 -0.18000692 -0.22978184
000010 20 2f 4d be 83 04 2a be 3c 9e 87 be 07 6b ab be
       -0.20037508 -0.16603284 -0.2648791 -0.33480093
000020 ed b8 99 be 3e 36 cd bc 0b 84 72 be 15 9e be bd
       -0.300239 -0.025050279 -0.23683183 -0.093074955
000030 21 30 ac 3d 59 8a 15 be 1e 09 44 3e 73 40 53 bd
       0.08407617 -0.14603557 0.19144103 -0.051575135
000040 5b 3d 60 3d 0b 19 92 3d a7 4f f1 3d 26 84 9a 3d
       0.054746013 0.07133683 0.117827706 0.075447366
000050 3e eb 36 bd a6 e3 16 3e 89 43 93 3d f7 79 c7 bc
       -0.04465794 0.14735278 0.07190616 -0.02435015
000060 08 07 8d 3d bf 4f 44 bb ab 1e 0f be 0c 74 e5 3d
       0.06886107 -0.002995476 -0.13976543 0.11203775
000070 94 a5 9e bd 4c 19 2e 3c e6 f0 b3 bd 82 a2 b6 bd
       -0.07746425 0.010626148 -0.08786182 -0.08917715
000080 a3 2e 12 bc 33 47 a8 bd b3 63 b1 bd cd 65 b2 3d
       -0.008922252 -0.08216705 -0.08661594 0.08710823
000090 f2 77 ac 3b 4c 32 45 be 9d 7c b9 bd c6 52 65 be
       0.005263322 -0.19257468 -0.09056971 -0.22394857
0000a0 d1 3f 3b be 75 06 77 be 1e 8e 86 be 1d 11 f3 bd
       -0.18286063 -0.24123557 -0.26280302 -0.118684985
0000b0 18 f8 42 be 4e e3 dc bc 25 ba b6 be 69 fe 9b 3c
       -0.19039953 -0.026963856 -0.35688892 0.01904221
0000c0 86 0b 0c 3d 55 df 36 be de 0d 22 be 5b 38 00 3d
       0.034190677 -0.17858632 -0.15825602 0.031303745
0000d0 99 0e 39 be 50 b8 c4 be 3b a3 94 bd 16 3a 0d 3d
       -0.18071975 -0.3842187 -0.07257696 0.034479223
0000e0 c0 5d da 3d a2 24 92 bd 1d 61 b3 bd 51 aa e4 3c
       0.10662413 -0.071358934 -0.08758757 0.027913244
0000f0 52 a8 b5 bd 84 11 df 3c 14 ac d6 bd de e8 6d be
       -0.08869995 0.027230032 -0.1048204 -0.23233363
000100 5e b6 9b be 02 38 4f 3d ce 90 81 be 91 7e 16 be
       -0.30412573 0.050590523 -0.2530579 -0.14696719
000110 d4 a9 9d be b8 59 dd bd 42 38 53 be 34 71 2e be
       -0.3079363 -0.10808128 -0.2062693 -0.17035371
000120 34 f4 7b bd b7 3f 97 3c 45 23 90 3d 92 3c 81 3d
       -0.061512187 0.018462999 0.07037977 0.06310381
000130 22 13 14 bd 33 c9 0a be 61 aa 5b 3e 3e a8 70 3d
       -0.03615106 -0.13553314 0.21451713 0.0587542
000140 4d 4d 9d bc be 1f 72 bd 70 74 be bd 54 d3 33 3d
       -0.019201899 -0.059112303 -0.092995524 0.04390271
000150 54 c8 9e bd 94 ac 98 bd 3d c7 33 3d 3a 54 28 3e
       -0.07753053 -0.07454792 0.04389118 0.1643838
000160 e3 93 57 3d 5a f8 62 3d f2 d3 db bd 33 5e 9e bd
       0.05263127 0.055412628 -0.10733785 -0.07732811
000170 85 ed c2 3d 4c 0b be 3c 8a 02 cf bd e8 c2 4c 3d
       0.095179595 0.023198746 -0.10107906 0.049990565
000180 92 0e 34 ba 02 98 3c 3d 6f 54 a4 3d 12 c9 ed bd
       -0.0006868626 0.046043403 0.08023917 -0.11610617
000190 95 ef 35 be 81 c8 77 be b8 96 94 be 80 43 aa be
       -0.17767175 -0.2419758 -0.2902124 -0.33254623
0001a0 10 d8 44 be 92 b8 a4 be e2 30 96 be 40 63 45 be
       -0.19223046 -0.32172066 -0.2933417 -0.19276142
0001b0 83 a4 e4 3b 90 a7 5c bc 30 7d 6e be 0c b1 ea 3c
       0.006977619 -0.013467684 -0.23289943 0.028648876
0001c0 5c 9c 3d 3c 35 14 47 3e 71 6e 18 3d 6b 68 a7 3c
       0.0115729235 0.19441302 0.0372147 0.020435533
0001d0 7d 38 a7 3d f7 7e 2a be 45 5a 9b be 6a d0 22 be
       0.08165071 -0.16649996 -0.30342308 -0.15899816
0001e0 45 f1 15 be 07 0e ce 3d 3d 7b 9e bb 51 82 02 bd
       -0.14642818 0.10061269 -0.0048364685 -0.03186256
0001f0 07 6c c6 3d 2d 9c 7c 3d e3 d5 30 bd 66 f4 1c be
       0.09688573 0.06167238 -0.04317273 -0.15327606
000200 d8 14 a6 bc e1 6b 38 3d 57 3c 24 bc 08 ac 0e be
       -0.020273611 0.045024756 -0.010024152 -0.13932812
000210 0e d5 4b 3d ba f8 27 bd 3e 85 2d bd b3 88 47 3c
       0.04976373 -0.04100869 -0.042363398 0.012178588
000220 e7 7a 24 be 97 d6 f0 3c a0 70 b3 bd 68 54 0a 3d
       -0.16062509 0.0293992 -0.08761716 0.033771902
000230 57 12 81 be c5 c3 26 bd 2d 02 6e 39 a2 2a 77 3d
       -0.25209305 -0.040714044 0.00022698259 0.060343392
000240 45 ac 98 3c ff 7d 2b 3e 8c fd 56 3e 36 9e e7 bd
       0.018636832 0.16747282 0.20995158 -0.11309473
000250 43 ba 2b 3c b2 20 a4 3d 56 ff 81 bd 52 92 50 bd
       0.01048142 0.08014049 -0.063475296 -0.050920792
000260 59 a9 70 be 5a b2 b0 bc ce aa 39 3c 05 62 a8 3c
       -0.23502101 -0.02156942 0.011332227 0.020554552
000270 2f 6c 51 3d 7b 07 a7 3c f5 19 50 bd fe a4 d9 bb
       0.051128563 0.02038931 -0.050806005 -0.006641983
000280 4b a7 0f 3e 63 5e e8 3d 95 5a a8 3b 57 1c 51 3d
       0.14028661 0.11346128 0.0051377513 0.051052418
000290 87 95 e4 bb 68 04 31 3d 34 fa c4 3d c6 e1 13 3d
       -0.006975833 0.043217093 0.09618035 0.036103986
0002a0 68 d3 0d bd f2 80 87 bd c4 2c e1 bd 08 cb 35 be
       -0.03462544 -0.06616391 -0.109948665 -0.17753232
0002b0 2b 19 18 3e fd bf 94 bc 57 ca ee 3b 20 30 79 3d
       0.14853351 -0.018157953 0.0072873044 0.06083691
0002c0 73 61 5c bc 29 48 8a be be f8 fb be 38 04 dd 3a
       -0.013450968 -0.2700818 -0.49213213 0.0016862219
0002d0 42 5b eb bc a5 29 fd bc e9 90 ac 3d 37 8d 2d 3b
       -0.028730039 -0.030903647 0.08426077 0.0026481876
0002e0 d9 13 e7 ba 90 88 0a be b3 6b 6b 3d 59 32 67 bb
       -0.0017629816 -0.13528657 0.057475757 -0.0035277812
0002f0 1b 13 37 3e 83 7d 9e bc 3a c6 a9 bc 28 e9 95 3d
       0.17878382 -0.019346958 -0.020724405 0.07319862
000300 8c 9b 36 be 02 35 89 3d 36 0d 92 3d 77 4a c9 bb
       -0.17832774 0.066995636 0.07131426 -0.00614291
000310 47 69 3d bd 7b a6 81 be 8c 68 97 bc fd fa 97 3d
       -0.04624298 -0.25322327 -0.018482469 0.07420919
000320 96 ef 58 3e ed a0 40 be 7b f4 ba be 1d 5e 84 3d
       0.21185145 -0.18811388 -0.3651465 0.06463263
000330 8b ae 36 3e d8 c3 a5 3d 77 79 da 3c 06 46 ab bd
       0.1784002 0.08093995 0.026669247 -0.08362965
000340 67 5a 9f 3d ba 06 d9 3c 20 43 ae 3c ad 1b 63 3c
       0.07780915 0.026492465 0.021272242 0.013861579
000350 32 e4 ab bc 14 28 c2 3d e9 23 32 3d 75 86 ae bd
       -0.020982835 0.094803005 0.043491278 -0.085217394
000360 07 c3 ce 3c e6 4d ac bd f9 22 14 3d c3 50 3e 3d
       0.02523948 -0.084132954 0.036166165 0.04646374
000370 90 5e a4 3c 0d 20 1e bd 3a c7 c4 3c 98 b0 f6 3d
       0.020064622 -0.038604785 0.02402078 0.12045401
000380 1b 33 aa bd 75 ce ab bd c2 25 ae bc 13 5f d0 3c
       -0.08310529 -0.08388988 -0.021258239 0.02543596
000390 bd cb fa 3d 57 5c 38 3b b2 77 10 be f1 1e 3e 3d
       0.12245891 0.002813121 -0.1410816 0.046416227
0003a0 56 6c a1 3d c5 86 dc bc 3a 0d aa bd eb ea 7d 3a
       0.078819916 -0.026919732 -0.08303304 0.00096861896
0003b0 84 51 68 bc 6d ec 11 bb 2e 4c 28 3e 37 e3 36 3d
       -0.014179591 -0.0022266165 0.1643531 0.044650283
0003c0 9b d2 db 3c 6f b0 f1 3c 7e c8 3e 3d 9c fa c4 bc
       0.026833823 0.029503075 0.046577923 -0.024045281
0003d0 7e f3 b2 3d 1c 9e 17 be 66 a6 7a bd 20 7c 6d 3d
       0.08737849 -0.14806408 -0.061193846 0.057979703
0003e0 b7 09 6e be e6 a5 ab bd cf f8 16 3d fa 98 5c bd
       -0.23245893 -0.08381252 0.036858376 -0.053856827
0003f0 3e 34 06 be e9 f7 7f bd f0 fd a7 3d 36 1a ec bd
       -0.13105866 -0.062492285 0.082027316 -0.11528437

skip1.conv.bias f4 [16]
000000 53 81 47 3d 51 20 da 3c e3 f1 26 bd d2 d2 40 bd
       0.048707318 0.026626738 -0.040758025 -0.047076054
000010 a3 ad 85 3d 67 1c 4d bd c0 27 8a 3c 0a da 81 3d
       0.06527259 -0.050075915 0.016864657 0.06340416
000020 e5 b1 33 be e2 d6 e8 bd c0 cc 50 ba 28 54 93 bd
       -0.1754833 -0.11369111 -0.00079650804 -0.07193786
000030 d1 1a d9 bc 1e d5 03 3c 40 91 83 3d b1 ac a0 3d
       -0.026502045 0.008046417 0.064241886 0.07845438

skip2.conv.weight f4 [16, 16, 3, 3]
000000 74 60 26 3c aa 02 8e bd 7b 22 bd bd fc aa 41 bd
       0.010154832 -0.06934102 -0.09235092 -0.047282204
000010 c7 7f aa bd 29 1f 9d bb ea c2 5a 3c 23 c9 11 3c
       -0.08325153 -0.0047949743 0.013352135 0.008898052
000020 68 04 d4 3c 6c 04 0b be 0d 7c af be 23 b9 30 be
       0.025881007 -0.13575906 -0.3427433 -0.17258124
000030 bc 42 9d bd 42 79 4a bb 28 20 1f 3e 33 3b b9 bd
       -0.07678744 -0.003089503 0.1553961 -0.090444945
000040 80 c9 ea bb fb 49 13 3e 49 7f 27 3e d6 f5 f0 3d
       -0.007165134 0.1438369 0.16357149 0.117656395
000050 69 8f fa 3d 45 b7 03 3e c7 f1 fb 3d 31 9b 3c 3e
       0.122343846 0.1286288 0.12301975 0.18418576
000060 08 98 44 bd 41 03 f5 bd 17 91 13 be 80 dd 5c 3d
       -0.04799655 -0.11963511 -0.14410816 0.053922176
000070 3f 9e 1a be fc 9c d7 3c dd 9b ca 3d 94 98 24 3e
       -0.15099429 0.026319973 0.0989301 0.16073829
000080 34 04 ab 3d 0d a8 9b 3e 3b d7 56 3e 8a 4d 74 3e
       0.08350411 0.3040165 0.20980541 0.23857704
000090 23 3c 74 3d 72 12 88 bd 61 67 90 3d ed c1 70 bd
       0.059627663 -0.06644143 0.07050968 -0.058778692
0000a0 3e 72 67 3c 10 4a 4d bd e1 00 15 be e3 b1 b0 bd
       0.014126359 -0.05011946 -0.14551117 -0.08627679
0000b0 6c 1f 8c 3c f8 39 c4 bd 12 be 12 bd 78 d1 ae bd
       0.017104827 -0.09581369 -0.035825796 -0.08536047
0000c0 c7 e4 19 be 7f 02 60 be 07 82 7d be 89 5d 16 be
       -0.15028678 -0.21875952 -0.24756633 -0.14684118
0000d0 77 bb 59 be 76 06 96 be 44 1f 19 3e 0c a1 b0 3c
       -0.21262918 -0.29301804 0.14953333 0.021561168
0000e0 16 c4 84 bc d3 41 12 3c 56 15 af 3d 9b 83 f7 3d
       -0.016206782 0.0089268265 0.085489914 0.120856486
0000f0 52 ce 7b 3d c5 14 51 3e 4e e6 0b 3e 9c 36 17 3d
       0.06147606 0.20418079 0.13662073 0.036917314
000100 44 eb 83 bd e8 c0 a0 bd f7 ea 45 be 39 fc 0c 3e
       -0.06441358 -0.07849294 -0.19327913 0.1376809
000110 5a 05 3d be c4 cb f9 bb 50 62 20 be 49 5f 9a 3d
       -0.18459073 -0.0076231677 -0.15662503 0.075377055
000120 4b 87 17 3c 87 56 b6 bc 09 46 9c 3c 25 73 dc 3c
       0.009248565 -0.022258056 0.019076364 0.026910374
000130 c6 5a e1 3d 2e 6f 9e 3d 47 2e 99 bd 7a 25 ca 3c
       0.11003642 0.077360496 -0.0747953 0.024676073
000140 77 f1 80 3d 30 d7 c2 3d b3 0b bc 3d 53 78 69 bd
       0.06296056 0.095137 0.09181919 -0.056999516
000150 06 68 78 3d 5f 8f 3b 3e 5b a7 ae 3d e7 a8 4f 3e
       0.06064608 0.1831641 0.08528014 0.20279275
000160 82 1d cc 3d 67 a7 2f 3e 49 6e c1 bc 4b 13 06 bd
       0.09966566 0.17153703 -0.023612158 -0.032733243
000170 ac da 1b 3e b1 09 ee 38 12 6f c0 bd c0 a8 ec bd
       0.15220135 0.000113505295 -0.09396185 -0.11555624
000180 74 4c 87 3d f2 7f 14 3d 0f 25 31 3d a4 98 5e 3d
       0.06606379 0.03625483 0.043248232 0.05434479
000190 8d 28 2f be c1 f6 4e be 66 7c 43 3e f9 a0 da 3b
       -0.17105313 -0.20211317 0.19090423 0.0066720215
0001a0 7f 71 e0 3d 22 8a 4a 3e b3 ab 64 3e 48 dc 37 3e
       0.10959148 0.19779256 0.22331123 0.17955124
0001b0 62 08 af bd 14 08 5a 3e 25 fd 6c be 33 1b 85 bd
       -0.08546521 0.21292144 -0.23143442 -0.064993285
0001c0 2b 3c ee bc c9 e7 c0 3d a9 3e b3 3c c7 7d 64 3d
       -0.029081425 0.094192095 0.021880465 0.055784013
0001d0 73 6f 93 bd ff 94 fd 3d 7a 8a 81 bd ab f2 33 bc
       -0.071989916 0.123819344 -0.063252404 -0.0109831495
0001e0 3e 75 c6 bd b4 66 1b bd e6 6a 6f bd 82 5e 7f 3d
       -0.09690331 -0.037939742 -0.058451556 0.06234599
0001f0 3c 84 1b bd 22 e8 03 3e 57 7f b1 bd ff 3f c3 bc
       -0.037967905 0.1288152 -0.08666866 -0.023834227
000200 09 59 35 3d 54 10 4b bd 17 c6 9f 3b 5f e8 dd 3d
       0.044274364 -0.04957612 0.004875909 0.10835337
000210 3e 2c 84 ba c4 d5 c6 3b b8 6a 8c 3d 2e 2d 7a 3c
       -0.0010083986 0.0060679633 0.068562925 0.015269561
000220 86 30 a1 bd 33 45 e0 3d d2 51 a6 bd e4 47 19 bb
       -0.07870583 0.10950699 -0.08121075 -0.0023388797
000230 f2 9a 1e 3c c8 0c 22 3e 50 36 50 3d 09 22 60 bc
       0.0096804965 0.15825188 0.050833046 -0.01367999
000240 a2 98 82 3d 30 10 8b bd 1c c0 88 bd e2 12 30 3d
       0.06376769 -0.06790197 -0.06677267 0.042986758
000250 e2 46 97 bd 57 93 1b bd 4c 97 52 3c 91 ea 9f 3b
       -0.07386567 -0.03798231 0.012853455 0.0048802574
000260 40 bb 01 be 88 71 0c be d3 8a 0e be 1a e3 6e 3d
       -0.12669086 -0.13715184 -0.13920145 0.05832205
000270 72 25 a2 3d 1a c5 10 be 47 af 6d 3d f1 49 19 3e
       0.079172984 -0.14137688 0.058028486 0.14969613
000280 7b 7f b4 bc b5 1e e6 3d 57 51 ef bd a2 99 e0 b9
       -0.022033444 0.11236326 -0.11685436 -0.00042839075
000290 ea dc 6c be 16 2c 87 bd 66 be 23 bd 01 47 95 bd
       -0.23131147 -0.066002056 -0.0399765 -0.072889335
0002a0 74 c1 de 3d 3d a1 aa 3e 8a a1 7e be 86 47 8b 3d
       0.10876742 0.3332614 -0.2486631 0.068007514
0002b0 cc 0f 9d 3d c7 08 3f 3e 1f 04 4e 3e 91 92 40 be
       0.07669029 0.18655692 0.2011876 -0.1880591
0002c0 70 df de 3d f2 1c 5d bd d4 20 29 bd 89 3e 48 3e
       0.10882461 -0.053982683 -0.041291073 0.19555105
0002d0 8d fa fe bd 86 4b 43 be 39 bd 55 bd e1 0c 7a 3b
       -0.124501325 -0.19071779 -0.05218241 0.003815465
0002e0 ad bd dd bd 5f 39 0a 3e 00 3a c4 3d 7a c9 1c 3d
       -0.108271934 0.13498448 0.09581375 0.03827808
0002f0 e5 94 06 3d 15 3b 6e 3d 0e b2 2b bd 3a a8 2a bd
       0.03285684 0.058161814 -0.041917853 -0.04166434
000300 6a ff ba bd 00 9a 04 bd f2 37 db 3d 32 ff e3 bd
       -0.091307476 -0.03237343 0.1070403 -0.11132659
000310 b5 9a 13 3e 65 d8 43 be f1 9f 6d bc 04 63 1f 3c
       0.14414485 -0.19125517 -0.014503465 0.009728197
000320 a8 6e 85 bc 2c c4 8a bd c2 45 84 bc 9f d0 22 bd
       -0.016288117 -0.06775698 -0.016146544 -0.039749738
000330 6d 5e bf 3d d6 d8 96 bd 86 4b 0c 3c 3b a1 1a be
       0.09344182 -0.07365577 0.008562928 -0.15100567
000340 3b 08 f6 3c d8 3d d6 bd e9 c7 94 bd 7c be 8c be
       0.030033221 -0.104610145 -0.07264692 -0.27489078
000350 0d 3d 01 be 04 02 1c be 43 74 88 bd b1 4e 9f bc
       -0.12620945 -0.15235144 -0.066628 -0.019446703
000360 d3 70 14 be cf 52 32 be 4e 98 e6 bd c6 55 44 bd
       -0.14496164 -0.17414401 -0.112595186 -0.047933362
000370 f1 97 4a be 8b d1 e9 bd d8 7d 83 be 84 44 aa 3d
       -0.19784524 -0.1141692 -0.2568195 0.083138496
000380 b8 4c 7f be 81 ad 24 be be 6d 9a be 8b 54 4a be
       -0.2493161 -0.16081811 -0.30161852 -0.19758813
000390 51 e4 e0 bd a2 79 72 be 84 24 b0 be 8d cf 11 be
       -0.10981048 -0.23679212 -0.3440286 -0.1423933
0003a0 f3 c2 66 be ce 18 83 be 3e 52 2f 3c 5c 07 8c bd
       -0.22535305 -0.25604862 0.01070076 -0.06837341
0003b0 cd c4 41 3e 8e b9 52 bd 5b 05 e1 3b a6 db eb 3d
       0.1892273 -0.05144649 0.0068670935 0.11516504
0003c0 de bd 1f bb fe 48 67 bd d9 fa 2d 3e cd 42 b1 bd
       -0.0024374644 -0.056466095 0.16990222 -0.08655319
0003d0 5f fd ca 3d 49 47 01 be 3f 15 f3 bd 49 ad 51 3d
       0.09911608 -0.1262485 -0.11869287 0.05119065
0003e0 be 7b 12 be 6d 63 90 bb 74 76 7b 3d 30 94 5e bd
       -0.14305016 -0.0044063837 0.061392263 -0.05434054
0003f0 90 eb 78 3e 06 bc e1 3c 47 1a 46 3d e7 64 09 3c
       0.2430861 0.027555477 0.048364904 0.008385873

skip2.conv.bias f4 [16]
000000 aa a2 85 3d 4c ec 70 bd 04 06 99 bd b0 ac bb 3d
       0.06525166 -0.0588191 -0.074718505 0.09163797
000010 37 85 e8 3b 15 ee 3e bc 53 b7 7e 3d 59 c9 06 3d
       0.0070959586 -0.011653443 0.06218655 0.032906864
000020 3c e6 0e bd 07 82 12 bc 54 d4 24 bd 70 ad 68 bd
       -0.034887537 -0.008942134 -0.040241554 -0.056806028
000030 29 22 8a 3d 1c 29 89 bd e8 27 f4 3c 07 3e 9b bc
       0.06744797 -0.06697294 0.029804185 -0.018950475

conv2.conv.weight f4 [32, 16, 3, 3]
000000 1a 52 ca bd 04 78 84 bd 28 a5 8f 3d 01 d2 12 be
       -0.09878941 -0.06468204 0.07013923 -0.14337923
000010 c2 31 bd bd 34 16 43 3d a2 a5 98 bd 58 df f8 3d
       -0.09238006 0.047628596 -0.07453467 0.121519744
000020 42 a8 4e ba e3 f0 be 3e 27 8b b0 3e 75 c1 a3 3e
       -0.0007883349 0.37293157 0.34481165 0.31983534
000030 d6 2f 51 3e 90 a1 93 3e ef f6 b9 3e 55 31 4d 3e
       0.20428404 0.288342 0.36321208 0.2003835
000040 40 2f b5 3e 24 ea 58 3e 52 f8 6d 3d 13 b4 2a bd
       0.3538761 0.21183068 0.058098145 -0.04167564
000050 f0 b7 bb bc 7d b4 71 bc 4f 96 0d 3a a3 94 04 be
       -0.022914857 -0.014752504 0.0005401121 -0.12947325
000060 ff 8a 4e 3c 25 e7 31 bd df b4 25 3b be 35 10 bc
       0.012606381 -0.043433327 0.002528481 -0.008801876
000070 1c 4e f5 3d a9 5c fe bc 45 48 72 3d e2 b4 ad 3c
       0.11977789 -0.031050043 0.059150953 0.021204416
000080 08 55 df bc a5 df f0 bc e3 b3 67 3d e9 04 7a 3d
       -0.027262226 -0.029403517 0.056568038 0.06103984
000090 18 8e 33 bd 41 59 18 3d 2f 7f bc bd 83 4e 08 bc
       -0.043836683 0.037194494 -0.09203946 -0.0083195
0000a0 45 bd af bc 3e 4e 87 bd 52 0c 3b 3d 7c 5f e1 3d
       -0.021452555 -0.066067204 0.045666046 0.1100454
0000b0 c8 2c 6d 3d 07 ba be bb 29 c2 51 3c 52 71 81 3e
       0.057904035 -0.005820516 0.012802639 0.2528177
0000c0 1d 87 f9 3d 49 b3 2e 3d 89 0e 56 3e 98 6f bf bd
       0.12183974 0.04265145 0.20903982 -0.09347457
0000d0 56 54 93 3d 8d 3c c9 3c d8 40 69 3e 77 4f 5a 3e
       0.0719382 0.024565006 0.22778642 0.21319376
0000e0 88 e4 a0 3e dd ff 1e 3e b8 e3 9a 3e 16 03 64 3e
       0.31424356 0.15527292 0.3025186 0.22266802
0000f0 80 4a 80 3e b0 b8 59 3e 45 3e a6 3e c4 0a ae 3c
       0.2505684 0.21261859 0.32469383 0.021245368
000100 32 63 b2 3d 62 db 60 3d fe 18 b7 bc 23 da d5 3d
       0.08710326 0.05489672 -0.022350784 0.10441997
000110 44 1b 98 3d ad 61 85 bd 60 a1 9e 3d 73 03 8e bd
       0.074270755 -0.06512771 0.077456236 -0.06934252
000120 07 3b cf bd 18 fb 3f be 3b ee 03 bd dd 94 11 be
       -0.101186804 -0.18748128 -0.032209616 -0.14216943
000130 60 79 0e bb f9 33 a9 3d 00 75 94 3d d4 5b 08 3e
       -0.0021739826 0.08261866 0.072488785 0.1331628
000140 55 3e cb 3c 90 d8 9f 3d 9d 84 16 bd 43 f7 96 3c
       0.024809996 0.07804978 -0.036747564 0.01842845
000150 35 d4 ad 3d 88 72 95 3c 3e f3 37 3d 19 5e 3c 3e
       0.08487741 0.01824309 0.04490971 0.1839527
000160 9c 96 28 3e 3f b9 12 3e 51 2c 1c 3d 15 4a 91 bd
       0.16463703 0.14328478 0.0381282 -0.07094208
000170 d2 70 83 bc b7 6f 49 bd 7b 86 8c 3d f3 c6 94 3d
       -0.016045008 -0.049178805 0.068615876 0.07264509
000180 4a 34 19 bc 95 35 29 3e 1e d1 15 3e 05 0d 42 be
       -0.009350846 0.16524346 0.14630553 -0.18950279
000190 cb 5a 1f bc 9c a5 cb 3c 50 43 ce bd 0a b7 73 3d
       -0.009726237 0.024859242 -0.100714326 0.05950073
0001a0 14 da a8 3d 09 0b c7 bc b5 20 87 3d 71 49 ac 3d
       0.0824472 -0.024297254 0.06598035 0.08412445
0001b0 b2 64 0b 3d 8f a0 8a 3d 95 af 71 bd 8c f6 c3 3d
       0.034031577 0.06768905 -0.05900534 0.095685095
0001c0 1a a0 fe 3d 5b a2 c9 bc d9 37 d2 3d 04 37 10 ba
       0.12432881 -0.02461355 0.10264558 -0.0005501362
0001d0 31 d5 eb bd 64 be 91 3e cc 8d af 3e dc 06 04 3e
       -0.115152724 0.2846557 0.3428787 0.12893242
0001e0 12 32 cb 3e f3 5c 4f 3e da 60 81 3e 4d ec a2 3e
       0.39686638 0.20250301 0.25269204 0.31820908
0001f0 d5 14 8b 3e 01 91 69 3e 7d a4 af ba 37 28 b9 bc
       0.2716433 0.22809221 -0.0013400462 -0.022602184
000200 8c 87 7c bd f0 d0 2a 3d 97 46 53 bd e2 77 b8 3b
       -0.061652705 0.041703165 -0.05158099 0.0056295255
000210 85 96 11 3e 0d 27 32 bd 2f 95 ab 3c 60 42 1c 3e
       0.14217575 -0.043494273 0.02094516 0.15259695
000220 d1 ad af 3d f9 6d ab 3d d2 e0 8c 3d 1e 55 3f 3e
       0.08578075 0.08370585 0.068788186 0.18684813
000230 cb 9e b9 3d 65 75 4d 3e b2 70 7b 3e fc 83 0a 3e
       0.090634905 0.20064314 0.24554709 0.1352691
000240 8f 1a 91 3d 5d c0 3c 3b 97 f6 81 3d b7 3e 0f be
       0.07085144 0.002880118 0.063458614 -0.13988768
000250 fa e4 26 be 74 0c 44 3e 79 de 8f be 4b 14 69 3d
       -0.16298285 0.19145375 -0.2809942 0.05690412
000260 36 28 47 bd 37 f4 29 3e 46 3c 39 3e ef bd 7f 3e
       -0.048622333 0.16597067 0.18089399 0.24974798
000270 34 88 18 3e ff 9a b2 3e 9f 78 2d 3e cd 68 7d 3e
       0.14895707 0.34883878 0.16940545 0.2474701
000280 b0 4b a1 3e ae dd 05 3e 40 dd 39 3d 61 2b a0 3d
       0.31503057 0.13072845 0.045377016 0.07820774
000290 51 6e fd bc 21 71 08 3d 25 b4 58 bc 3b f5 aa bd
       -0.030936392 0.033311013 -0.013226544 -0.08347555
0002a0 01 69 ca 3d e3 ab f2 bd e0 6b e4 3d f0 85 2e 3c
       0.09883309 -0.11849191 0.11153388 0.01065205
0002b0 a0 dd 7b 3d f7 60 57 bd 0c b3 3e 3e 0e 69 90 3d
       0.061490655 -0.052582707 0.18622988 0.070512876
0002c0 39 5c 90 3c a2 ab e4 3d 2e 0c 7c bd 9f 12 74 3d
       0.0176221 0.11165549 -0.061535053 0.05958807
0002d0 2c 1e 9c 3d 7e 44 05 be 0b 22 22 be c9 34 03 3e
       0.07622942 -0.13014409 -0.15833299 0.12813105
0002e0 fd e7 ec bc ae b7 ff 3d e6 90 6b 3e 26 95 80 bd
       -0.028919214 0.12486206 0.23004493 -0.06278448
0002f0 d7 6d ca 3d 9b ec cf bd 72 c4 d5 bd 3d 73 9d bd
       0.098842315 -0.10152551 -0.104378596 -0.076879956
000300 9a 69 1f be c3 50 ab be 3a ac b4 be 84 9e 30 bd
       -0.15567628 -0.33460054 -0.35287648 -0.043119922
000310 ca 24 f9 bd a9 72 eb bd ea f3 d1 3d d9 14 96 3d
       -0.1216522 -0.11496479 0.10251601 0.07328195
000320 82 10 20 3e cf 8f d7 3d 44 29 c1 3d eb ac c2 3d
       0.15631297 0.10525476 0.09431699 0.09505638
000330 36 16 80 bc 8c 7b cc 3d b4 c1 a4 3d 19 fa d3 bd
       -0.015635591 0.09984502 0.080447584 -0.10350437
000340 81 1b 8c be 33 e9 2a be 9b 29 c6 bb b4 2d f4 be
       -0.27364734 -0.16690521 -0.00604744 -0.4769112
000350 3d f3 a8 be 09 09 e0 3d 1e d3 3b be b8 2c b8 3d
       -0.32998076 0.10939223 -0.18342254 0.089929044
000360 ee 7c c2 bd 7d ed 54 be c9 95 1b bd 1f 3b 09 bd
       -0.09496485 -0.2079372 -0.037984643 -0.033503648
000370 ce b9 37 3d 58 88 88 3d 7a f7 88 bd cf 56 7e 3d
       0.04485493 0.066666305 -0.066878274 0.062094506
000380 ff ed 8d bc cf b2 5b 3d 6d ed 1c 3c 67 0b 86 bc
       -0.0173254 0.053637322 0.009578091 -0.016362859
000390 f1 b2 0f bc 24 a3 d7 bc 40 89 95 bd 24 5b dc bc
       -0.00877069 -0.026322909 -0.07301569 -0.026898928
0003a0 ed 85 d5 bb cd 12 a8 bb 16 41 59 3d 22 e2 a4 3c
       -0.0065162093 -0.0051291944 0.053040586 0.02012736
0003b0 d9 c8 55 3d b1 4a 6d 3d e6 12 33 3e a1 46 da 3d
       0.052193496 0.05793256 0.17487678 0.10658003
0003c0 fe 07 17 bd 49 25 da 3d 8e 03 43 bd 0f e3 6c be
       -0.036872856 0.10651643 -0.047610812 -0.23133491
0003d0 53 42 46 be 7f 22 3c be 08 2d 5d be 68 04 06 be
       -0.19361238 -0.18372534 -0.2159921 -0.13087618
0003e0 a5 75 28 be 1a ff 1b be 73 8f e5 bd ba f6 e1 bd
       -0.16451128 -0.15234032 -0.112090014 -0.110333875
0003f0 e5 ff 03 bd 76 70 42 3d f1 82 a7 bd 93 e3 2d 3d
       -0.032226462 0.047470532 -0.08179272 0.04245336

conv2.conv.bias f4 [32]
000000 c9 4e 2a 3d 3c 63 f1 3b 83 0e 84 bd bf 78 ae bd
       0.04157904 0.007366566 -0.064480804 -0.08519124
000010 9d a2 4e bd 4f f3 12 3d be f6 81 bd 5a e6 f7 3c
       -0.05044805 0.03587657 -0.063458905 0.030261207
000020 2f d0 d4 bc ee a1 9f bd 45 73 02 3d 56 91 75 bd
       -0.025978176 -0.077945575 0.03184821 -0.059953056
000030 cf 0e 8b bc b9 04 ef bc 19 91 9c 3d 4f db 7f bc
       -0.016974835 -0.029177057 0.07644863 -0.015616252
000040 15 1f 04 bd e6 31 8f bc 3f 58 68 3d a1 77 36 bd
       -0.032256205 -0.017479848 0.056724783 -0.04454768
000050 bf fb cb 3c a6 62 85 bd 7a 68 18 3a 22 d1 36 bc
       0.024900315 -0.06512956 0.0005813908 -0.01115826
000060 eb d4 89 bc d5 45 aa 3d 29 fb 8a bd 43 3a 91 3d
       -0.01682516 0.08314101 -0.06786186 0.07091191
000070 43 3e 91 bd 73 71 63 bc 14 ae 29 bb 00 7c 80 bb
       -0.070919536 -0.013882029 -0.0025891112 -0.003921032

skip3.conv.weight f4 [32, 32, 3, 3]
000000 b1 12 0a be 5b 26 d9 bd 29 a0 8d bc b0 28 33 be
       -0.13483693 -0.10603019 -0.017288284 -0.1749599
000010 ec dc d5 bd 41 94 c8 3d df ac 1f 3e 8d 60 83 3e
       -0.10442528 0.09793902 0.15593289 0.256596
000020 d7 b6 8f 3e 0f 79 cb 3c 66 97 03 3d 13 ff b3 3d
       0.28069183 0.024837999 0.032126807 0.08788886
000030 b0 82 6b bd fa c7 37 be 4a 47 a5 3d b4 62 f4 bd
       -0.05749768 -0.17947379 0.08070238 -0.119328886
000040 79 ea 7d bd c3 53 3f bd de 60 cb bd a6 ce 59 bd
       -0.06199119 -0.04671074 -0.09930585 -0.05317559
000050 9d cf 9b bd bf 04 c6 bd 8f 72 49 be 77 dc 8b be
       -0.076079585 -0.09668874 -0.19672607 -0.2731664
000060 f0 03 49 bd 90 f1 09 be c3 e3 c0 bd e6 1d 15 3c
       -0.04907602 -0.13471055 -0.09418442 0.009101367
000070 54 c9 ad 3d bd 5c c9 3d cd 2d 4a 3d 1e ae 73 3e
       0.08485666 0.098321415 0.049360085 0.23796889
000080 94 66 47 3e 22 7e b5 3d da 05 26 3e e1 29 1e 3e
       0.19472724 0.088619485 0.1621317 0.15445663
000090 4c c2 c4 3c 2e 49 8f 3d af d6 8d 3d 26 eb e3 3c
       0.02401843 0.0699638 0.06925713 0.027822088
0000a0 3e 6a 3c 3d 1e 38 a5 bd fe 9f 13 3e 88 12 2a 3e
       0.045999758 -0.08067344 0.14416501 0.16608632
0000b0 56 d4 c9 3d 65 48 3e 3e 78 53 94 3d df 3e 2b 3e
       0.09854953 0.18582304 0.07242483 0.16723202
0000c0 10 ec 07 3d aa e9 41 3e 13 81 29 3e 71 47 a5 3b
       0.03318411 0.18936792 0.16553144 0.005043917
0000d0 94 8c ba 3d 0c dc 3e 3e e6 b0 cb bb 98 69 fc 3d
       0.091088444 0.18638629 -0.0062161563 0.12324828
0000e0 75 75 d0 3d 43 dd d5 3d 14 a6 0c 3e 49 be 93 bd
       0.10178653 0.10442593 0.13735229 -0.072140284
0000f0 ca f3 09 3e 56 ab 4f be 2d bc 3f be 35 64 80 3b
       0.13471904 -0.20280203 -0.18724127 0.0039181956
000100 e4 3f 51 3d 1e 32 ef 3d 09 a6 3e 3e 58 9c ce bd
       0.05108632 0.11679481 0.18618025 -0.10088414
000110 18 d6 c5 3b 03 ec 25 3e 66 b5 4e bd 5b 1e 7a bd
       0.006037485 0.16203313 -0.050465964 -0.061064105
000120 f1 38 d8 bd 46 3c e0 bd 84 4a 99 3d 35 8e 82 3c
       -0.10557736 -0.10948996 0.07484916 0.01593695
000130 b7 81 db bc 37 38 af 3b 44 6f 24 bd 81 74 0a bc
       -0.026795251 0.0053472775 -0.040145174 -0.008450628
000140 0c 05 8f 3c 8f be f5 bb c8 5a 6c bd bd 34 8f bd
       0.017458461 -0.007499523 -0.057703763 -0.06992481
000150 4f 4d 16 3e e8 a3 fa 3c ef 3f 5b be 93 6b cd 3c
       0.14677928 0.030595735 -0.21411107 0.02507571
000160 fd 4f 88 bd 77 00 37 3d 17 3b 0d 3e 9b e7 85 3d
       -0.066558816 0.044678178 0.13792072 0.06538316
000170 a4 ed 54 3e 80 4f d1 3b e0 ab 4c be f3 5a aa be
       0.20793778 0.006387651 -0.1998744 -0.33272514
000180 f7 b1 56 be 8b 98 8e bd 2a 1c f4 bd 8e 97 69 bd
       -0.20966326 -0.06962689 -0.11919434 -0.0570293
000190 22 32 8d be 13 9f ca bc 0f 06 51 bd c6 ce f0 bc
       -0.2757731 -0.024734056 -0.05103117 -0.029395472
0001a0 28 d2 ad bd ff e6 2c 3d 58 57 d9 bc 6d f2 8f bd
       -0.0848735 0.042212483 -0.026530907 -0.07028661
0001b0 d5 e6 2c 3d ab 92 1d bd c1 39 7e 3d 3e 71 c1 bd
       0.042212326 -0.03846995 0.062066797 -0.09445427
0001c0 08 e8 24 be e4 8c 36 3d 40 c6 61 bd af 9a 27 bd
       -0.16104138 0.044567958 -0.055120707 -0.040919002
0001d0 e6 fe c8 3d b6 9c 89 bd b9 3b b1 bd b6 08 39 be
       0.09814243 -0.06719343 -0.08653969 -0.18069729
0001e0 d6 89 fe bc ea 21 5e be 17 b5 e2 bd 58 9f 9c bd
       -0.031071585 -0.21692625 -0.110696964 -0.0764758
0001f0 b7 af b8 bd a4 7f 8c 3d 11 ec 2e 3c 60 c1 b2 3c
       -0.0901789 0.06860283 0.0106764 0.021820724
000200 fa e0 d4 3c be 7a d4 3d 66 22 25 3d 84 22 55 3d
       0.025986183 0.10374974 0.040316008 0.05203487
000210 71 e6 ea 3d 99 e7 a1 bc 74 0c c6 3b d4 22 9d bd
       0.114697345 -0.019763755 0.006043965 -0.076726586
000220 58 3e e6 3c 88 a6 e0 3c 0a 38 f7 bd 89 97 c1 3c
       0.0281059 0.027423158 -0.120712355 0.023631828
000230 29 0f aa 3d 8f 67 d2 3d 03 43 45 3e ee 0d 8b 3d
       0.08303673 0.102736585 0.19263844 0.06789766
000240 8c 4b 05 3c d6 58 71 bc 68 6b 1e 3e 0b 6a 70 be
       0.008135688 -0.014730653 0.1547066 -0.23477952
000250 4b 4a 99 be 95 32 09 bd d1 b5 8d be 9b 1d b0 be
       -0.29939494 -0.033495504 -0.27677777 -0.34397587
000260 63 a1 c0 bd 8b 38 84 3d f3 48 93 3d c3 7a d0 3c
       -0.09405782 0.06456097 0.07191648 0.025449162
000270 4e a3 12 3d ee f4 15 3d c5 5c 8e 3c fc 07 a9 3d
       0.03580027 0.036610536 0.01737822 0.08253476
000280 9a 80 d6 3c a4 bd 12 3d 32 16 76 3b fc d0 93 bd
       0.026184369 0.035825387 0.003754985 -0.07217595
000290 e3 d9 21 3d 58 7a 5a be fc d3 b7 3c bb b7 1e 3d
       0.039514434 -0.21335733 0.02243995 0.038749438
0002a0 5e 0d f5 bd db b6 cf 3d 1e 4a 14 bd a4 95 56 be
       -0.1196544 0.10142299 -0.036203496 -0.20955521
0002b0 8f c8 3e be dd c0 d6 bd 29 5a 9c be 10 0f 88 be
       -0.18631195 -0.104860045 -0.30537537 -0.26573992
0002c0 18 1c 19 be 00 63 6d be 38 b2 d5 bd 06 3b cb bd
       -0.14952123 -0.23182297 -0.10434383 -0.09923367
0002d0 89 aa 77 be 42 10 04 be e1 36 5c be e3 0e 02 be
       -0.24186148 -0.12896827 -0.2150531 -0.12700991
0002e0 89 ea d4 bd 1a d1 bc bd c6 cd 5c bd 47 45 ce bd
       -0.103962965 -0.092195705 -0.05390718 -0.10071807
0002f0 12 24 dc bd d6 cd 06 bd ad 80 39 be e5 bf 96 3d
       -0.10749067 -0.032911144 -0.18115492 0.0736082
000300 e3 cd 83 be 14 c4 7c be 76 aa 1d be 5a cf 87 be
       -0.25743017 -0.24684173 -0.15397057 -0.26525384
000310 02 3b 75 be 23 c7 db bd 72 d3 08 3d 05 87 41 bc
       -0.23948291 -0.10731342 0.033404775 -0.011811976
000320 90 99 f7 3d ba c4 5f bd c1 7d d3 3d da e5 1e 3e
       0.120898366 -0.054630972 0.1032672 0.15517369
000330 62 81 db 3d 1d 2c b9 3c 65 c6 98 3d 53 2d 66 3d
       0.10718037 0.022604043 0.07459716 0.05619557
000340 87 d8 75 bd 54 d3 e3 bc 63 e4 9a 3d 5e 43 24 3d
       -0.06002095 -0.02781073 0.075630926 0.04010331
000350 00 5d b7 ba 12 03 92 3d 5c 80 cb 3a 79 1b 2f bb
       -0.0013989508 0.07129492 0.0015525925 -0.0026719256
000360 50 fc bb 3c 28 ba 15 bd e6 5a 50 3b 32 c3 ca 3d
       0.02294746 -0.036554486 0.003179246 0.09900512
000370 9d 04 d7 3d d6 7b 8a 3d bc 5b 61 3b 72 f0 ad 3b
       0.10498927 0.06761901 0.0034386953 0.0053082043
000380 73 66 86 3d bf 6b 10 3d 4d 2b 0d bd a5 0b d3 bb
       0.065625094 0.035259005 -0.034465123 -0.006440597
000390 fa 8c 52 3d e0 17 6a 3c e7 7a bf bd 60 3a fe bc
       0.051403977 0.014287919 -0.09349614 -0.031033695
0003a0 d9 36 db bc 67 80 7c 3d 67 51 86 3d e5 c5 9d 3d
       -0.026759552 0.06164589 0.06558495 0.07703761
0003b0 7a 3c 8f 3d 64 6e dc bd 3f 71 46 bd 96 a2 01 3e
       0.06993957 -0.10763243 -0.048447844 0.12659678
0003c0 6d 7b 62 bd 9a 08 db bd 69 0b b9 3c 63 e3 7d 3d
       -0.05529349 -0.10695 0.022588449 0.06198443
0003d0 89 40 91 3d d3 40 bb 3d 7c 9d 14 3d d5 df 07 3e
       0.07092387 0.091432236 0.036283 0.13268979
0003e0 63 43 a4 3d 18 4f e7 3d 35 a9 06 3d 42 fd e9 3d
       0.080206655 0.11294383 0.032876212 0.11425258
0003f0 44 cd 93 3d 55 50 bb 3d 85 2b 93 3d 02 90 b6 bc
       0.07216886 0.091461815 0.07186035 -0.022285465

skip3.conv.bias f4 [32]
000000 8d 01 6e 3d 13 70 dc bb 36 4b ec bb 63 62 76 3d
       0.058106948 -0.0067272275 -0.0072111143 0.060152423
000010 68 41 b9 3c 36 22 0a 3b d4 a4 d0 3b 0b 8e 3f bd
       0.022614196 0.002107752 0.0063673053 -0.046766322
000020 2d 37 9c bc 03 4a b7 bc ed 37 42 3c fb 23 b9 bc
       -0.019069279 -0.022374159 0.011854154 -0.022600165
000030 1f c6 28 3d 3d 5d 07 bc dc a4 0f bd 5b 5f 38 3d
       0.041204568 -0.008261976 -0.03506933 0.045012813
000040 b4 09 f0 bc 0d ce 5b bc 69 cc 8c 3c de eb 18 3d
       -0.029301502 -0.013415826 0.017187314 0.037334315
000050 4d cd cf 3c 93 81 ab bb 71 1b cb 3c a5 fb 12 3d
       0.02536645 -0.0052339523 0.024793359 0.03588452
000060 d6 1d 4f bd 93 36 30 3d b4 d8 4b 3d ac c3 ea bc
       -0.050565563 0.043020796 0.04976721 -0.028657757
000070 a8 ea 34 bd de 62 6a bd c8 bb 9f 3c a5 5c 5c bd
       -0.0441691 -0.057223193 0.01949872 -0.05379929

skip4.conv.weight f4 [32, 32, 3, 3]
000000 f5 fa 4a be 63 42 16 be 92 9f b2 bd 3c 28 a0 bd
       -0.19822295 -0.14673762 -0.08721842 -0.07820174
000010 96 14 15 3d cf 1d 7a 3e ef a1 84 be a6 cf 24 be
       0.036396585 0.24425434 -0.25904796 -0.16094837
000020 97 47 2a 3d cf fd 2d bb ee b2 12 3e a2 2f 98 bd
       0.04157218 -0.0026548987 0.14326069 -0.0743096
000030 26 7b 32 3e b8 17 ff bc 5f ee 3e be 2d 9f 93 3d
       0.1742979 -0.03113924 -0.18645619 0.07208095
000040 db c1 22 be 82 e6 d2 bd 66 65 d1 bd 55 c3 12 bd
       -0.15894262 -0.10297872 -0.10224418 -0.035830814
000050 99 46 48 3d 2e c1 c9 be ed 36 82 be 8a 88 25 be
       0.048895452 -0.39405197 -0.2543253 -0.16165367
000060 a8 c9 03 bd e4 f7 00 be 71 14 87 bd c9 26 07 3e
       -0.032174736 -0.12594563 -0.06595696 0.13198389
000070 d1 d5 92 3d ba b1 3d 3c 1c be 39 3e 6d 4c cc bc
       0.071696885 0.011578018 0.18138927 -0.024938786
000080 01 64 36 be 64 43 7f 3d 58 8f 80 bd 58 86 34 bd
       -0.17811586 0.062320128 -0.06277341 -0.044073433
000090 ba 87 1f bd f1 bb a0 bd 6f dc 61 bd 39 bc 14 bd
       -0.0389478 -0.07848347 -0.055141862 -0.036312316
0000a0 cf b6 01 be 3a 6e 12 be b9 a5 a0 bb 84 b4 5b be
       -0.12667392 -0.1429986 -0.004902568 -0.2145558
0000b0 6e 00 46 bd 28 17 11 3e e9 7d af 3d 9c 78 25 3d
       -0.048340254 0.1416899 0.08568937 0.040398225
0000c0 f8 f7 e7 3d 15 22 2b bd b7 9d 5b be 39 02 32 bd
       0.11326593 -0.04178055 -0.21446882 -0.04345915
0000d0 13 11 20 be 69 cb 52 be 3b b1 56 bc eb 94 09 bd
       -0.15631513 -0.20585407 -0.0131037785 -0.033589285
0000e0 8c 0f 2f bc 0e 53 6a 3d d2 f7 0c 3e aa 09 b8 3c
       -0.010684859 0.057208113 0.13766411 0.022465546
0000f0 e8 f6 1f 3e 2c 84 b5 3e d2 93 b4 3d 0f 51 ec bb
       0.15621531 0.35452402 0.08817257 -0.0072118114
000100 65 a4 e7 bb b5 5a 1e bd 23 fb e6 bd 78 7a 9c bd
       -0.007069158 -0.038660724 -0.11278369 -0.076405466
000110 b6 1c 8e 3c 97 9a 83 3c 10 c7 9e 3d ae 3e a2 3e
       0.017347675 0.016064925 0.07752812 0.31688446
000120 33 93 55 bc 46 81 09 bd ef c5 a1 bc 62 cf 7d 3d
       -0.013035583 -0.03357055 -0.019747702 0.061965354
000130 57 06 37 3e f6 5b a3 3d 01 ab 16 3d a9 19 a4 3d
       0.17873512 0.079765245 0.036784176 0.08012707
000140 f3 1b 73 3d 9c a6 9c bd a5 0c cf bd de 0e 32 bd
       0.059352826 -0.07648966 -0.10109834 -0.04347121
000150 52 fc 62 be 69 65 6a be 2b d6 21 be 2f 23 a5 bd
       -0.22166565 -0.22890247 -0.15804355 -0.08063351
000160 e1 52 7d bd f7 47 07 3b a2 4e b4 3d f1 a5 ad 3d
       -0.061846618 0.002064226 0.088040605 0.084789164
000170 72 03 e5 3d 2f 9f 8f bc f7 6d 08 bd a6 7c d3 bc
       0.11182298 -0.01753196 -0.033307996 -0.025816273
000180 15 64 23 be b9 bd 07 be 8e 58 0a be 0a d0 25 3c
       -0.15956147 -0.13255967 -0.13510343 0.010120401
000190 85 7c 54 3d a1 69 1b 3b 40 c5 7e ba d8 56 0d 3e
       0.051876564 0.0023714083 -0.00097187236 0.1380266
0001a0 71 b8 27 3e 19 09 63 3e af d5 82 3e 00 f0 3f 3e
       0.16378953 0.22171439 0.25553653 0.18743896
0001b0 32 7c 08 3e 58 97 29 3e ee 5e 22 3e 8e d4 bc 3d
       0.13328627 0.1656164 0.15856525 0.09220229
0001c0 a2 dd a0 3d f2 81 bb 3d 1a e9 04 3e da 1e b7 3d
       0.07854773 0.091556445 0.12979546 0.08941431
0001d0 71 41 16 bd e9 9a 9f 3d 93 00 04 3e f4 87 c8 3c
       -0.036683504 0.07793219 0.12890844 0.02447889
0001e0 28 88 38 bd 87 c3 04 be 81 c2 21 be 71 60 62 bd
       -0.045051724 -0.12965213 -0.15796854 -0.055267755
0001f0 aa 37 11 be 18 86 34 be 2a 63 56 bd 39 08 d6 bc
       -0.1418139 -0.17629278 -0.052340664 -0.026126968
000200 a5 db 30 3d 6a 08 51 bc 93 9d 06 3d 72 17 5b 3d
       0.04317822 -0.012758354 0.03286512 0.053489156
000210 9d cd be 3c df da d1 3b c9 60 8b 3d b0 3a 2f 3e
       0.023291403 0.0064042653 0.0680557 0.17112231
000220 16 c0 c6 3c 10 91 42 3d 1c a4 7e 3d 65 ff a3 3d
       0.024261516 0.047501624 0.062168226 0.08007697
000230 c7 aa 00 3e a9 4c 5a 3d 44 1e d8 3d 29 3e 5c 3e
       0.12565146 0.053295765 0.10552648 0.21508087
000240 e9 92 84 3d 68 40 c8 bb 15 e9 45 3d 24 59 30 3d
       0.064733334 -0.0061111934 0.048317987 0.04305376
000250 a8 f0 19 3c cd 7a 0a 3d 7f 5b 0c 3e e9 af 6c 3e
       0.009395756 0.03380852 0.13706778 0.2311398
000260 7c fc 3a 3e d0 0e e6 bc b5 aa ee bd 1c 2c 6a bc
       0.18260378 -0.028083235 -0.116536535 -0.014292743
000270 8a 23 3d 3c fd 6b 42 be ff 48 80 bd 3f ad a2 bd
       0.011544118 -0.18986507 -0.06263923 -0.079432
000280 f3 47 d2 bd 06 c5 0e 3d 2e bc 54 3d 40 86 13 bd
       -0.102676295 0.034855865 0.051937275 -0.036016703
000290 32 a2 db bd 45 c9 a7 3d 72 97 85 3d d6 38 f7 bc
       -0.10724296 0.08192686 0.065230265 -0.030178469
0002a0 5d 78 bc bc 5f 5c 39 3d 5e d9 28 3d aa e5 be 3c
       -0.023006612 0.045254108 0.041222923 0.023302872
0002b0 7b 6b e9 bc 53 18 88 3d 14 d8 69 bd 06 10 0b be
       -0.028493633 0.066452645 -0.057090834 -0.13580331
0002c0 4b 9b ec 3d 3a 12 32 bc a0 7b 89 bd cf 27 c1 3c
       0.11553057 -0.010868603 -0.06713033 0.023578553
0002d0 2e 6c 32 3c 67 fc 05 bd aa 87 85 3b 24 73 15 3d
       0.01089005 -0.032711413 0.0040750103 0.03648676
0002e0 17 a7 c6 3d 3d 4e 74 3c cc 0a f1 bc ca 20 6c 3d
       0.096998386 0.014911232 -0.029424094 0.057648458
0002f0 73 10 bc 3d 73 ac 39 3c fd 00 b4 3c b9 32 04 3d
       0.09182825 0.011332619 0.021973127 0.032274935
000300 f5 47 db 3a 46 70 3d 3c 26 1a 2f 3e 89 56 27 bc
       0.0016729819 0.011562413 0.17099819 -0.010213503
000310 3e 76 24 3e c2 cf 69 3d 51 59 2a 3d 53 60 ed 3d
       0.16060731 0.0570829 0.041589085 0.11590638
000320 9b d1 70 3c ff 27 26 3d 31 9d 1c 3d 67 09 0b be
       0.014698411 0.040565487 0.038235847 -0.13577805
000330 50 d2 b9 3d ab 4e 19 3d f9 11 4d bd 0a 33 cc 3d
       0.09073317 0.03742854 -0.05006597 0.099706724
000340 65 2a 29 3e ed dc f2 3d e7 68 9d 3d b7 6a cc 3d
       0.16520078 0.118585445 0.07686024 0.09981292
000350 4c d6 cf 3d b3 58 d6 3d 04 06 6b bd 07 0c 3c 3d
       0.10148296 0.10466137 -0.057378784 0.045909908
000360 0f 33 ad 3d 1a 07 3f bd d1 e9 09 bd 1d ae 02 be
       0.08457004 -0.046637632 -0.03367025 -0.12761731
000370 ac 99 cd bd 08 1b e3 3d 37 01 ae bd 10 f8 9e bd
       -0.10039076 0.1108914 -0.084963255 -0.07762158
000380 27 8d df 39 94 a1 3f be 20 a3 ff bd 48 7c 0b bd
       0.0004263904 -0.18713981 -0.124822855 -0.03405407
000390 45 40 64 be 2b d6 1e be 62 e5 b1 3d e3 4a ae bd
       -0.22290142 -0.15511386 0.086863294 -0.08510377
0003a0 3e 7b 97 bc f2 48 0a 3e 03 65 ff 3d 35 68 6f 3e
       -0.018491384 0.13504389 0.12470438 0.23379596
0003b0 8f 67 b3 bd 81 a4 c7 3d e4 e6 da 3d 79 ce be 3d
       -0.087599866 0.097481735 0.1068857 0.09316725
0003c0 81 f2 9d bd df b6 4c be e7 b9 ae bd d4 6c bb bd
       -0.077122696 -0.19991635 -0.08531552 -0.09151617
0003d0 cc 4b bd bd c8 7f 0b 3d 46 b5 96 bc da 26 c1 bb
       -0.09242973 0.03405741 -0.018396985 -0.005894524
0003e0 74 00 fb 3d 53 6e 13 bd 72 a6 f0 bd 36 64 1b 3e
       0.12255946 -0.035993885 -0.11750497 0.15174946
0003f0 25 c6 33 bd fe ab 67 3d 30 25 dd 3c 89 56 cb bd
       -0.043890137 0.05656051 0.026995271 -0.09928615

skip4.conv.bias f4 [32]
000000 23 f8 d4 3c d3 70 89 bb e8 cf 2e 3d 06 c5 fc 3b
       0.025997227 -0.004194358 0.042678744 0.0077139167
000010 1f 81 84 bc 87 ec f7 bc 6a ed ed 3c d0 e9 d2 bc
       -0.016174851 -0.030264152 0.029043872 -0.025746256
000020 3b 7b cf bb 2f f7 22 3d d4 6c 0b bd a3 34 78 bc
       -0.006331829 0.039786514 -0.034039333 -0.015149268
000030 cd ab 0f bd 3e 69 21 bd e0 57 16 bd 4f 41 52 3d
       -0.03507595 -0.039407007 -0.036704898 0.051331814
000040 89 43 2d 3d f1 29 89 3c b7 2e ad bb b7 93 07 3d
       0.042300735 0.016743632 -0.00528511 0.033099856
000050 22 ac 96 bc c3 49 67 bd 3e 17 92 3c 6d d7 43 3d
       -0.018392626 -0.05646683 0.017833348 0.047812868
000060 f1 65 6d 3c c1 6f 11 3d 5c 13 4f 3c 4e d9 2a bd
       0.014489637 0.035506967 0.012638893 -0.041711144
000070 84 ce 79 bd 09 c8 44 3c 2a 42 70 3d a2 5f 5b 3d
       -0.060987964 0.012010583 0.05865685 0.053558

conv3.conv.weight f4 [64, 32, 3, 3]
000000 f9 72 ec bd f6 18 bd bd 30 16 d6 bd db ae b2 3c
       -0.11545367 -0.092332765 -0.10453451 0.021811893
000010 e8 28 e1 3d ac 94 e9 bc 9f e1 d3 bd 4b 85 27 3c
       0.109941304 -0.028513275 -0.10345768 0.010224651
000020 f3 c5 de bc dd 2a e4 3d 61 5d 34 bc 73 07 62 3e
       -0.027193999 0.11140988 -0.011008591 0.22073154
000030 a9 b3 2e 3e fc b9 89 3e 7c b0 ca 3d 22 e4 f6 3c
       0.17060722 0.26899707 0.09896943 0.03013808
000040 dc 06 22 3e 2f dc a1 bc 44 41 f3 3d c4 5f 2d 3e
       0.15822929 -0.019758312 0.11877683 0.16931063
000050 d9 1c 35 3e 87 91 18 3e cf ec 48 3e b1 20 30 3e
       0.17686786 0.14899264 0.19621585 0.17199971
000060 69 95 a7 bd 64 b6 d7 3d 10 dc f4 3c c2 72 b6 bd
       -0.081827946 0.10532835 0.02989009 -0.08908607
000070 ff 3c 20 be 2e 9a b8 bd 2e dd 57 3d 4a 18 f7 3c
       -0.15648268 -0.090137824 0.052701168 0.03016295
000080 88 dc 02 bd 41 9d d7 3d 7f 2a 16 3e 44 da bc 3d
       -0.031948596 0.10528041 0.14664648 0.09221318
000090 c2 4a 22 3d b7 6f bd bd ca f1 86 bd dc 07 b5 3d
       0.039622076 -0.092498235 -0.06589086 0.0883939
0000a0 79 57 16 3e 9b e9 ac 3d 6a c8 43 3e 1c 3c 60 3e
       0.14681806 0.08442994 0.1911942 0.2189793
0000b0 aa e7 0c 3e bd ea 05 3d 4e e8 62 3c f2 05 75 3d
       0.13760248 0.032694567 0.013849331 0.059820123
0000c0 50 2d cb 3d ae df d3 3d b2 9b 14 3e fe 14 01 3e
       0.09920752 0.10345398 0.14512518 0.12605664
0000d0 d0 aa 82 3d 3c 89 eb 3d 7b f5 66 3d ae c2 61 3d
       0.06380236 0.11500785 0.056386452 0.0551173
0000e0 f2 c1 bf 3b 19 4e 20 be ba 30 14 3d 4d 44 9e bd
       0.0058519775 -0.15654792 0.03617928 -0.07727871
0000f0 0c b7 ac be 36 75 80 be 22 a0 9d be f8 cb 03 be
       -0.33733404 -0.25089425 -0.30786234 -0.12870777
000100 65 2a ab bd ee 74 22 bd ed a6 b4 bc e0 d3 ae 3c
       -0.083576955 -0.039662294 -0.022052253 0.021341264
000110 b1 07 df bd 94 18 cf bd 0e 85 fc bd ec aa e6 bc
       -0.10890139 -0.1011211 -0.12330066 -0.028157674
000120 32 9e ec 3d d6 8d 31 bc 33 82 52 3e 67 59 7b 3d
       0.11553611 -0.010837039 0.2055748 0.061364558
000130 64 20 4d bd f2 1a aa bd 32 c5 74 3c 60 59 c6 bc
       -0.05007972 -0.08305921 0.014939593 -0.02421254
000140 34 40 12 be c7 b5 47 3d e5 61 c7 3c 8f 13 cf 3d
       -0.14282304 0.04875734 0.024338672 0.101111524
000150 a6 c4 fe 3c 59 64 e9 3c 18 36 86 bc 8c 5b 34 bd
       0.031099629 0.028490232 -0.016383216 -0.04403262
000160 cf 20 2c 3c b8 44 88 b9 6c cd 64 bd b7 9a ae bd
       0.010505869 -0.0002599114 -0.055859968 -0.08525603
000170 bb 02 f2 bd ef e0 0b be 41 98 ba 3c 80 56 57 bd
       -0.11816927 -0.13660024 0.022777678 -0.052572727
000180 60 24 21 be f5 7c 08 be d7 3c f4 bd fa 76 0d bd
       -0.15736532 -0.13328917 -0.11925667 -0.034537293
000190 7a 55 f9 bd 41 2a c1 3d a2 59 a1 3c 9e 41 ae 3d
       -0.121745065 0.094318874 0.01969606 0.08508609
0001a0 9d d9 cd 3c 9d c3 e8 3d 98 ed e3 3d c7 eb 8b 3c
       0.02512818 0.11365435 0.11129302 0.0170802
0001b0 b3 d5 d5 bc 15 e7 8d bd 43 c1 8e 3c 2d b3 21 3e
       -0.026102876 -0.06928841 0.017426139 0.15791006
0001c0 1b 05 7a 3d 32 14 d0 3d fc 68 3f 3d d5 b4 a8 3d
       0.061040025 0.10160102 0.04673098 0.08237616
0001d0 fe f2 5b 3e 3f 2c ed 3b 15 1c 4f bd d3 0b 43 3c
       0.21479413 0.0072379406 -0.05056389 0.011904675
0001e0 01 5d a4 ba fc 36 f8 3d 2d 85 c6 bd 02 54 0c be
       -0.0012539924 0.121198624 -0.0969337 -0.13703921
0001f0 46 c6 cb bd bc d4 9a bd c8 09 b6 bd af a7 4c be
       -0.09949927 -0.07560107 -0.088885844 -0.19985841
000200 e5 de dc bd d0 b8 44 bc 5b 4c bf bb 91 36 6e 3d
       -0.10784701 -0.012006953 -0.0058379597 0.058157507
000210 7c fd c7 bd c7 bc a3 3d 8f 2a 24 3d ac ee 96 be
       -0.09765145 0.07994991 0.04007965 -0.29478967
000220 8f 3d 31 be 14 df 48 be 8a a2 75 be 87 cb c0 bd
       -0.17308639 -0.19616348 -0.23987785 -0.0941382
000230 f1 62 49 be 5b 96 cd bd b5 b3 68 bd bc 42 39 be
       -0.1966665 -0.10038444 -0.056812007 -0.18091863
000240 62 0e 54 be 09 4b d4 bd 6f e8 19 be 4e ba 47 bd
       -0.20708612 -0.10365874 -0.15030073 -0.04876166
000250 87 6e 2c bd 9d 07 0a be 7c 31 82 bd 46 9d 5a bd
       -0.042097595 -0.13479467 -0.06357095 -0.053372644
000260 76 1f a2 bc 53 f4 b6 3d 97 58 c5 3d 16 98 d0 bc
       -0.019790392 0.0893332 0.09636038 -0.025463145
000270 79 39 e5 bc fb 52 4a 3d a4 aa 9f bd 70 e0 1f bc
       -0.027981507 0.049395543 -0.07796219 -0.0097581
000280 9b dd 8e bd 4a f1 31 bd 3a 2f 94 bd 23 e3 d6 bb
       -0.06975862 -0.043443 -0.0723557 -0.0065578385
000290 cd 89 c4 3b 22 3f 04 3e c4 04 ee 3d 4f 9a d0 3d
       0.0059978724 0.12914708 0.11622003 0.10185682
0002a0 71 d1 04 3e 60 1f 13 3e 15 7c 05 3e 01 c0 d8 3c
       0.1297052 0.14367437 0.13035615 0.026458742
0002b0 49 db 23 3d de 2a c3 bb 9a b1 32 3e f9 2b 44 3e
       0.04000405 -0.005956038 0.17450562 0.19157399
0002c0 3e ad 92 bd f0 0d 33 3d b7 39 bf bb 9b 08 77 be
       -0.071619496 0.043714464 -0.0058357376 -0.24124376
0002d0 af 8e 38 3c d0 1f a2 bd 36 c5 88 bd ad a0 48 be
       0.011264487 -0.07916224 -0.0667824 -0.19592543
0002e0 15 d3 3a be 40 ab eb bd b0 4c 2a be ed 67 c4 bd
       -0.18244584 -0.11507273 -0.16630816 -0.09590135
0002f0 8a 82 af be c6 92 bc bd d2 1b ef bd e1 ab c7 bd
       -0.3427928 -0.09207682 -0.11675228 -0.0974958
000300 c8 f0 a5 bd 24 0c 5f bd a8 03 3a be f9 bd 94 bd
       -0.08102566 -0.054454938 -0.18165457 -0.07262797
000310 fe 56 bc be 82 6e 44 be a0 7a 52 bd 28 18 09 bd
       -0.3678512 -0.1918278 -0.051386476 -0.033470303
000320 95 d8 52 3d 84 47 09 bd d6 3a 7c 3d 83 ef c8 3d
       0.05147608 -0.03351547 0.061579548 0.09811308
000330 ec 6a 23 3d b9 ae 04 3e a0 7f 60 3d 33 89 a7 bc
       0.03989689 0.12957276 0.054809213 -0.020451164
000340 02 0c 89 bb f8 58 8e bc 64 9c 58 bd 9f 1a 58 3d
       -0.0041823396 -0.017376408 -0.05288352 0.052759763
000350 01 d5 1e bd 7c d2 90 3b af 0f 84 be d7 8d 86 be
       -0.038777355 0.004419623 -0.25793216 -0.2628009
000360 2d 5f a7 bd 19 19 03 bb c1 24 8e 3c 1b 74 81 bd
       -0.0817245 -0.0020003973 0.01735151 -0.063209735
000370 5f 81 9b 3d 1c 79 e6 bc 96 b4 b6 3b ff b7 98 3d
       0.07593035 -0.028133921 0.0055757267 0.074569695
000380 fc 95 5a bd c6 7b 42 bd 4e d3 c2 bd 5c ec c4 bc
       -0.053365692 -0.04748132 -0.095129594 -0.024038486
000390 70 70 a7 3b a2 43 3b 3d 96 3b 61 3d 50 29 2a 3d
       0.005109839 0.045718797 0.054988466 0.041543305
0003a0 00 a9 fa 3d 7f c7 cb 3c 43 f6 3d bc c9 a1 40 3d
       0.122392654 0.0248754 -0.011594358 0.04702929
0003b0 36 9f 02 be a6 cb c7 bd af 9d 64 be 49 0b f5 bd
       -0.12756047 -0.0975564 -0.22325777 -0.11965043
0003c0 f3 a0 5d be 64 56 80 be 2c e0 c9 be 28 98 5b be
       -0.21643429 -0.2506591 -0.39428842 -0.21444762
0003d0 e7 85 02 3d ab d2 5e bd ef 95 3e be 9c 80 d0 3c
       0.03186598 -0.054400127 -0.18611883 0.02545195
0003e0 27 ba af bd 24 60 89 3b 5e b6 ce bc 1b 43 68 3d
       -0.085804276 0.004192369 -0.025233444 0.05670462
0003f0 75 94 84 bd 6c 65 e3 bc dc b3 5b 3d 8b aa 8e bd
       -0.064736284 -0.027758323 0.053638324 -0.06966122
