Model/finetune-250606-model_80.pth (torch, 686182 bytes, 80 tensors)

encoders.0.conv.conv1.weight f4 [32, 1, 3, 3]
000000 0f 01 b6 3d 2d c0 bd be 0a 02 86 be d1 ae f9 3d
       0.08886921 -0.3706068 -0.2617343 0.12191547
000010 e3 c4 7c be e2 0f 63 be aa 7e 20 3e 12 ad 60 3e
       -0.24684481 -0.22174028 0.15673319 0.21941021
000020 93 94 2a be 8a 2d 13 be cd 4a 1d be 28 f2 9c be
       -0.16658239 -0.1437284 -0.15360565 -0.306535
000030 e9 d3 43 3d 63 c2 56 3e 31 0a 57 3e a9 e6 a2 3d
       0.047809515 0.2097259 0.20999981 0.07954151
000040 24 55 9e be c5 7c 21 be cc 31 ae 3d 7c 42 93 3e
       -0.30924332 -0.15770252 0.08505592 0.2876166
000050 ab d6 83 bd 83 f9 3a bd ba 25 72 3b fa e6 72 3d
       -0.06437429 -0.04564811 0.0036948756 0.059302308
000060 02 5b 0b 3e 6f f8 90 be 40 c6 35 be 32 34 6e be
       0.13608935 -0.2831454 -0.17751408 -0.23262098
000070 b3 b2 a5 3e 1d f6 19 3d b6 c6 86 be 8b 5c 1d 3e
       0.323629 0.037588228 -0.2632348 0.15367334
000080 6f 63 b1 be a3 fb 9b be c8 74 ea be 91 11 9d be
       -0.34646174 -0.3046542 -0.45792222 -0.30677465
000090 67 27 75 be f0 dd 59 be 55 d8 34 3e 4c 03 43 be
       -0.23940812 -0.21276069 0.17660649 -0.19044226
0000a0 62 8b b7 3e c9 e4 69 39 d8 88 24 be 03 a2 60 3e
       0.35848528 0.0002230584 -0.16067827 0.21936803
0000b0 c6 85 25 3d 9c b9 db 3d 7c 89 c3 be 0e e0 b9 3d
       0.04041078 0.107287616 -0.3819083 0.09075938
0000c0 82 61 fe 3c 74 a8 3e 3e 89 7a 6f 3d 59 be dc 3d
       0.031052355 0.18618947 0.058466468 0.107784934
0000d0 97 6e 1e bf d7 02 a8 3d 81 92 a8 3d b5 46 59 3d
       -0.61887497 0.08203667 0.082310684 0.053045947
0000e0 2c 2f b0 3e 84 72 7d 3d 6e ec 9a be 4d ea 0e be
       0.3441099 0.06187679 -0.30258507 -0.13956566
0000f0 19 ec 9a bd 5e 70 a7 be 5c 1a 45 be 40 aa b0 bd
       -0.07564563 -0.32702917 -0.19248337 -0.086262226
000100 9e 1a 3d be 74 59 b5 be 68 c2 65 be d3 c4 75 be
       -0.18467185 -0.3541981 -0.22437441 -0.24000864
000110 f0 fd b5 3d 7d 70 e3 be 55 42 92 be 0a b7 19 3e
       0.08886325 -0.4442176 -0.28566232 0.1501123
000120 3e 50 94 be ce 04 16 3e 96 74 1c 3e c6 00 17 3d
       -0.2896747 0.1465027 0.15278849 0.036865972
000130 73 96 d8 bd 22 48 aa 3d 16 71 b7 be 0e f7 14 be
       -0.10575571 0.083145395 -0.35828465 -0.14547369
000140 40 b2 80 be e4 e7 ee bd 8d 89 08 bd 8e 79 4d 3d
       -0.25135994 -0.116653234 -0.033334304 0.05016475
000150 b4 66 61 3e d0 62 03 be 50 34 34 bd ee 2c 32 3e
       0.22011834 -0.12830663 -0.0439952 0.17399952
000160 6a d4 f8 bd 48 d1 3f bd 97 1a 98 be 97 d4 bc 3e
       -0.1214989 -0.046830446 -0.29707786 0.36880943
000170 63 86 7a be 25 e0 06 be 79 64 94 bd c2 44 07 bd
       -0.24465327 -0.13171442 -0.07245726 -0.033024557
000180 a8 36 d1 bd 36 c3 0a 3e b5 6a 4e bd a8 6a 65 bd
       -0.10215503 0.1355103 -0.050394733 -0.05600992
000190 aa 50 49 be be 7c 19 be 71 08 bf 3d a8 64 c5 3d
       -0.19659677 -0.14988992 0.09327782 0.09638339
0001a0 57 7b ac bd 1a e4 e1 3d 2a 82 1c be 49 c8 2e 3e
       -0.08421963 0.11029835 -0.15284029 0.1706859
0001b0 4f e7 84 bd af ae 33 be 15 57 ae bd 6d 73 1c bc
       -0.06489431 -0.17547105 -0.08512703 -0.009549004
0001c0 d5 d9 09 3f e5 7f b0 3b 65 e7 c8 bd e5 82 aa bd
       0.5384801 0.00538634 -0.0980976 -0.083257474
0001d0 78 48 cd bd 82 4b ec bb e5 4a e1 3b 2e 15 80 3e
       -0.10023588 -0.0072111497 0.006875383 0.2501616
0001e0 62 88 33 bd 38 f1 63 3e 77 7d d4 3d b0 5a 26 be
       -0.043831237 0.22259986 0.10375493 -0.16245532
0001f0 e2 23 b5 be 8a 4f a3 bb de 46 2d 3e 1d b7 08 be
       -0.3537894 -0.004983847 0.16921565 -0.13351102
000200 5a ee 8a bd 4b f3 90 be 66 64 61 be 09 52 27 3d
       -0.06783743 -0.28310618 -0.22010955 0.04084972
000210 7f 37 a3 be 3e 74 51 3e cc 1e 57 3d 91 c2 07 be
       -0.31878278 0.20454499 0.052519605 -0.13257815
000220 1d 1c 7b 3e 04 24 dc be 93 a6 5e 3e 32 b7 14 bd
       0.24522443 -0.42996228 0.2174323 -0.03630752
000230 17 1a e4 be 2a df 21 be d2 68 e2 3d 0d 03 ce 3d
       -0.44551155 -0.15807787 0.11055149 0.10059176
000240 3d 3f 1f 3d 1b ba 84 3e 27 bb 33 be 4b 0f 19 3a
       0.038878668 0.25923237 -0.17551862 0.00058387656
000250 ce b1 72 3e 9b ad bf be 95 f0 9d 3c 8b 0d 4a bd
       0.2370064 -0.37437138 0.019279758 -0.04932932
000260 54 5b 9c 3c 51 b9 68 bd ba 56 f1 3d a7 ed b6 be
       0.019086517 -0.056817356 0.1178412 -0.3572819
000270 32 96 7a be e8 df a6 3e 03 00 90 3d e3 5d 06 3e
       -0.24471357 0.32592702 0.07031252 0.13121752
000280 c3 a9 65 be 8e c7 30 bd 45 46 06 3e 60 da 0f be
       -0.2242804 -0.04315906 0.13112743 -0.14048147
000290 82 af aa be 17 80 1e bc 27 72 3c bd 2f 38 60 3d
       -0.33337027 -0.009674094 -0.0460073 0.05474108
0002a0 29 98 84 3e 8c 60 c0 3d c7 be 0a 3d 58 2a e0 be
       0.2589734 0.09393415 0.033873346 -0.43782306
0002b0 bd 8a 2f bf ad 2f b4 be cc d3 c6 bd 22 3d a8 3e
       -0.6857107 -0.35192624 -0.09708366 0.3285914
0002c0 11 8d 7c be fe 6a f2 bc 20 b2 ba be 0e d9 9c 3e
       -0.24663188 -0.029592033 -0.36464024 0.3063435
0002d0 42 66 6f 3e c3 87 b3 bd a7 5d 14 3e d3 9a 0f 3e
       0.23378852 -0.08766129 0.1448885 0.14023905
0002e0 34 26 b1 bd 08 10 87 be 2d 86 07 be 28 e0 12 be
       -0.08649865 -0.26379418 -0.13234778 -0.14343321
0002f0 6c 44 ee bd f2 2f d0 bd 81 2d 8d 3d aa ae c6 3d
       -0.11634144 -0.10165395 0.06893445 0.09701283
000300 9c d7 ca bd 71 26 94 be b3 df 93 3e 18 f9 6c 3d
       -0.099044055 -0.28935578 0.28881606 0.05785474
000310 19 1d 17 be 0e 95 b7 3d 6b 9d a1 bd 40 9d 59 be
       -0.14757194 0.08963977 -0.07891353 -0.21251392
000320 3b 59 36 3d c9 6b 81 be 3d 5b 06 3e 7f fd a3 3d
       0.04451869 -0.25277546 0.13120742 0.08007335
000330 85 3a 89 3e 13 59 50 bc 19 f0 53 3d c9 a6 ee be
       0.2680246 -0.012716549 0.051742647 -0.46611622
000340 6c f8 1d 3d 49 a3 d6 3d c6 31 10 3e 6e 7c f7 3d
       0.03856699 0.10480363 0.14081487 0.1208428
000350 e1 36 0e be 65 25 82 3d 68 1f 93 bd 06 ef 7f be
       -0.13888122 0.06354789 -0.07183725 -0.24993524
000360 b4 20 e8 3d 75 d5 33 be 6e c3 2f 3e 23 9b 8f be
       0.113343626 -0.17561896 0.17164394 -0.28048047
000370 ca d8 a4 3e 8b 37 9e be de dd a5 3d 2d ed dc bd
       0.32196647 -0.3090175 0.080989584 -0.10787425
000380 07 2f a2 3d 0f f3 8a be e0 9b 63 3d 8d e1 76 3e
       0.07919126 -0.27138564 0.055568576 0.24109478
000390 82 29 af be e4 de e1 bd b1 18 23 bb 92 04 d7 bc
       -0.34211355 -0.11028841 -0.0024886543 -0.026247296
0003a0 50 92 12 3e 05 26 8f 3b 76 83 b9 bd ca 63 cb bd
       0.14313626 0.004368546 -0.09058277 -0.09931143
0003b0 eb 29 0d be 0f f2 d4 3d fe a7 40 3c e5 44 54 be
       -0.13785522 0.103977315 0.011758802 -0.20729406
0003c0 18 fd fd bd 15 e4 59 3e 9e 64 96 3e a9 fa 21 bf
       -0.124017894 0.21278413 0.2937364 -0.632731
0003d0 2b 8c 2c bf 02 f3 29 bd e5 8c 2c bf da 38 01 bf
       -0.6740138 -0.041491516 -0.6740249 -0.50477374
0003e0 c0 75 81 bd f1 6c 9d 3d 54 13 38 3c 3a 70 53 3e
       -0.06321287 0.076867945 0.011235077 0.2064828
0003f0 ba 24 5c be 99 0d ca bc 7f 54 c8 bd 9f 50 7b be
       -0.21498385 -0.024664687 -0.09781741 -0.24542473

encoders.0.conv.conv1.bias f4 [32]
000000 ef 04 01 bf 94 2b 1f be 66 84 3b be 15 a1 92 bf
       -0.50398153 -0.15543967 -0.18312225 -1.1455408
000010 d3 d3 cf bc 88 06 79 3d 60 14 1a bf da 6b 4b 3e
       -0.02536956 0.060797244 -0.6018734 0.19865361
000020 e8 6b f0 3e 43 9a 62 bd 9a e9 99 3e 33 fa 11 be
       0.46957326 -0.055322897 0.30061036 -0.142556
000030 8d e1 11 3e a3 d3 36 be 7a 56 a5 be 64 01 5b bc
       0.14246197 -0.1785417 -0.3229254 -0.013367031
000040 5c 41 aa 3b 2a 7e a7 3e 5a c4 a0 be 8f 6b 5c bf
       0.0051957797 0.32713443 -0.31399804 -0.8610162
000050 7d b8 ac bd d1 e8 86 bd 36 65 be bd e5 66 28 be
       -0.08433626 -0.06587375 -0.09296648 -0.16445501
000060 c9 aa 90 3d fc 49 fa bd 92 54 46 3e 13 08 8a 3e
       0.07063825 -0.12221143 0.19368199 0.26959285
000070 f0 fa 1f bd 8f 13 d7 be b5 f0 50 3e 9e 45 17 be
       -0.039057672 -0.4200711 0.20404322 -0.1477265

encoders.0.conv.conv2.weight f4 [32, 32, 3, 3]
000000 50 98 6c 3e 93 f4 93 be 7a be 4e be 07 3f 41 be
       0.23104978 -0.28897533 -0.20189849 -0.188717
000010 29 59 a2 be 75 57 0e bf 07 44 52 3e 86 e2 d9 be
       -0.3170865 -0.556022 0.20533763 -0.42555636
000020 91 a3 47 3d fd f5 15 3e 57 50 4d be 5b cc bb bd
       0.048739973 0.14644618 -0.20050178 -0.09169837
000030 14 a2 e3 be 54 36 cf 3c 0b 41 9f 3d 82 d2 73 be
       -0.44459593 0.02529446 0.07776078 -0.23810771
000040 0e bc a9 3b 47 b8 3d be 7e 13 34 bd da 7f aa 3b
       0.0051798886 -0.18527327 -0.0439639 0.0052032294
000050 a7 84 bc bd 25 15 5a be 90 6f 0d bd 93 81 8e 3d
       -0.09204989 -0.21297128 -0.034530222 0.06958308
000060 26 6a 2c be 8c 2a 7a 3d cf 92 42 3e a5 1c 06 3e
       -0.16837367 0.061075732 0.19001316 0.13096865
000070 9b 9d 90 3d d0 89 40 3e 90 7d 09 3d c8 16 2b 3d
       0.07061311 0.18802571 0.03356701 0.041769773
000080 52 2c 2f 3e 89 7c 06 3b b9 3e 9e bc 7d 00 8b 3d
       0.1710675 0.0020521006 -0.019317018 0.067872025
000090 2d d9 92 3e b9 13 19 be 49 d8 73 3d 6e eb 3e 3e
       0.28681317 -0.1494893 0.059532437 0.18644497
0000a0 25 a4 dd bd 99 8c 37 bd 4c 8a 37 be 0a a0 5e be
       -0.10822324 -0.04481182 -0.1792385 -0.21740738
0000b0 5a 67 0b be 5a 10 7c be 05 22 d9 bc af bf 2f be
       -0.13613644 -0.24615613 -0.02650548 -0.17162965
0000c0 30 0b 68 be b1 81 c8 3d 56 4e 31 3e ec 00 0f 3d
       -0.22660518 0.09790362 0.17315039 0.03491299
0000d0 b2 50 8e bd 49 b9 7f 3d c0 c3 2b bd 2d 87 0a 3d
       -0.06948985 0.06243256 -0.04193473 0.03382032
0000e0 14 bf 66 bd 71 2a 59 bc a4 0a 55 bd 3b ae 04 3d
       -0.05633457 -0.013254748 -0.0520121 0.03239272
0000f0 a2 7e 13 be d7 57 5f 3d 40 88 b2 bd 0d a3 83 bd
       -0.14403775 0.05452713 -0.08717394 -0.06427584
000100 34 05 53 be 81 ac ba bd 5c 36 a0 be 8f 1e f6 be
       -0.20607454 -0.09114934 -0.31291473 -0.4807019
000110 84 ec b3 3a 53 15 97 be 19 89 c6 3d 57 e0 7e 3e
       0.0013727103 -0.29508457 0.09694118 0.24890266
000120 73 61 1c 3d 69 2a c5 bd 7e 8c 58 be b9 0c c4 3d
       0.038178872 -0.0962723 -0.21147344 0.09572739
000130 93 96 7c 3d c7 f0 87 3d 8d d9 83 3d 81 fd 4d bd
       0.061667036 0.066377215 0.06437979 -0.05029059
000140 ac d7 89 be ae e1 8c be 27 1c 4e be bf 69 09 be
       -0.26922357 -0.2751593 -0.20127927 -0.13419245
000150 de cd f5 3d 4e 9e 80 be 3f 2d 07 3e 00 ed c7 3e
       0.12002157 -0.25120777 0.13200854 0.39048004
000160 74 be 1a bf f9 84 a1 be 79 02 d4 be 5e 5c 41 be
       -0.6044686 -0.31546763 -0.41408136 -0.18882892
000170 87 12 aa 3d 8c 6e a2 be b2 3e 0a 3d 5d 02 1f 3e
       0.08304315 -0.31724966 0.033751197 0.15528245
000180 23 be 4c be 9c 2e f0 3e 47 bc 92 bd 58 b9 b9 be
       -0.19994406 0.4691056 -0.07164817 -0.3627422
000190 d5 a9 71 be 94 f6 6b 3a 8f 12 04 3e 3e 38 5c 3c
       -0.23599942 0.00090012816 0.12897705 0.013441144
0001a0 0b d6 1a 3e 96 23 31 bd e2 87 87 3d f0 b1 76 bc
       0.15120713 -0.043246828 0.066177145 -0.015057072
0001b0 ae d6 33 bd dd f8 10 3e af e6 56 bd 82 21 11 be
       -0.043905906 0.14157434 -0.05246609 -0.14172938
0001c0 c4 51 10 3e ed c5 17 3e 7f 17 a6 bf ba c8 00 bf
       0.14093691 0.14821596 -1.297592 -0.50306284
0001d0 80 83 e3 3c 6c 47 d5 3c 82 b2 02 be af e8 48 bd
       0.027772665 0.026035033 -0.12763408 -0.04905003
0001e0 b9 c9 18 3e 5a bb 3c bc c5 80 3e be 40 27 50 3e
       0.14920701 -0.0115192775 -0.18603809 0.20327473
0001f0 4b cf 95 3e ee d6 1c 3e 2b b0 54 3c 1d 5b 86 bd
       0.29259714 0.15316364 0.012981455 -0.06560347
000200 00 b7 a7 bd aa 7c 2c be 66 79 d6 3d 96 47 e6 bd
       -0.08189201 -0.1684443 0.10472374 -0.11244123
000210 2f 0a 0a be a6 cf 6f bd c9 04 5a 3c 2e 6c 7a be
       -0.13480447 -0.05854764 0.013306805 -0.2445533
000220 40 6d c0 3e e8 29 c4 3b d9 10 e6 3e cb a3 b4 bc
       0.3758335 0.005986441 0.4493473 -0.022050759
000230 ff 1e 08 be 04 7d 13 3e 79 f4 bf 3d bc 21 70 be
       -0.13293074 0.14403158 0.09372801 -0.23450369
000240 eb a3 31 3e e8 a7 6d bd ec ff 2e bd f6 ae 8b 3c
       0.17347686 -0.058021456 -0.042724535 0.017051201
000250 02 fd 9a 3d 37 a7 4b bd 13 c8 5f bf e4 f4 85 be
       0.07567789 -0.049720015 -0.87414664 -0.261634
000260 e0 ca 1e be 7e 0b 4d bd ff f7 34 3c 2d 2c 9e 3e
       -0.15507078 -0.050059788 0.011045455 0.30893078
000270 be 3a bb be 94 c2 3f bd 3e 9c e5 3d 70 43 fa be
       -0.36568254 -0.046816424 0.112114415 -0.48879576
000280 03 73 6c 3e 7f 87 b3 3c c0 a9 28 be ac c3 19 be
       0.23090748 0.021915196 -0.16471004 -0.15016049
000290 36 b4 a5 bc 0f 97 2b 3e 1d 6d 26 3e 0e 62 89 3d
       -0.020227533 0.16756843 0.16252561 0.067081556
0002a0 4f 64 4c 3a c4 6b 70 bd 83 b8 06 be 03 db 9d be
       0.00077969296 -0.058696523 -0.13156323 -0.30831155
0002b0 e2 37 f8 3c e1 4c 34 be a5 e2 94 3e 0a 38 66 be
       0.030300085 -0.17607452 0.29079166 -0.22482315
0002c0 8e 34 ea be 6d fa c3 3e 07 01 74 3e d7 a6 d0 3d
       -0.4574322 0.38276997 0.23828517 0.10188072
0002d0 c9 fc 14 3e ed 0d e7 3d 60 cd 50 bd d4 e9 93 be
       0.14549555 0.11281953 -0.05097711 -0.28889334
0002e0 5e 8e 5b 3d 77 5d 19 bd 64 93 6e be c6 a4 bc bd
       0.05360257 -0.03744265 -0.23298413 -0.092111155
0002f0 4e b2 f8 bd 66 ef 1e 3d 1a e3 07 bd 98 c5 09 3d
       -0.12143384 0.038802527 -0.033175565 0.033635706
000300 80 61 7a 3d d2 55 4b 3c 97 b1 04 3e f5 36 34 3e
       0.06112814 0.012410598 0.1295837 0.1759909
000310 50 42 1c be 64 47 8a be 69 86 0c be 06 9d 19 be
       -0.15259671 -0.27007592 -0.13723148 -0.15001306
000320 76 74 17 3e 28 f8 6e be 0f 65 0d 3d 96 97 36 bc
       0.1479052 -0.23336852 0.034520205 -0.011144539
000330 4a f2 c8 be 9f 1c c6 3d 0a 4e ea 3c b3 d5 42 bd
       -0.39247352 0.09673428 0.028601665 -0.04756708
000340 de 2e 79 3c f3 18 1b 3e de 9b 47 3e 27 88 a5 be
       0.015208928 0.15146236 0.19493052 -0.32330438
000350 b1 27 bc be 8c 02 42 3e b6 53 ac be c0 ad 6b 3e
       -0.36749032 0.18946284 -0.33657616 0.23015499
000360 b2 3f 6b bc e8 56 3a 3a 87 d6 85 bc 2d c9 22 3e
       -0.014358448 0.0007108287 -0.016337646 0.15897055
000370 92 20 aa bd 15 33 06 3e 40 a9 15 3e c6 68 85 3d
       -0.083069935 0.13105424 0.14615345 0.065141246
000380 18 9d 1d 3e 1f 72 2e be 5c cb 9c bd 69 87 51 be
       0.15391958 -0.17035721 -0.07655975 -0.20461811
000390 e3 59 83 3d 0a 39 bb 3d bf 3a bc 3c 62 78 b3 bc
       0.06413629 0.09141739 0.022977231 -0.021907989
0003a0 b8 f8 b0 be af ef 64 3c bd b2 99 3c c4 02 3b 3d
       -0.34564757 0.013973161 0.018761987 0.045656934
0003b0 82 c1 ea bc 5a 99 0f bf 82 ae c3 3d b1 f0 12 3e
       -0.028656725 -0.5609337 0.09554769 0.14349629
0003c0 dd df ae be 1f 2d 13 3e f6 a5 20 3d 3e 51 a6 be
       -0.3415517 0.14372681 0.039220773 -0.32483858
0003d0 45 01 97 3c fb b1 1e bd fd 11 86 be 04 90 8f be
       0.018433223 -0.038743954 -0.261856 -0.28039563
0003e0 91 5d 9f bd 82 70 33 be b6 49 ff bc 0c 66 5f be
       -0.07781518 -0.17523387 -0.031163078 -0.21816272
0003f0 3f 34 85 3e c0 89 cf 3d 77 72 00 be 2b 41 84 3d
       0.26016423 0.101336956 -0.12543665 0.06457742

encoders.0.conv.conv2.bias f4 [32]
000000 71 2c 0c 3e ec 23 00 be ec c1 47 3e 60 6d 05 be
       0.13688828 -0.12513703 0.19507569 -0.13030005
000010 3e 15 cf 3e 95 c9 05 be 98 28 14 3e 65 b2 d1 3c
       0.40445894 -0.13065179 0.1446861 0.02559776
000020 5c b3 46 be 89 b7 a1 bd 2a c7 f2 3e 4e fd 82 be
       -0.19404358 -0.07896335 0.47417575 -0.2558388
000030 e6 0c d5 be 36 ae 44 3c 47 dc 91 3d cf 4e cb bd
       -0.41611403 0.012004426 0.07122093 -0.09927141
000040 42 cb 03 bf f8 f1 d7 bd b6 4b 0f be 07 df 83 be
       -0.5148202 -0.10544199 -0.13993725 -0.25756094
000050 c5 d5 13 3d e1 ea 79 3e c9 e5 9b bf 5d 9d 4f 3e
       0.03609254 0.24406005 -1.21795 0.20274873
000060 65 ce 9d 3e 8b 61 50 3d 8c c4 81 bd d1 09 2a 3d
       0.3082153 0.050874274 -0.063363165 0.041513268
000070 d3 fa 4e bd 8f 52 df 3d 40 a1 96 3d 27 ca 27 bf
       -0.050532173 0.10904419 0.07354975 -0.65542835

encoders.1.conv.conv1.weight f4 [32, 32, 3, 3]
000000 b2 69 67 3d 7d 9e 57 bb b6 f2 00 bc 17 9c c9 bd
       0.056497283 -0.0032900863 -0.007870367 -0.09844225
000010 6d c2 2a be c5 04 25 bd b9 42 39 3e 2c e1 f1 bc
       -0.1667573 -0.04028775 0.18091859 -0.029526316
000020 1a 3d 83 3d 6b b4 d2 3d 24 f7 6c 3e ce 98 e8 bb
       0.064081386 0.10288318 0.23141152 -0.007098294
000030 2f df 84 3e 96 ea ee bd 5f d2 53 3d 29 79 87 3e
       0.25951526 -0.116658375 0.051714297 0.26459625
000040 0b 64 53 3e 92 e4 af 3c 53 e7 41 3d 88 40 f3 b8
       0.20643632 0.021471296 0.04733975 -0.00011599163
000050 54 2f 62 be 18 ab 95 3d f6 63 60 bd be 7d 51 bd
       -0.22088367 0.07308024 -0.05478283 -0.051145308
000060 e0 ed 1c 3d e1 04 23 be ed e4 05 bd 5a 67 f1 bc
       0.038312793 -0.1591983 -0.032689024 -0.029468227
000070 01 d6 09 3b 61 e7 2f bc 6b bf 3b bd d8 4c 39 bd
       0.0021032097 -0.010736317 -0.045836847 -0.0452393
000080 2f f9 90 bd c7 ca 21 3c 2a 6c 0c 3e b4 1b c7 bd
       -0.07078778 0.009875006 0.13713136 -0.09722081
000090 6c 52 45 bd 03 1c 95 3b ba 68 8b 3e 83 2e 16 3e
       -0.048174307 0.0045504584 0.27228338 0.1466618
0000a0 41 64 a4 3d 53 a3 28 3e 66 2d 0d 3d d0 99 cf 3d
       0.080269344 0.16468553 0.034467123 0.10136759
0000b0 ca 76 17 be da fa 06 3e af 47 24 bd 1b 37 a9 bd
       -0.14791408 0.1318163 -0.040107425 -0.08262464
0000c0 9a 18 0c be ec 67 90 be 19 bc a6 3d 56 6e 20 be
       -0.1368126 -0.28204286 0.081413455 -0.1566709
0000d0 7f ef dc bd 24 8e e9 bd d1 1d 92 bd 2d a5 e2 3d
       -0.10787868 -0.11404064 -0.07134593 0.11066661
0000e0 12 d7 6d be be 6e 42 bd 25 44 dd bd 62 6d 9e 3d
       -0.23226574 -0.047468893 -0.10804013 0.07735707
0000f0 5a b9 54 be 9d 6a 3d 3e a4 ad 3b bd b4 db 31 bc
       -0.20773831 0.18497701 -0.045819893 -0.010855604
000100 21 29 c9 bb 75 6c b1 3d 79 95 40 3d 80 92 b8 bd
       -0.006138936 0.08663265 0.04701755 -0.09012318
000110 fa 97 14 3d 96 83 91 3d cf fd 1f 3e 44 4d 38 3e
       0.03627775 0.07105176 0.15624164 0.17998224
000120 66 a6 44 3d 45 22 54 be 5a a0 74 be 8a 82 3e bd
       0.048010252 -0.20716198 -0.23889294 -0.04651121
000130 65 e5 81 3e 93 ac 9a bc 71 58 d6 bd 16 58 fb 3d
       0.25370327 -0.018881118 -0.104660876 0.122726604
000140 10 8b b1 bd 90 04 ac 3c b2 69 b5 3d 68 9d a4 3d
       -0.08669102 0.02099827 0.088580504 0.08037835
000150 dc 52 fe bc 5a 36 de ba 9b c4 0b be 49 9a c0 3b
       -0.03104537 -0.0016953454 -0.13649218 0.005877767
000160 0b aa 29 3d 07 f2 25 3e c5 6f 8b bd 19 ce ef 3b
       0.04142193 0.16205607 -0.06808428 0.00731827
000170 cc 97 39 be 3c 82 f1 3c 1b 6d 8e 3e 33 7f 2d be
       -0.18124312 0.029481046 0.27817616 -0.16943054
000180 af fe 3d 3e 29 46 4f bd c8 23 ee be 87 28 3a be
       0.18554185 -0.05060402 -0.46511674 -0.18179522
000190 0c d6 a1 3d ab 08 a4 3e aa ea 49 be 8d 87 ba bc
       0.07902154 0.32037863 -0.19718423 -0.022769714
0001a0 cd 0e a4 3e 06 f2 db bb 63 08 7b 3e 66 ff ae 3e
       0.32042542 -0.006712201 0.24514918 0.3417923
0001b0 1d da d3 bd 49 5c 1d be 21 31 70 bd f1 3f 96 3d
       -0.10344336 -0.15367235 -0.058640603 0.073364146
0001c0 cd ef 6d 3d de 79 39 bd 7d ff 8b be fa 9a 18 be
       0.05809002 -0.045282237 -0.2734336 -0.14902869
0001d0 e7 36 6d bd 5e e7 5e bd 3b d7 b8 3c eb 9a 89 bc
       -0.057913687 -0.054419868 0.022563567 -0.016797503
0001e0 18 51 a3 bd f4 ca aa 3d 81 fe 66 3e 5d 87 09 3e
       -0.07974452 0.083394915 0.22558023 0.13430543
0001f0 22 59 d7 bd 83 77 c9 bd e4 d8 d2 bc 1c c9 00 3e
       -0.105150476 -0.09837248 -0.025738187 0.12576717
000200 8c 64 1b 3c cb 3c da 3d dd 17 c6 bc 08 a8 cd bd
       0.009484421 0.106561266 -0.0241813 -0.10041815
000210 6d 61 4e bc 51 1f fa 3a b1 65 29 be f0 98 27 3e
       -0.01259647 0.0019082819 -0.16542698 0.16366935
000220 9e 6b a9 3d d5 c6 e9 bd 52 1e c0 bd da 30 94 bd
       0.082724795 -0.11414877 -0.09380783 -0.0723588
000230 b8 9b 25 be 6f ad 15 be 65 e8 20 3e 42 f1 c5 3e
       -0.16172683 -0.14616941 0.15713651 0.38660628
000240 12 65 d5 3d 38 be b8 bd b0 ac 23 bd 77 f2 11 bd
       0.10419668 -0.09020656 -0.03995961 -0.035631623
000250 ae 9d 7f bc b5 30 c7 bd 09 5d 41 bd 4c fe b7 bd
       -0.015601559 -0.09726087 -0.047207866 -0.0898405
000260 fa 25 82 bd d6 6f c3 bd da e8 9c bc 77 6a b9 bc
       -0.063549 -0.095428154 -0.019154001 -0.022633774
000270 8c 7c 5e bd 3e 5b 3d 3e ff 45 1f 3c c4 6b 6f be
       -0.054317996 0.18491837 0.009721278 -0.23380953
000280 bc a6 6c bd d3 96 a4 be 15 8e 24 be c2 4e ef bc
       -0.057776198 -0.3214632 -0.16069825 -0.02921236
000290 ac e9 6f 3d 54 de a0 bd 06 e2 a7 3d 87 ca 46 3e
       0.058572456 -0.07854906 0.081974074 0.19413196
0002a0 57 0c b8 bd 09 b9 a9 bd 3d d5 4d be 0d 5e 84 3d
       -0.08986729 -0.08287246 -0.20100875 0.06463251
0002b0 11 5d 39 3d 30 fa 0b be fe 60 51 bd d2 6a 1c 3a
       0.04525477 -0.13669658 -0.05111789 0.0005966845
0002c0 0e 7c a2 bd 59 19 0c 3e 67 43 01 3e c8 dc 03 3e
       -0.07933818 0.13681544 0.12623368 0.1287719
0002d0 8b ec 12 3e cb 65 f6 3d 99 09 3d 3e b8 d9 a5 bc
       0.14348046 0.12031134 0.18460692 -0.020245418
0002e0 f3 af 13 bd 54 32 d4 bd 5f a7 3a 3c c0 c4 90 bd
       -0.03605647 -0.10361162 0.011392443 -0.07068777
0002f0 3c 41 82 3e a6 50 6b 3a 3b 71 11 be 2a f6 92 3c
       0.25440395 0.0008976556 -0.1420335 0.017939646
000300 58 57 2d 3d 71 da 76 bc 72 f1 fa bd 26 8f cb 3d
       0.042319626 -0.015066729 -0.12253083 0.09939413
000310 47 64 07 be 89 09 eb be d5 d1 f4 3c 9d 56 80 be
       -0.13221847 -0.45905712 0.029885212 -0.2506608
000320 02 8e 77 3d 3b 6e a8 3d e5 cd c3 3d 2a d6 36 3e
       0.060438164 0.0822415 0.09560756 0.17855135
000330 42 a0 d3 3d 3f 21 46 3d 3a 78 48 be 6f 4a 1f be
       0.10333301 0.04837155 -0.19577113 -0.15555738
000340 b0 62 3b be d2 39 93 bd 88 bb bb 39 37 53 04 bc
       -0.18299365 -0.07188763 0.0003580714 -0.008076481
000350 ad 81 f6 3d 8f ef 71 3e da 6e 8f 3e c0 32 a5 3e
       0.120364524 0.2362654 0.2801426 0.32265282
000360 4e 89 44 3e 66 ce 62 be 77 3e ad be 1a 29 ef 3d
       0.19193003 -0.22149047 -0.3383672 0.116777614
000370 ca e5 3c bc 34 4d 6f be 81 f1 03 be 61 e4 e3 bc
       -0.011529395 -0.23369294 -0.12885095 -0.02781886
000380 77 d2 b9 bd 9f 16 bb bd 93 13 8f 3d 2c ab 02 3c
       -0.09073346 -0.09135174 0.06986155 0.007975381
000390 92 66 23 3e 7a 2c 0e bd 95 1a 0c 3e 00 cf a3 bb
       0.15957096 -0.034710385 0.13682015 -0.0049990416
0003a0 b4 08 51 3d 02 b7 38 3d e5 0d 9a 3d 57 66 ff bd
       0.05103369 0.045096405 0.075221814 -0.12470692
0003b0 64 8e 1c 3e 50 f8 aa bd 04 0f a4 bd 1d 86 f6 bd
       0.15288693 -0.08348143 -0.080106765 -0.12037299
0003c0 84 c8 68 3d d0 32 83 be ca ec f3 3d 99 2b db 3d
       0.05683185 -0.25624704 0.11910398 0.10701675
0003d0 91 5d ce 3c 52 32 03 3e d8 65 72 bd ca c0 8f 3d
       0.0251911 0.12812164 -0.059179157 0.070191935
0003e0 b0 27 91 3e ce 97 ae 3c ac ee d0 bd c7 de 1c be
       0.28350592 0.02131262 -0.10201773 -0.15319358
0003f0 b9 8b f3 bc 2a 24 06 3e f5 f9 35 bd 2f 59 3a 3e
       -0.02972971 0.13099733 -0.04442783 0.18198083

encoders.1.conv.conv1.bias f4 [32]
000000 32 33 a1 bd 04 3a 0b be 53 a8 68 bf 79 39 94 bd
       -0.07871093 -0.1359635 -0.9088184 -0.072375245
000010 2f 61 cc 3d 9c 8d ee be 57 ca 3e 3e af e6 55 bd
       0.09979474 -0.46592414 0.18631874 -0.05222195
000020 46 d8 5b be 01 3f f3 3a 3c 12 33 3e a4 58 2f 3e
       -0.2146922 0.0018558205 0.17487425 0.17123657
000030 25 38 82 be 77 c3 3c bf cd b7 e3 be 55 ca 7f bb
       -0.2543346 -0.73735756 -0.44476166 -0.0039030511
000040 dd 6c 50 be 42 a0 16 3e 2e 84 57 be 5e bf a8 bd
       -0.20354028 0.14709571 -0.21046516 -0.082396254
000050 e7 3c 8e bf 4c cf 91 bc 74 9b 3d bf b9 4a 8f be
       -1.1112336 -0.017799042 -0.7406533 -0.27986696
000060 76 5d f0 3c 35 d9 23 3d dd 61 32 3d e7 79 6c be
       0.02934144 0.040002067 0.04355036 -0.23093377
000070 4e e8 10 3e 7f 85 73 be 8d 31 09 bf 47 83 11 be
       0.14151117 -0.23781393 -0.53591233 -0.14210235

encoders.1.conv.conv2.weight f4 [32, 32, 3, 3]
000000 75 88 f6 3b b6 40 a4 be c5 98 a6 be 8a fd 1e 3d
       0.007523591 -0.3208062 -0.3253843 0.038816012
000010 be a9 43 3e ec b5 0d 3e a2 ec 9a 3e 71 43 f7 bc
       0.1910772 0.13838929 0.30258662 -0.030183526
000020 94 87 b2 bd 37 e0 c3 bc 2d d7 c9 3d 88 73 e2 3d
       -0.08717266 -0.023910625 0.09855495 0.11057192
000030 db 2d 9c be 61 14 e8 3b fb e3 af 3a a3 37 f0 3d
       -0.30503735 0.0070825075 0.0013419384 0.11729362
000040 bc b8 67 bd c8 97 03 be b6 97 64 be 5f 47 7e be
       -0.05657266 -0.12850869 -0.22323498 -0.24831913
000050 24 21 9d 3d 3a 02 e9 3c c1 bf e5 bd 7d 50 2c 3e
       0.07672337 0.028443445 -0.11218215 0.16827579
000060 de 52 23 3d 02 2a 07 bd 2a e3 af 3d 22 e8 b0 bd
       0.03987395 -0.032999046 0.0858825 -0.08638026
000070 ff 5b 97 be cb 46 14 bd 49 14 4f be 3c 3d 5c bc
       -0.29562375 -0.036200326 -0.20222582 -0.013442334
000080 33 0c 3b bd cc 8f 91 be be bc f5 be 1e 1e 82 bd
       -0.04566593 -0.2843002 -0.4799556 -0.06353401
000090 6f 3e 30 be 4b dd 9e be c2 98 83 be f9 ae b9 be
       -0.17211317 -0.31028208 -0.25702482 -0.36266306
0000a0 4c 9b 4b be e2 9f d3 3b c7 79 7e be f8 c6 e6 3d
       -0.1988346 0.0064582685 -0.24851142 0.11268419
0000b0 9b cd 8f bd b6 f0 7b 3d 7c c8 5a bd 35 b8 2e be
       -0.07021638 0.061508857 -0.053413853 -0.17062457
0000c0 a5 a6 44 ba b8 f6 1a be c3 a2 47 be e4 e7 94 3c
       -0.00075016386 -0.15133178 -0.19495682 0.01817698
0000d0 b6 89 43 be 10 8f 53 3d c6 e7 e8 bd 45 7b 4c 3e
       -0.19095501 0.051650107 -0.11372332 0.19968899
0000e0 4c 1e 41 be 8b 0d 01 bb 1e d0 18 3e 83 17 43 3d
       -0.18859214 -0.001969191 0.1492314 0.047629844
0000f0 32 de 64 be 68 20 fb bd b6 13 32 3e 51 ac 5f be
       -0.22350386 -0.122620404 0.17390332 -0.21843077
000100 4b 66 82 be b9 33 08 3d 3d 15 6c 3d 99 af b4 bd
       -0.25468668 0.03325245 0.057637442 -0.08822555
000110 97 a5 ef 3d 24 67 5c bc 8a 32 ab be 93 67 14 3e
       0.11701506 -0.013452325 -0.33436996 0.14492635
000120 16 2d e8 3d c2 0b 3b bf ab c1 b0 3b 3f ae 45 bb
       0.113367245 -0.73064816 0.005394181 -0.0030163673
000130 78 e9 08 3e ca 08 74 bd cc 4b 23 be c3 a4 e0 bd
       0.13370311 -0.059578694 -0.15946883 -0.10968926
000140 ae cc 0a 3e de e0 67 be 6a 00 0d 3e 53 52 06 3e
       0.13554642 -0.22644374 0.13769689 0.13117342
000150 5e d5 0c be df 2d 34 bd 00 e8 74 bd 58 18 89 bb
       -0.13753268 -0.04398906 -0.059791565 -0.00418381
000160 4e db a7 bd 99 5e d8 bd 12 ec de 3d 68 c3 a7 be
       -0.08196126 -0.10564918 0.108848706 -0.3276627
000170 12 a1 fe bd 4d ef 32 be c8 b7 88 be 74 78 ba 3e
       -0.124330655 -0.17474099 -0.26702714 0.36420023
000180 98 1e 1a bd 55 75 0e bf aa 51 35 3e 22 29 c9 3d
       -0.037626833 -0.55647784 0.17706934 0.098222986
000190 f8 5f b8 3c 6e 40 42 be 41 b9 1b be 03 e7 a3 be
       0.022506699 -0.1896989 -0.15207388 -0.32012185
0001a0 99 6b b4 3d a7 3f 76 be 6e ce 41 be 51 18 b1 bd
       0.08809585 -0.24047719 -0.18926403 -0.08647216
0001b0 6d 97 3e 3d 3d 45 b7 bd a3 f7 b7 3d 86 ee b9 3d
       0.04653113 -0.08948753 0.0898278 0.09078698
0001c0 df 8f 54 be c9 fc 3e 3e 92 05 aa 3c 6a 65 7e bc
       -0.20758007 0.18651117 0.02075461 -0.015527109
0001d0 7b 42 85 be 7c 76 a1 be d3 db 97 be 19 4e 2e bf
       -0.26027283 -0.3153571 -0.296599 -0.6808792
0001e0 86 11 7e 3c 47 7b 34 3d d0 91 c3 be f7 c2 7a be
       0.015507108 0.04406288 -0.38197184 -0.24488436
0001f0 fe 67 a5 3d 9b 7e 9b be 77 56 a8 3d f9 17 1a be
       0.080764756 -0.3037003 0.08219617 -0.15048207
000200 2e 8b ac be c1 d6 6e 3d 8e e1 71 3e 90 08 16 3d
       -0.33699936 0.058310274 0.23621199 0.03662926
000210 76 1a 46 3e 50 f0 0b bb b1 a6 d5 3d 37 cd 08 3e
       0.19346032 -0.0021352954 0.104321845 0.13359533
000220 1c 11 9e 3d b2 ae 17 bb 84 7b 3d bd 05 a2 46 3d
       0.07718107 -0.0023144898 -0.04626037 0.048494358
000230 c8 78 54 be 67 24 2e 3e a9 ad 9e bd 1b d7 5f bd
       -0.207492 0.17006074 -0.07747967 -0.0546485
000240 db 22 f5 be 81 f8 5e be e7 53 5d 3e b7 64 b1 3d
       -0.47878155 -0.21774484 0.21614037 0.08661788
000250 79 48 80 bd ab 47 65 be 76 63 f2 bb ab 17 69 bd
       -0.06263823 -0.2239062 -0.0073971106 -0.056907337
000260 05 cd f5 3d ff c2 81 3e fc be 02 3e 18 56 0c bc
       0.12001995 0.25344083 0.12768167 -0.008565448
000270 a2 35 94 be 3b d6 0a be ee 38 ef be 27 f2 90 be
       -0.2894717 -0.13558285 -0.4672312 -0.28309748
000280 b4 d1 29 be 75 2b cb be 17 49 a7 bd 53 0b 0e 3e
       -0.16583902 -0.39681593 -0.08168238 0.13871507
000290 e0 28 53 bd c7 c2 15 be 87 56 85 ba e2 f1 89 be
       -0.051552653 -0.14625083 -0.0010172882 -0.26942354
0002a0 6d 19 08 bd c3 27 56 3e 75 a7 23 3e 20 9b 1b bc
       -0.033227373 0.20913605 0.15981849 -0.009497434
0002b0 89 06 fd ba 9d e9 a7 be ef 26 63 bd 90 ee 46 be
       -0.0019304316 -0.3279542 -0.05545705 -0.19426942
0002c0 f1 ef 47 3c 37 c0 a5 be 71 30 2f bd 17 60 45 3b
       0.012203203 -0.3237321 -0.042770807 0.0030117088
0002d0 eb a8 43 3d 91 b7 66 bc 84 24 4e 3d 2f 30 77 be
       0.047768515 -0.014081852 0.050327793 -0.24139474
0002e0 6b 5b e0 be 02 cf 9b bb 41 c1 86 bd f6 0d 25 bb
       -0.43819746 -0.004754902 -0.06579829 -0.0025185323
0002f0 d3 3f a4 bc df 80 80 be 46 ab 55 be 97 7f 4e be
       -0.020049965 -0.2509832 -0.20866117 -0.20165859
000300 32 f3 88 3c e8 90 07 be 48 4a 04 3d 5f ba 27 be
       0.016717527 -0.13238871 0.032297403 -0.16379689
000310 61 22 d1 bc da ed 96 bb 84 d3 2a 3e 8e c0 a2 3d
       -0.025529088 -0.004605991 0.1668225 0.07946883
000320 5e e3 eb 3c 63 e7 af be 10 5b 54 3d a9 1c d3 bd
       0.02879494 -0.34356222 0.051844656 -0.10308201
000330 b0 dc 8a 3d 45 34 88 bc 87 55 03 bd 62 24 be 3d
       0.06780374 -0.016626487 -0.032063987 0.09284283
000340 35 46 67 be c3 e7 13 3e 0b 61 01 be 63 ce 5b be
       -0.22585376 0.14443879 -0.12634675 -0.21465449
000350 59 6c 99 3e be 1f 67 3e 4c 9b ef 3c b1 86 ba bc
       0.29965475 0.22570702 0.029248856 -0.022769304
000360 04 b3 a1 bc ff f3 84 3d 03 a5 ed 3c 97 cd 54 bc
       -0.019738682 0.06491851 0.029009348 -0.01298847
000370 8f 6c 51 bd 7d b1 08 be 98 46 b5 bd a6 47 16 bd
       -0.05112892 -0.13348956 -0.08851355 -0.036689423
000380 59 64 3f be 99 f6 b2 bc 3b b4 6b bb 5e 46 2b 3c
       -0.18690623 -0.021846103 -0.003596558 0.010453789
000390 17 b5 4a be 00 1b 83 3c 86 46 69 bd 06 ed b9 bd
       -0.19795643 0.016004086 -0.056952022 -0.09078412
0003a0 97 14 89 ba f9 90 66 3d 94 40 a4 be 64 93 80 bd
       -0.0010458407 0.0562906 -0.3208052 -0.062781125
0003b0 94 01 04 bc 1f 30 28 be 47 69 6b be 3d d3 b9 3c
       -0.008057017 -0.16424607 -0.22989379 0.022683734
0003c0 ed 42 89 be 14 4c 5f bc 1f d3 2e be 68 07 26 be
       -0.26808873 -0.013628978 -0.17072724 -0.16213763
0003d0 19 5f bb be df 2a 4f 3c 7b d9 60 3d 84 45 b4 bd
       -0.3659599 0.012644499 0.054894906 -0.088023216
0003e0 f1 af dd bd ca a0 21 be 93 78 83 be dd 57 87 be
       -0.10824574 -0.15783992 -0.25677928 -0.26434222
0003f0 85 d1 4d 3e c3 7c a7 3d 6d e8 93 be 6b 86 11 bd
       0.20099457 0.08178093 -0.28888264 -0.03552858

encoders.1.conv.conv2.bias f4 [32]
000000 66 3b 19 bc 54 48 24 3e 8f cd 29 bf 49 85 94 be
       -0.009352541 0.16043216 -0.6632928 -0.29007939
000010 15 6c e5 3e 3f d8 d4 3e e3 d5 7a 3e 0d f8 64 bc
       0.44809023 0.41571233 0.24495654 -0.013975156
000020 da 65 38 bf 7f de 0b 3f 26 c2 ca bd 2a 68 65 bc
       -0.72030413 0.5463638 -0.09900312 -0.014001885
000030 d1 76 32 bf f2 12 ae be d3 00 4c bc 95 00 3e bd
       -0.6971255 -0.3399883 -0.012451368 -0.046387274
000040 18 36 b3 bd 88 b8 68 3e 72 43 8c be b5 cd fd 3e
       -0.08750552 0.22726643 -0.27395207 0.49571005
000050 3c 3d 93 be f8 db 26 3e 36 b6 b2 3d 3c 86 23 bf
       -0.28757656 0.16294849 0.0872616 -0.638767
000060 d2 3d e9 bd c6 4b ef bb 52 85 3b bc 2d 0b 88 be
       -0.113887444 -0.007302734 -0.01144536 -0.26571026
000070 13 82 17 3e b1 e1 ba be 9b 44 c6 3e ee 66 48 3f
       0.14795713 -0.36500314 0.38724217 0.7828206

downsamples.0.down_conv.weight f4 [32, 32, 3, 3]
000000 e6 e7 6a bd 2f 8d 80 3d 0a 64 e2 3c 3b 09 47 bd
       -0.05735006 0.06276929 0.027635593 -0.048592787
000010 0b 72 88 ba 18 e7 b8 bd 53 3e b4 3d 4d 3f 41 3d
       -0.0010409964 -0.09028453 0.0880095 0.04717951
000020 f4 30 24 be ef 4e a4 be bb 96 16 be b6 ee 37 be
       -0.16034299 -0.32091472 -0.14705937 -0.17962155
000030 c0 84 6f be 72 2a 54 bd 95 f4 6e be 4a 12 94 be
       -0.23390484 -0.05179829 -0.23335488 -0.28920203
000040 2a f1 b1 bd 30 c5 d1 3d af 11 30 bd 1d 6c ac bd
       -0.086885765 0.10242689 -0.042985614 -0.084190585
000050 f0 6f 08 be b5 b3 f6 3d 92 bf dc bd b2 4b 69 bd
       -0.13323951 0.12045995 -0.10778727 -0.056956954
000060 ab a7 9e bd 42 dd 5c be bb d2 05 bd bd 64 85 3b
       -0.07746824 -0.21568778 -0.03267167 0.004070847
000070 bd c9 b5 3d 96 47 d0 3d a8 f6 c3 bd 17 84 2d 3e
       0.08876369 0.10169904 -0.0956853 0.1694492
000080 b7 22 09 be e6 10 a0 3d dc e3 64 3d fa b8 d9 bc
       -0.13392149 0.07815723 0.055881366 -0.026577462
000090 a8 29 74 bc df 01 57 be 80 88 77 be 8b e6 d9 bc
       -0.01490251 -0.20996808 -0.24173164 -0.02659919
0000a0 bf ff 55 be e6 ba 00 bf 22 0b 07 3c 21 02 16 bd
       -0.2089834 -0.50285184 0.0082424 -0.036623124
0000b0 82 c5 4d be 76 c8 af bd b7 60 7d bc 47 1d 94 3d
       -0.20094875 -0.08583157 -0.015464953 0.07232147
0000c0 92 95 d6 bd b6 e3 ca bd 3e b8 bf 3d db ac 91 3c
       -0.10477747 -0.09906714 0.09361313 0.01778262
0000d0 92 fd 14 ba c8 e8 6f 3d 6e 4c 38 bd 86 a4 ec 3c
       -0.0005683537 0.058571607 -0.044994764 0.028887045
0000e0 1b 8d 61 3e 5b f3 f0 3d b7 76 32 3e 3b 18 db 3d
       0.22026484 0.11765166 0.17428099 0.10697981
0000f0 ed ba 94 3e 91 2e 78 3d 38 a9 29 bd 1f 9a 75 be
       0.29048863 0.060591284 -0.041421145 -0.23984574
000100 e0 c8 c6 be 5b 3e 9d be b5 42 30 3d 4b 22 93 3d
       -0.3882513 -0.30711636 0.043032367 0.07184275
000110 2d 8b d1 bd 63 c5 e5 3c 8e b2 00 3c 84 97 eb bc
       -0.10231624 0.028048223 0.007855071 -0.028758772
000120 ba c5 73 bd 57 d5 03 3d 85 a4 11 3d 5b 00 e5 3d
       -0.05951474 0.03218588 0.03555729 0.111817084
000130 91 dd f4 bd 25 2d ac bc 0a a1 7f 3d 02 6f e8 bd
       -0.11956323 -0.02101762 0.06240944 -0.11349298
000140 03 90 00 be ca af 4c 3d f9 ba a5 bd 4c af 3b 3e
       -0.12554936 0.049972333 -0.08092303 0.18328589
000150 25 75 4f be df e7 fb bd 22 61 28 3c 91 99 2c bd
       -0.20259531 -0.12300085 0.0102770645 -0.04213864
000160 f8 1f 0c be 43 2c bb be c2 61 67 be e1 d8 3c be
       -0.1368407 -0.36557207 -0.22595885 -0.18442108
000170 55 3a b2 bd 3c ef 6b 3d bd b9 11 3d 11 8f 7c 3c
       -0.08702532 0.0576012 0.035577524 0.015414969
000180 01 de d4 bd a2 1a 37 3e 9e 50 53 3e 66 a5 90 bc
       -0.103939064 0.17881253 0.20636222 -0.017656993
000190 fd fa 94 3e e5 af b9 3d 45 8e 99 be 16 b1 b9 3d
       0.2909774 0.09066752 -0.29991356 0.090669796
0001a0 81 4a c9 bd e7 6d 5a 3d 8f e0 47 bd af 9c b3 be
       -0.098286636 0.053327467 -0.04879814 -0.35080478
0001b0 08 1e 37 be 10 53 e8 bc e9 3d a7 be 2f a6 6a bd
       -0.1788255 -0.02835992 -0.3266442 -0.05728739
0001c0 bc b4 07 be 8f ee 37 3e 7a ad cb be dc 6d bd bd
       -0.13252538 0.17962097 -0.3978079 -0.0924947
0001d0 f4 c5 4b bd 2b 10 84 bd e8 44 e9 bd 16 c7 30 3d
       -0.04974933 -0.06448396 -0.11390096 0.043158613
0001e0 4f 42 e6 bd 37 e2 ee bd 0f dc 53 be fc 15 05 bd
       -0.11243116 -0.11664241 -0.20689414 -0.03249167
0001f0 11 7d 5b 3c a3 f3 18 3d d7 00 e4 bd 6b a5 bb 3d
       0.013396517 0.037341725 -0.11132973 0.0916241
000200 aa af 6a 3e c8 ba f9 3c 9c 2a 8b 3c 55 13 c2 3d
       0.22918573 0.030484572 0.016988091 0.094763435
000210 60 00 2b be 15 c8 62 be f8 fa 42 3e 48 56 3a be
       -0.16699362 -0.22146638 0.1904105 -0.18196976
000220 58 8a e7 3c 00 03 78 3d 83 b5 3c bd a8 10 91 be
       0.02826421 0.060549736 -0.04607154 -0.2833302
000230 81 b7 7a be 8c e1 ca bd 1b c5 85 be eb 96 20 be
       -0.24484064 -0.09906301 -0.26126942 -0.1568257
000240 01 ba ac 3d d0 77 e4 3e a7 8c 9d 3e c9 8e 5c be
       0.08433915 0.4462266 0.30771372 -0.21538843
000250 85 31 50 3e 0f fb aa 3d fa b6 87 3e dc b7 8e bd
       0.2033139 0.08348667 0.26506788 -0.06968662
000260 a8 19 04 be b0 c3 22 3e 13 65 8f 3e a8 2a e0 3b
       -0.12900412 0.15894961 0.280068 0.0068410225
000270 9d 3b aa 3e a9 86 fc 3d a9 7e 98 3e cf ef ad 3e
       0.33248606 0.12330372 0.29784134 0.33972022
000280 86 18 a9 3e 05 c3 9c 3e 7e a9 13 be 69 61 1d be
       0.33026522 0.30617538 -0.14420125 -0.1536919
000290 22 c6 1f be 89 8b 10 be 1d ce bb be 75 3a c7 be
       -0.15602925 -0.14115728 -0.3668069 -0.38911787
0002a0 ba d8 cb be 2e ea e2 be e9 f6 9f be bd 0e f4 3c
       -0.39813787 -0.4431929 -0.31243065 0.029792184
0002b0 5a 3a 33 3b b3 13 02 3d 13 d6 97 bd 9c a9 90 be
       0.0027348013 0.031757068 -0.07413878 -0.28254402
0002c0 5a 09 ad 3b 1f 8f 7c be 96 b2 ab bc 4d d2 d3 bc
       0.005280656 -0.24663971 -0.02095918 -0.025857115
0002d0 ef e1 8a 3e f9 de 88 3e 4c 12 96 3e 79 cb 4b 3e
       0.271255 0.26732615 0.29310834 0.19901837
0002e0 7c 71 0d 3e 67 4d 81 bd ea 3c 3e 3e a0 0d 46 be
       0.13812822 -0.063135915 0.18577924 -0.19341135
0002f0 8e 6f 50 bc 3a b9 a7 bd a7 36 83 3d 0c 05 49 3e
       -0.012721909 -0.08189626 0.064069085 0.19630831
000300 6a f9 ef 3d 39 b2 66 bd 6c 62 4c 3a 94 55 5f bb
       0.11717494 -0.05632231 0.00077966484 -0.0034078108
000310 4b 11 d5 bc c8 66 63 3d c3 6d 61 3e f8 0c 31 be
       -0.026009222 0.05551794 0.22014527 -0.17290103
000320 06 20 ee 3d 2e 05 f8 3d ff c3 a5 be 04 ac e1 3e
       0.11627202 0.12110363 -0.32376096 0.4407655
000330 ec f5 f3 bd b7 49 d3 be e2 7c 6a 3d 26 8d 74 bd
       -0.1191214 -0.41267177 0.057248004 -0.059704922
000340 63 30 14 be da 6b 6e be 13 2c d7 bd 2d 3e 85 be
       -0.14471583 -0.2328333 -0.10506453 -0.26024
000350 d2 a6 20 be 5e d5 90 3e 68 ba 98 3d 69 11 9d bc
       -0.15688637 0.28287786 0.07457429 -0.01917334
000360 6e 4a c7 bd fc 4e b2 3d 5e 7a d6 3d c6 89 0e bc
       -0.09730993 0.08706471 0.104725584 -0.00869984
000370 29 02 e5 bd c1 f2 12 bd da 44 9d 3e 8d 55 6a 3d
       -0.11182053 -0.03587604 0.30716592 0.057210494
000380 82 1e 11 be e2 55 6c 3e 57 51 2a 3e e2 3a ce 3c
       -0.14171794 0.23079637 0.16632591 0.025174562
000390 d2 97 f0 3d be 84 8d bd 98 17 d6 bd 98 ce 5c bd
       0.117477074 -0.06910084 -0.10453719 -0.05390796
0003a0 af 12 62 3c ab 07 8f bd 7b 82 80 3e cf 2d 56 bd
       0.0137984 -0.069838844 0.2509955 -0.05228978
0003b0 a7 80 6a bd d8 39 63 3d a4 dd 67 3e e1 a6 80 3e
       -0.0572516 0.055475086 0.22643143 0.25127319
0003c0 ef 86 a6 3c 91 f7 3a 3e 86 70 97 3d 85 9e 2b 3e
       0.020328013 0.18258502 0.07394509 0.16759689
0003d0 1f 17 81 3d 8a 4c 6f 3e 13 28 84 3c 46 11 1c 3d
       0.06303238 0.23369041 0.01613239 0.03810241
0003e0 ad bd d0 3d 24 e4 8f 3e f1 e8 99 3d 36 fb 55 3e
       0.10192428 0.28103745 0.07515133 0.2089661
0003f0 b8 dc 39 be 16 f1 1d be cc 56 46 be 2f f9 08 bf
       -0.18150604 -0.15423998 -0.19369048 -0.53505224

downsamples.0.down_conv.bias f4 [32]
000000 1d 67 98 3d cf e1 8d bd 40 7c b6 bd ac 68 b8 bd
       0.07441542 -0.06927835 -0.089104176 -0.090043396
000010 79 5d a5 bd 1a df 7c bd bf be d0 3d e1 77 0d 3d
       -0.08074469 -0.061736204 0.10192632 0.034538154
000020 9d 0d 90 be c0 26 8e be b9 de 9e bc 89 1d 1f 3d
       -0.28135386 -0.2776394 -0.019393312 0.038846526
000030 53 0a 64 3e 87 b6 ab be a2 c7 0a be 4c fc a4 3c
       0.22269563 -0.33537695 -0.13552716 0.020139836
000040 43 ce 18 be e8 76 4f bd 4c 1b 3c be 5e 0a ed 3d
       -0.14922433 -0.050650507 -0.18369788 0.11574243
000050 a0 50 4d 3d 84 14 8c bd 26 e5 81 be 59 3f 06 bd
       0.050125718 -0.068398505 -0.2537014 -0.032775257
000060 0c 03 48 3d db 82 9b be bb f9 b5 bd 90 78 79 be
       0.04883103 -0.30373272 -0.08885523 -0.24362397
000070 42 1f 59 be eb a5 72 be ad 1c a6 be 3a cc e6 bb
       -0.2120333 -0.23696105 -0.32443753 -0.0070433887

downsamples.0.conv.conv1.weight f4 [32, 32, 1, 1]
000000 16 0c cb 3c 5c 4c 17 3f ea e6 c6 3d 02 7b 3b 3e
       0.024786036 0.5910089 0.09712012 0.18308643
000010 7e bc ac 3e 6e 7e 92 be 61 1f 96 be 02 ac 92 3e
       0.33737558 -0.28612083 -0.29320815 0.28646857
000020 ef a7 57 be 1d 67 88 3d 19 a0 7f bc be a8 db 3d
       -0.21060155 0.06660292 -0.015602135 0.107255444
000030 1a 25 a2 be 4d 31 81 3e ae 8f dc 3d d1 80 35 be
       -0.3166893 0.25232926 0.10769592 -0.17724921
000040 91 60 de bd 14 e2 db bd 24 b1 02 3e 2d bd 27 3f
       -0.10858262 -0.1073648 0.12762886 0.65523034
000050 dc 0b 0d be 88 f9 2d be 39 50 36 3e f9 a6 a4 3e
       -0.13774055 -0.1698972 0.1780404 0.3215864
000060 67 4f a7 3b b8 40 67 bd 4b 82 ff bd e5 11 51 3e
       0.005105901 -0.056458205 -0.12476023 0.20416982
000070 d3 0f 30 be 83 cb 97 be 0d 2c 3b bd 8a bc 8e bd
       -0.17193536 -0.29647455 -0.045696307 -0.06969555
000080 32 8a af bd e4 a0 2f be 98 b0 34 be 48 3b b9 3e
       -0.085712805 -0.17151219 -0.1764549 0.3617804
000090 52 ed 3a bf 8c aa b6 bb b0 34 dd 3c f8 5f 75 3e
       -0.7301837 -0.00557453 0.027002662 0.2396239
0000a0 69 82 52 be 13 89 44 3e 3f 2c 19 3e a9 52 db 3e
       -0.2055756 0.19192915 0.14958285 0.42836502
0000b0 56 6a 8b 3e c8 61 82 3e b5 74 63 3e dc fb 52 3e
       0.27229565 0.25465226 0.22212489 0.20603889
0000c0 1b 89 6a 3e 2b 6f 49 3d 19 7d 0e 3d b8 0d b3 bb
       0.22903864 0.049178284 0.03478727 -0.005464282
0000d0 5e 5c f4 3e 0e 1c 59 bc 6d 63 3b 3e 9e 93 6a bd
       0.4772672 -0.013251318 0.18299647 -0.057269685
0000e0 08 aa e5 be dd 75 d7 be fd 59 36 3e 0e 04 85 be
       -0.44856286 -0.4208211 0.17807765 -0.25979656
0000f0 b0 d5 9d bd c2 d9 12 be 9b d3 2f be 61 e3 91 3c
       -0.07706773 -0.1434088 -0.17170565 0.017808618
000100 6d 0c d1 bd 00 f5 68 3f 3d 0b 18 3d 4a ee 31 bd
       -0.10207448 0.9099884 0.037120093 -0.04344014
000110 ce 66 80 3e 72 a2 3b bd 83 65 c2 bc c5 e5 14 3e
       0.25078434 -0.045809217 -0.023730045 0.14540775
000120 60 2b 71 bc 87 04 15 bd d0 b3 49 3e fb d1 02 3f
       -0.014719814 -0.03638127 0.196975 0.51101655
000130 8d 17 8c 3d df cd 3e be 38 5a b1 be 65 cd 3d bd
       0.068404295 -0.18633221 -0.34639144 -0.046338458
000140 9e 03 9c bd 92 85 6c be df d6 42 3e af 65 8c bc
       -0.076178774 -0.23097828 0.1902728 -0.01713833
000150 bd 74 56 3e 13 58 94 3d d2 76 4f be ec 92 d8 3c
       0.2094297 0.07243361 -0.2026017 0.026437245
000160 19 a3 87 be 37 19 61 be 9d 48 5e be 0d 5a 32 3c
       -0.2649162 -0.21982275 -0.21707387 0.010885728
000170 63 a2 95 bd 96 11 04 bf 22 eb c1 be 09 8d de bd
       -0.073063634 -0.51589334 -0.37874705 -0.10866744
000180 ae 06 a4 3d be 4c 40 be e1 73 05 bf e5 26 15 be
       0.080090865 -0.18779275 -0.5212994 -0.14565618
000190 94 06 f8 bd 58 f0 89 be be e9 90 be 61 0f 4e 3e
       -0.1211063 -0.2694118 -0.2830333 0.20123054
0001a0 fb 5f 4a be ed 5e 57 be 46 98 10 3e 10 4a 60 be
       -0.19763176 -0.21032305 0.14120588 -0.21903253
0001b0 b6 e7 b4 bd 6c ba 56 be b0 f2 f0 bd 3b 93 12 3e
       -0.08833258 -0.20969552 -0.11765039 0.14313976
0001c0 b8 a8 85 bd 62 58 09 3e ed 4f 3e bc 80 e9 08 3d
       -0.06526321 0.13412622 -0.0116157355 0.033425808
0001d0 6f 92 96 3e 2e 6a c2 3c 2a 91 d8 bd eb 1a ee 3e
       0.29408595 0.023732271 -0.10574563 0.46504912
0001e0 fc 42 34 3e 23 bf 94 3e 1b 4f 82 3c 03 f7 91 be
       0.17603678 0.29052076 0.015906861 -0.28508767
0001f0 43 4f d0 bd 83 f5 bf 3e 31 9f c5 3e 88 5c c1 bd
       -0.10171368 0.37491998 0.38598016 -0.09441477
000200 f0 65 b3 3e d3 9a 84 3d 96 af b7 bd 8c d0 f8 3d
       0.3503871 0.06474843 -0.08969037 0.12149152
000210 35 90 9d 3e b2 ea 86 3e 07 44 7d 3e 96 4d c6 3d
       0.30774084 0.26350933 0.24732982 0.09682767
000220 ef 0c 9c 3e 91 1c b9 be 62 d3 1a 3e a6 48 ba ba
       0.30478618 -0.36154607 0.15119699 -0.0014212325
000230 7e 15 56 3e 31 8a 15 be 0e 0d 8c bd be 2b 27 3e
       0.20906636 -0.14603497 -0.068384275 0.1632528
000240 2c 4e 11 bd 0f 8a ca 3d 6a dd a9 be 3d 09 15 bd
       -0.03547494 0.09889614 -0.33176738 -0.036385763
000250 5f 77 fe 3a 41 f0 ca be 01 a7 21 bd 9c c4 56 3e
       0.0019414237 -0.39636424 -0.039465908 0.20973438
000260 29 26 8e 3e d6 0e 30 bd 97 de 49 bf b9 fc 85 3e
       0.2776349 -0.0429829 -0.7885527 0.26169375
000270 ee f3 6e be 84 94 f5 be 3b 5f 3c 3e f8 9f 8b be
       -0.2333524 -0.4796487 0.18395703 -0.27270484
000280 5a db e2 3d b7 d3 74 be 92 5c 7a be 22 b0 00 be
       0.11076994 -0.23908888 -0.24449375 -0.1256719
000290 93 68 a6 bd dd d1 a5 3d c7 f9 6b bd 76 6f 1e 3e
       -0.08125415 0.08096669 -0.057611253 0.15472206
0002a0 1e d2 a7 be ed 59 0c 3e 04 5f c8 be 4d d0 b7 3e
       -0.32777494 0.13706179 -0.3913499 0.35901108
0002b0 68 7e 47 bd eb c3 34 3d 41 8b 07 3e 12 df 72 be
       -0.048704535 0.044132154 0.13236715 -0.23717907
0002c0 20 30 95 3d e0 b7 eb 3e 7a 68 ed 3e 08 bd 31 3d
       0.0728457 0.46038723 0.46368772 0.043393165
0002d0 ad 9d 87 3e 0c 8b ab bd 06 5c 97 bd 4f 97 f2 bd
       0.26487485 -0.083761305 -0.07390599 -0.11845266
0002e0 21 d3 19 be f8 c4 d9 be 18 ae e1 3d 17 cb 2a be
       -0.15021946 -0.42533088 0.11019534 -0.16679035
0002f0 fa 0e 14 be 67 a6 12 bf a7 d1 b8 bd b1 ee 15 3d
       -0.14458838 -0.5728516 -0.09024363 0.036604587
000300 77 cd ac bc a7 d9 7f 3e 25 de b0 be 36 46 47 3d
       -0.021094067 0.24985372 -0.34544483 0.048650943
000310 20 95 c6 3e 58 20 1d 3f 8d 3b 09 3f 60 52 a0 3d
       0.38785648 0.6137748 0.5360649 0.07828212
000320 f0 87 02 3e b9 bc d0 bd ac 88 a2 3e 8c cd 34 3e
       0.12747169 -0.10192246 0.31744897 0.17656535
000330 4a f5 a5 3d 2a 87 bd bd f0 b6 8a 3e f1 d8 6d 3d
       0.08103426 -0.09254296 0.27092695 0.05806822
000340 ae a7 d4 3d 4a 87 2e bc ef cf 9e be 72 20 5d be
       0.10383545 -0.010652373 -0.31018016 -0.21594408
000350 10 a3 d1 3d 4c fb f9 bc f3 41 80 be 91 b6 32 bc
       0.1023618 -0.030515336 -0.25050315 -0.010907785
000360 54 48 71 be 93 4e 24 be 49 ba 7d 3e ee e9 01 3d
       -0.23562747 -0.16045599 0.24778093 0.031717233
000370 eb 40 24 3e c6 0f 12 bf 77 e2 82 be 6d 7c 50 3e
       0.16040389 -0.5705532 -0.25563404 0.20359965
000380 64 0f d9 be ec 05 8d be cc 66 54 bd 2e f7 30 bf
       -0.42394555 -0.2754358 -0.051855847 -0.69127166
000390 f7 a1 84 bd eb e1 9b 3e 8f ca 2d be e2 8d 5f bc
       -0.06476205 0.304458 -0.16971801 -0.013644667
0003a0 63 b8 f9 3e 7f 3a 97 3e 23 73 01 3f 61 a3 37 3e
       0.48773488 0.29536816 0.5056631 0.17933418
0003b0 a4 c5 a0 3e f7 f0 4e be bf 8c 3d be 9a 03 d2 3d
       0.31400788 -0.20209108 -0.18510722 0.10254593
0003c0 90 63 ea bd 83 86 3c 3e 65 e4 76 bd e0 20 1a 3e
       -0.11444771 0.18410687 -0.060276408 0.15051603
0003d0 8a 99 af bd c5 9c 1a 3f a9 f5 ca 3e 7d 90 8f 3d
       -0.08574207 0.6039546 0.3964055 0.07009981
0003e0 26 d9 9d 3e 0f 54 7f bd 5a cd 18 be a3 44 bd 3c
       0.30829734 -0.062336024 -0.14922085 0.023104018
0003f0 5b 42 7a bd eb 05 66 3d d0 da 60 bc db 83 16 3e
       -0.061098438 0.056157988 -0.013724044 0.14698736

downsamples.0.conv.conv1.bias f4 [32]
000000 72 de e6 3b a6 3d 6d bd 6e 3d 35 bd 5d 53 2a 3d
       0.0070455605 -0.05792012 -0.044248037 0.041583408
000010 4b 51 fe bd f2 db 5c bd 57 fc 35 3e ed 75 07 be
       -0.12417849 -0.053920694 0.17772041 -0.13228579
000020 cb ce db bd be af 36 be b7 50 a4 3d 74 e1 26 3e
       -0.10732802 -0.17840478 0.08023208 0.16296941
000030 0e 81 11 3e 82 70 22 be c7 18 0c 3e 89 b6 ad 3d
       0.14209387 -0.15863231 0.13681327 0.084820814
000040 4b ec fa 3d a5 fd fb 3d dd 16 bc 3c c3 36 75 3d
       0.122521006 0.12304238 0.02296012 0.059866678
000050 cc 53 e0 3d 8d 17 3f 3d 34 ce 2d be cc b1 d8 3c
       0.10953483 0.04665332 -0.16973191 0.026451968
000060 32 a8 3c 3e 3c 28 22 3e 01 48 13 3e d7 22 3f bd
       0.18423536 0.1583566 0.14382936 -0.046664085
000070 46 09 e6 3b 45 10 18 be 35 fa 00 3e e0 99 85 3d
       0.0070201484 -0.14849956 0.12595446 0.0652349
