Model/finetune-250527-model_40.pth (torch, 686182 bytes, 80 tensors)

encoders.0.conv.conv1.weight f4 [32, 1, 3, 3]
000000 32 74 c7 3d dd a5 ae be df 69 2b be 0e 1f d0 3d
       0.09738959 -0.3411092 -0.16739605 0.10162173
000010 32 21 a5 be f5 6f 4a be af 97 e6 3d d8 2d 70 3e
       -0.3225189 -0.1976927 0.112594 0.23454988
000020 a3 f1 18 be 93 dd 4e bd 5e 7d 24 be da 96 a3 be
       -0.14935927 -0.05050428 -0.16063449 -0.31951028
000030 91 10 4c 3d 01 0a 6c 3e 7e ba df 3d 8e 0d c6 3d
       0.049820486 0.23050691 0.109242424 0.09670554
000040 9c 78 bf be f8 d8 a7 be 7b 01 a7 3d 71 30 a1 3e
       -0.37396705 -0.32782722 0.08154579 0.3148227
000050 76 d5 dc bd 7c 5f 59 bd 5d b5 f0 3a bc eb 41 3d
       -0.10782902 -0.053069577 0.0018364597 0.047343954
000060 70 b9 04 3e 43 ed 63 be b5 d8 17 be c3 8a 50 be
       0.12961364 -0.22258477 -0.14828761 -0.20365433
000070 ce 31 bd 3e f1 a8 93 3d 22 ed 96 be 04 c7 fb 3d
       0.3695206 0.072099574 -0.29477793 0.122938186
000080 c7 eb ae be 38 cc 73 be 9e b7 c8 be d0 ad 8a be
       -0.3416426 -0.23808372 -0.3920259 -0.27085733
000090 54 a8 74 be 36 16 5b be 4f 74 48 3e 72 39 2f be
       -0.23892337 -0.21395192 0.19575618 -0.17111757
0000a0 a3 c9 98 3e ae 22 5e 3c cb 9a 19 be cb 38 48 3e
       0.29841337 0.013558073 -0.15000455 0.19552915
0000b0 66 40 dc 3d 85 de 37 3d 96 d5 a7 be c8 28 9f 3d
       0.107544705 0.044889946 -0.3278014 0.0777145
0000c0 4a d6 53 3d d4 e2 35 3e 13 1d 85 3d 55 63 1d 3e
       0.051718034 0.1776231 0.06499686 0.15369923
0000d0 45 a7 3b bf 2a 07 62 3d 5c ac 9a 3d eb d8 2f 3d
       -0.7330211 0.055182613 0.07552406 0.04293148
0000e0 44 86 b9 3e 95 6c 56 3d 6c a4 94 be da 10 59 be
       0.3623525 0.052349646 -0.29031694 -0.21197835
0000f0 56 c4 7b bd f2 9f 48 be 6e 59 12 be 46 0b f4 3d
       -0.061466537 -0.19592264 -0.14291927 0.11916213
000100 15 b9 97 3c 8e bc 07 bf 59 fc 9d bd 71 cf 34 bd
       0.018520871 -0.53022087 -0.07714147 -0.044143144
000110 3c 7e 0a 3d 5f fe e6 be e5 6c 65 be e6 db 14 3e
       0.033811793 -0.45115945 -0.22404821 0.1453701
000120 c3 3b 92 be 6e 6a 2a 3e e4 0b 10 3e 34 85 aa 3d
       -0.2856122 0.16642162 0.14067036 0.08326188
000130 12 0c e6 bd 2f 17 82 3d 03 fd b8 be 39 fa 88 bd
       -0.11232771 0.06352078 -0.36130533 -0.06688351
000140 3d af 6c be 0a be 0c be 14 f2 a4 bd c0 1a 22 bd
       -0.23113723 -0.13744369 -0.08053985 -0.039576292
000150 e6 a3 76 3e da f1 0a bd 26 db c6 bd 91 22 2b 3e
       0.2408596 -0.033922054 -0.09709768 0.16712405
000160 4a 8c 9e bd 92 2d 08 be 76 c2 aa be b7 bf be 3e
       -0.07741602 -0.13298634 -0.33351487 0.37255642
000170 87 72 96 be 01 d1 6d bd 6e d2 6a bd 4f 5a 03 3c
       -0.29384252 -0.05806065 -0.057329588 0.008017137
000180 dd b1 6e bc 80 a5 90 3d 0c 07 0a bd 2d e4 01 be
       -0.014568773 0.070628166 -0.033698127 -0.12684698
000190 ac 05 3d be 18 db 67 be 63 1d 83 3d 9f 68 bc 3d
       -0.18459195 -0.22642171 0.064020894 0.091996424
0001a0 6f 83 92 bd c2 78 0b 3e a4 41 0b be 1a 62 46 3e
       -0.07153975 0.13620284 -0.13599259 0.1937336
0001b0 bd f1 73 bd 66 8a 08 be f5 81 0d be 5c d7 9f bc
       -0.05955671 -0.13334045 -0.13819106 -0.019511871
0001c0 ed c9 0d 3f 1a c1 b1 bc 1e 63 00 be b8 86 bd bd
       0.5538624 -0.021698523 -0.1253781 -0.09254211
0001d0 5a 74 bf bd ca 71 91 bd 7d 30 13 3d 91 73 b0 3e
       -0.09348364 -0.07101782 0.035934914 0.3446317
0001e0 f0 d0 97 bd fd 74 49 3e 09 3c bd 3d 18 f4 2b be
       -0.074128985 0.19673534 0.092399664 -0.16792333
0001f0 cd 70 a0 be 08 7f a3 bc 92 b4 20 3e 90 fa dd bc
       -0.3133606 -0.019958034 0.15693882 -0.027097017
000200 5a 5d 84 3d 46 d4 70 be dc fc 8c be 00 ec 5c 3c
       0.06463118 -0.23518476 -0.27536666 0.013484001
000210 0a 9a dc be 6f cc 7c 3e cd 9d 9f bc 77 49 13 be
       -0.43086272 0.2468736 -0.019484425 -0.14383493
000220 cd 23 82 3e 2d 4b ba be 0b 1d 4c 3e ce 97 57 bd
       0.2541794 -0.3638548 0.19932954 -0.052635007
000230 71 58 02 bf 35 25 24 be 47 db b9 3c 58 17 2e 3e
       -0.509162 -0.16029818 0.022687567 0.17001092
000240 d4 89 9a 3d 45 2c 41 3e e3 86 3b be 6f e4 53 3d
       0.0754582 0.18864544 -0.18313174 0.051731523
000250 7b 43 26 3e d1 f7 bb be 5c a8 b6 3d d4 30 df bd
       0.1623668 -0.36712506 0.08918831 -0.10897985
000260 9e 27 f1 bc b8 da 03 be 93 a9 d5 3d 07 c6 a7 be
       -0.029437836 -0.12876403 0.10432734 -0.3276827
000270 f6 93 8a be 0b 28 a9 3e 99 d0 89 3d fa ac c4 3d
       -0.2706601 0.33038363 0.0672924 0.09603305
000280 d7 4f 95 be ed af 15 3d ff f6 f9 3d 7a 4c 04 be
       -0.29162475 0.03654473 0.12205314 -0.12919798
000290 60 64 a4 be 7c 91 f6 bb bc 27 7c bd 1c 4e 28 3d
       -0.3210783 -0.0075246673 -0.06156133 0.041090116
0002a0 9a 90 86 3e 18 71 06 3e 7c 2b 6e 3c 0a 87 f9 be
       0.26282197 0.1312908 0.014536735 -0.4873584
0002b0 65 68 24 bf 95 64 dd be 85 e3 c3 bd d3 f2 9b 3e
       -0.64221793 -0.432408 -0.0956488 0.30458698
0002c0 03 7d 5f be 84 f9 f1 bd b1 85 9d be 9e df a6 3e
       -0.21825032 -0.118151695 -0.3076606 0.3259248
0002d0 35 81 83 3e a7 72 5c bd 2a 54 1b 3e 6b ff 10 3e
       0.25684515 -0.05382028 0.15168825 0.14159934
0002e0 7b c7 a3 bd c2 e4 86 be e2 0a 0d be 36 97 b5 bd
       -0.07997032 -0.26346403 -0.13773683 -0.08866732
0002f0 a1 90 13 be 94 29 23 be 1c 5f d6 3d 8a c2 ee 3d
       -0.1441064 -0.1593383 0.104673594 0.11658199
000300 da b9 0d be ef ce 9d be 62 b5 84 3e 70 7a 90 bb
       -0.13840428 -0.3082194 0.25919634 -0.004409127
000310 db 34 a8 bd 6a 3f e6 3d 99 56 77 bd 85 bb 59 be
       -0.082132064 0.11242564 -0.06038532 -0.2126294
000320 00 80 89 3c 4e d8 8b be 13 4e d0 3d 8b 1c 52 3d
       0.016784668 -0.27313465 0.101711415 0.051296752
000330 57 0d 82 3e d5 2a 8d 3b dc 97 a1 3d aa 28 fc be
       0.25400802 0.0043080845 0.07890293 -0.49249774
000340 1d c0 a7 3c cf ad 32 3d 36 49 05 3e 51 2d fc 3d
       0.020477349 0.043622788 0.13016209 0.12313331
000350 ed f1 70 bd b6 47 01 3d 20 9d 7a bd aa a9 01 be
       -0.05882447 0.03156253 -0.061185002 -0.12662378
000360 32 2c d9 3d b6 f5 2a be ed 5e 21 3e 8a 4c c7 be
       0.10604133 -0.16695294 0.15758868 -0.38925582
000370 61 69 99 3e 4f 43 91 be 6d 47 0b 3d 10 1d 97 bd
       0.2996321 -0.28371665 0.034003664 -0.0737859
000380 fa c4 82 3d 5a ce 54 be b4 58 87 3d f9 05 70 3e
       0.063852265 -0.20781842 0.06608716 0.23439778
000390 d9 4b 9b be 5e 51 1a be 42 db f4 bc dc 59 54 3d
       -0.30331305 -0.15070102 -0.029889707 0.05184351
0003a0 c1 43 f2 3d 45 6b ea bc f0 11 c9 bd ac 11 b7 bd
       0.11829329 -0.028615603 -0.098178744 -0.089389175
0003b0 d2 c3 20 be df c5 cb 3d ce 4a da 3c 7f f9 5b be
       -0.156997 0.0994985 0.026646998 -0.21481894
0003c0 65 61 1a be 6f 45 51 3e 04 85 91 3e 23 3e 02 bf
       -0.15076216 0.20436643 0.28421795 -0.50876063
0003d0 28 1b 17 bf 12 27 0d bd 18 9d f8 be 69 8c c5 be
       -0.5902581 -0.03446109 -0.48557353 -0.38583687
0003e0 a6 bf a3 3c 8c cc 63 3e c1 55 24 3c 34 4d 28 3e
       0.019988846 0.22245997 0.010030211 0.164357
0003f0 24 41 14 bd 31 bc 0d 3d 54 a1 77 bd 51 ca ec bd
       -0.036194935 0.0346033 -0.06045659 -0.11562026

encoders.0.conv.conv1.bias f4 [32]
000000 52 14 02 bf 72 68 34 bb d0 79 03 be 36 d9 b2 bf
       -0.50812256 -0.0027528075 -0.12839437 -1.3972538
000010 10 e0 92 be 8a 77 d8 bd 61 49 ed be 54 85 3a 3e
       -0.2868657 -0.10569675 -0.46345046 0.18214923
000020 99 f0 eb 3e 98 c8 a2 bc 25 4a 76 3e 9a c2 8c bd
       0.46082 -0.019871041 0.24051721 -0.06873055
000030 71 59 e4 3d e1 0d 84 be 77 60 5d 3d 30 c2 b9 3d
       0.11149872 -0.2579184 0.054047074 0.090702415
000040 45 24 81 3b 81 89 8a 3e f5 26 bc be 35 9d 93 bf
       0.0039410912 0.27058032 -0.36748472 -1.1532351
000050 d4 7b 91 bd 29 ce 93 be d7 ab ce bc aa c3 4c bd
       -0.071036965 -0.28868225 -0.025228424 -0.049991287
000060 77 35 ae bd b7 69 91 bd ac 11 a8 3e a6 ea a2 3e
       -0.08506291 -0.07100242 0.32825983 0.31819648
000070 4e 0e 98 3d 8a ac 23 bf 47 c3 de 3c e9 a8 0f bd
       0.074246034 -0.6393515 0.027192725 -0.035073195

encoders.0.conv.conv2.weight f4 [32, 32, 3, 3]
000000 5d ef e7 3d 28 4f d8 3d 8d b8 15 be e8 3d a3 be
       0.11324952 0.10561973 -0.14621182 -0.31883168
000010 46 0c 99 be 3f 83 2d bf 32 d7 37 3e 77 2a d9 bd
       -0.29892176 -0.6777839 0.17953184 -0.10603803
000020 23 2e 02 be a1 55 15 be 56 c2 a2 be c1 1f 44 be
       -0.12712912 -0.14583446 -0.31788892 -0.19152738
000030 97 6e ad be 45 08 4a be 97 7a 16 be d5 a0 19 be
       -0.33873436 -0.19729717 -0.14695202 -0.15002759
000040 b9 a2 b8 bd 1a 60 b5 bd e0 18 97 3a cc 9b 8a bd
       -0.09015412 -0.088562205 0.0011527799 -0.06767997
000050 bb f8 90 bd be 32 2c bd 96 77 d9 bc 3a 99 13 3d
       -0.070786916 -0.04204058 -0.02654628 0.0360348
000060 e2 aa d0 bc 3b cf 28 3d 87 82 1d 3e 68 88 5e 3e
       -0.025472108 0.041213255 0.15381823 0.21731722
000070 3f c4 9d be 40 b0 dc 3d 2c 79 9e be ef 8a 57 3e
       -0.30813786 0.107758045 -0.30951822 0.21049093
000080 44 31 1c bd 5e bf 1f bf 29 3f 5b be 3f 54 b6 bd
       -0.03813292 -0.6240138 -0.21410812 -0.089027874
000090 e3 1d 70 3e 6a 47 c6 bd 5a ee 57 3d 04 dc a6 3d
       0.23448901 -0.0968159 0.052717544 0.081474334
0000a0 4e 83 3f bd 88 08 85 bd 2d 45 c9 bd 1c 49 60 bd
       -0.04675608 -0.06495768 -0.09827647 -0.054757223
0000b0 4e 7d d0 bd 79 aa 85 be bb 90 b2 be 7a bd 8a be
       -0.1018015 -0.26106623 -0.34876046 -0.27097684
0000c0 86 87 00 bf 95 62 8b bd 3f fe cf bd 48 dd 01 bf
       -0.5020679 -0.068059124 -0.101559155 -0.50728273
0000d0 13 c7 8d 3d ec 8c fd be d9 77 db be 9d 6d d1 bd
       0.06922736 -0.49521577 -0.42864874 -0.10225985
0000e0 9a 1b 66 be 5c 86 98 3d 48 cb 31 bd 38 6c 71 3b
       -0.22471467 0.07447502 -0.043406755 0.0036838185
0000f0 dc 0b 07 bc de 1b ec 3c e7 6b 8b be 9d af 9a be
       -0.008242574 0.028821882 -0.2723076 -0.30212107
000100 a2 46 d9 be 12 9e 1e 3e 55 10 fc bd 50 e4 dd be
       -0.424367 0.15489987 -0.123078026 -0.4333825
000110 4f 71 fe 3d b5 98 47 be 51 d1 c3 bd 59 d5 34 3e
       0.12423956 -0.19491847 -0.09561408 0.1765951
000120 55 90 62 be 32 09 91 3c 3e 6b 13 be d9 76 db 3d
       -0.22125371 0.01770458 -0.14396378 0.10716028
000130 6a 42 73 3e 0c e2 69 3e 65 dd 73 bd a8 a7 5a 3d
       0.23755804 0.22840136 -0.05953731 0.053382546
000140 e0 35 fe bd 42 a1 08 bf 4a cc 96 3b 41 b9 a9 bd
       -0.124126196 -0.5337106 0.00460199 -0.082872875
000150 06 16 fb 3d ec 56 8f be 3f d2 d0 3d 4d f4 db 3d
       0.1226006 -0.27996004 0.10196351 0.10739956
000160 ee f2 81 be 55 2e a6 be 60 c3 a0 be bb 98 e0 be
       -0.25380653 -0.32457224 -0.3139906 -0.43866524
000170 88 73 3c be 75 50 af be 3a 02 08 3e 7c 76 d9 3e
       -0.18403447 -0.3424107 0.132821 0.4247321
000180 2f 72 b5 be 94 db ec 3d d3 a7 8c bd df 5e 23 bf
       -0.35438678 0.11565319 -0.068679474 -0.63816637
000190 7a ce e7 be b4 75 97 3d 71 68 e1 3d 75 db 8d bd
       -0.45274717 0.07395497 0.11006249 -0.06926624
0001a0 bd e5 a0 bc 1e 6e 45 be 8c cd 9d bd b0 ab 6e be
       -0.019640798 -0.19280288 -0.077052206 -0.23307681
0001b0 b3 af c4 bd 4e 4f ee 3d 36 87 4e be 59 44 a0 be
       -0.096038245 0.1163622 -0.20168766 -0.31302145
0001c0 b1 00 57 3e 49 c5 6d 3e af 6c 5a bf c4 77 3a bf
       0.20996358 0.2321979 -0.8532209 -0.72839
0001d0 57 3f bd 3d 41 7b 0b 3d 18 d2 1f be 8d fe c9 ba
       0.09240597 0.03405309 -0.15607488 -0.0015410945
0001e0 b5 3d 1f 3e da cd 82 38 5e fe c1 bd 9c ad 22 3e
       0.15550883 6.237226e-05 -0.09472345 0.15886539
0001f0 1d bd 69 3e 7a 97 a0 3d f4 ea bb be b0 7e 2a bf
       0.22826047 0.07841392 -0.36702693 -0.6659956
000200 2a 2e 1f 3d c7 3c a8 be 45 9c a1 be 3d 1b 38 3c
       0.038862385 -0.3285887 -0.31564537 0.011236963
000210 74 c4 17 bf 1b df 06 bf 17 bb a8 be 0a 81 b0 be
       -0.5928414 -0.5268418 -0.32955238 -0.3447345
000220 81 3a c8 3e 16 40 d9 bc a5 8a 25 bb a4 bf 69 be
       0.39107135 -0.026519816 -0.002525964 -0.22827011
000230 27 c8 93 be 39 d1 84 3e 3a 5f 01 bf 77 95 fe be
       -0.28863642 0.25940874 -0.5053593 -0.49723408
000240 5e 67 d5 3d 66 a2 dc bd ad 80 43 be 73 9d 3d 3e
       0.10420106 -0.107731625 -0.19092055 0.18517093
000250 1a f7 d7 3d c5 cd a7 bd a3 bb 95 be a0 c4 8e bd
       0.10545178 -0.08193544 -0.29244718 -0.06971097
000260 a6 a5 16 be 68 94 fa bc f1 39 3c 3e 4d 8c 37 3e
       -0.14711627 -0.030588344 0.18381478 0.17924614
000270 4f 60 14 bf 08 6c c0 bd af 54 88 3d 66 a9 6b bf
       -0.57959455 -0.09395605 0.06656777 -0.92055357
000280 82 e9 c7 be ca 8d 02 3d d8 7f 06 be 35 6b 38 be
       -0.3904534 0.0318735 -0.13134706 -0.18009646
000290 52 c4 b4 bd 20 04 03 3e 11 c8 bd 3b 91 96 03 be
       -0.08826508 0.12794542 0.005791672 -0.12850405
0002a0 31 ad be bc 9a 1c bb 3d de 7e 92 bd 59 06 39 bf
       -0.023275943 0.09136315 -0.07153104 -0.7227531
0002b0 61 6c 3b be 1f 4c 0f 3d 87 72 85 bd 40 8f b0 bd
       -0.18303062 0.034984704 -0.06515985 -0.08621073
0002c0 6f 4d 3c bf ca 0b b7 3e fd d6 58 3e db fa 77 3d
       -0.73555654 0.35751182 0.21175762 0.06054197
0002d0 2e 3a ca bd 28 5d b8 bd dc 95 8c bd 4d c3 d1 be
       -0.09874378 -0.09002143 -0.06864521 -0.40969315
0002e0 6d 10 4b 3e 03 ef 4b bd eb d2 cb be d4 33 54 be
       0.19830485 -0.049788486 -0.39809355 -0.20722896
0002f0 b0 a0 f7 bb 71 af 75 bd 3e 5a 9c bd 9d 13 47 bc
       -0.0075569972 -0.059981767 -0.076344 -0.012150672
000300 bd 24 9f bc 6a 11 7c bd af a8 e3 3d 0f e7 81 3c
       -0.019426698 -0.061540045 0.11116158 0.015857248
000310 e5 95 26 be 2e 0c c4 be 14 60 cd bd 24 32 48 be
       -0.16268118 -0.38290542 -0.10028091 -0.19550377
000320 1c b9 ea 3d bb c0 62 be 78 7c 6f 3d f5 e3 4d 3c
       0.11461088 -0.22143833 0.058468312 0.012566556
000330 f6 4d 88 be b3 e9 16 3e a9 ee b5 3d 20 c0 97 be
       -0.2662198 0.14737587 0.088834114 -0.29638767
000340 a0 81 a7 bd f1 a1 4e bd b3 60 07 be 86 2e b0 be
       -0.08179021 -0.050447408 -0.13220482 -0.34410495
000350 5b 2a 06 bc 6d 47 8b be 53 39 e2 be 5b 81 2c 3e
       -0.008188809 -0.2720293 -0.4418436 0.1684622
000360 db e1 9f be 0a 9d a0 bd 40 80 92 be 91 13 aa bc
       -0.31227002 -0.07842453 -0.28613472 -0.020761283
000370 b8 33 bf be 83 f7 50 be 88 8b ec 3c 2b 7e 49 3d
       -0.37344146 -0.20406918 0.028875127 0.04919259
000380 55 9a e9 bc a3 05 79 be a5 f5 33 3c ae 8d 1a be
       -0.028515974 -0.24318556 0.010983859 -0.15093109
000390 bb e3 13 3d ec 98 96 bd 75 eb 4c 3e b3 3b bd 3c
       0.036105853 -0.07353386 0.20011695 0.023099756
0003a0 fe 9f 6f be df e0 90 3c 8a ba 5a bd 42 fd a9 3d
       -0.23400876 0.017685352 -0.053400554 0.08300258
0003b0 7b 5d 80 bd 84 0c 1d bf 08 2f 88 3d 50 e2 fc 3d
       -0.0626783 -0.6134722 0.066495955 0.12347853
0003c0 46 05 80 bd 27 35 5a 3d 32 d0 08 3e b3 f8 b8 be
       -0.06251006 0.053273346 0.1336067 -0.36127242
0003d0 71 25 b4 bc 34 e5 d3 bd ce 5b df bc dd a9 bb 3c
       -0.02199051 -0.103464514 -0.027265456 0.022908146
0003e0 e2 4f bc ba a2 21 61 be 5b c5 40 be 82 66 b3 be
       -0.0014367069 -0.21985486 -0.18825285 -0.35039145
0003f0 c8 cf 1b 3e a0 35 80 3d aa 1c 04 be a9 cc 66 bd
       0.15215981 0.06260228 -0.1290156 -0.056347523

encoders.0.conv.conv2.bias f4 [32]
000000 31 8b 29 3e d2 ad af be 3a c5 0d 3e bb 8b 68 be
       0.16557004 -0.34312302 0.13844767 -0.22709553
000010 62 e8 24 3f a1 d7 3a be 1e c9 df 3d a3 02 9a bc
       0.6441709 -0.18246318 0.10927032 -0.018800085
000020 00 e0 d8 be f7 8b 0b bd 85 02 0e 3f 52 e9 cd be
       -0.42358398 -0.034069028 0.55472594 -0.40217072
000030 b7 38 e0 be f8 81 41 bd 06 87 1d 3d 30 63 c1 bc
       -0.4379327 -0.04724309 0.038458847 -0.023606867
000040 29 9f 73 bd 9a 4a ab bd 65 e0 6a bd 85 0a 93 be
       -0.05947796 -0.083638385 -0.057342906 -0.28718963
000050 d1 64 9e 3d a9 61 fd 3d c1 80 7e bf a2 77 43 3e
       0.07734073 0.12372143 -0.9941521 0.19088605
000060 40 be 7d 3e 0b 50 45 3e cd b4 b9 be 4c 28 53 3d
       0.24779606 0.19268815 -0.36270753 0.051552102
000070 9c 57 0e bd de 50 16 3e 95 3c 34 3e ec e4 33 bf
       -0.03475152 0.14679286 0.17601235 -0.7027118

encoders.1.conv.conv1.weight f4 [32, 32, 3, 3]
000000 44 71 a0 bc d1 67 47 3e 79 7c 99 3d 44 75 cd 3d
       -0.01958526 0.19473197 0.074944444 0.10032132
000010 bf ef 99 bd 24 0c 18 be 90 77 b2 3d 26 e1 0d 3e
       -0.07516431 -0.14848381 0.08714211 0.13855419
000020 5d ab a7 3d 57 c8 ce 3c af 9e 68 3d 7d 13 0d bc
       0.08186982 0.025242014 0.056791957 -0.008610603
000030 93 b6 4b 3e 4c 59 f5 bd 3c 3f d6 3d 12 46 71 3e
       0.19893865 -0.11979923 0.1046128 0.23561886
000040 d7 0f e4 3d 52 cc 5d bd c7 cf 85 bc a5 38 11 3c
       0.11135834 -0.054149933 -0.016334428 0.008863603
000050 c9 40 a5 be 98 c9 b7 3d 49 35 fe 3c 93 7c 94 bc
       -0.3227599 0.08973998 0.031031268 -0.018125808
000060 b0 0d 50 3d fb 08 af bd ff 4c 05 3b 49 62 f6 3c
       0.050794303 -0.08546635 0.0020340083 0.030076163
000070 94 21 f1 bd 26 dd de bd ad d7 9b 3d 56 49 ef 3a
       -0.11773983 -0.108820245 0.07609496 0.0018256109
000080 a3 03 7c be 1a 99 a6 bc 55 a4 e7 bd bc 49 c0 3d
       -0.24610762 -0.020336676 -0.11310641 0.09389064
000090 bc bb 0a 3b 56 49 34 3d 02 75 40 3e 2b 8b bd 3d
       0.0021169027 0.04401525 0.18794635 0.0925506
0000a0 93 69 6a 3c eb 45 a1 3d b2 7e 83 3d 93 97 cd 3d
       0.014307397 0.07874664 0.064206496 0.10038676
0000b0 95 27 74 be 65 e8 00 3e 0d 40 ee 3c bc c7 37 3d
       -0.23843224 0.12588651 0.029083276 0.044868216
0000c0 4c 8b f5 bd e1 4d 85 be 83 8e 08 3d 2d d3 17 be
       -0.119894594 -0.2603598 0.033339035 -0.14826651
0000d0 b2 32 03 bc 09 43 32 be ee 95 0c be 92 6b 0b 3e
       -0.008007692 -0.17408384 -0.13729069 0.13615254
0000e0 02 27 f0 bc 25 d9 ee bd dc 16 b0 bd 62 69 45 3e
       -0.029315475 -0.11662511 -0.0859811 0.19278482
0000f0 9d 51 29 be 07 5a 61 3d e8 0d 4e bd 47 02 b9 bd
       -0.16535039 0.055017497 -0.05030623 -0.090336375
000100 a7 64 e2 3b 33 6e ab 3d 8c b4 f8 3d 2d 76 d3 3c
       0.0069089714 0.08370628 0.121438116 0.025813187
000110 01 49 a6 3d a0 2d 89 bc ee 60 64 bd 51 3e 2e 3e
       0.08119393 -0.016745389 -0.0557565 0.1701596
000120 b9 8c ea bd 82 13 28 bc 93 bf 49 be 9f 45 1e be
       -0.11452622 -0.010258557 -0.19701986 -0.15456246
000130 9a 0d ae 3d 46 f2 56 be f3 3b ec bc dd 4c ef 3d
       0.08498688 -0.20990857 -0.02883718 0.116845824
000140 ce a2 81 bd 3e bb cb 3d ca 1f 2e bd 80 b1 2e 3e
       -0.06329881 0.09947823 -0.042510785 0.17059898
000150 22 2f 92 bc 3c 26 11 bd e9 a4 48 bd b8 19 c0 bd
       -0.01784474 -0.035436854 -0.048985396 -0.093799055
000160 ca f5 55 3e 23 23 31 3d 55 99 f1 3d d3 e4 ce 3d
       0.20894542 0.0432464 0.11796824 0.101022385
000170 20 1a 4f be b2 c2 af 3b 1e 68 6c 3e af dd 85 be
       -0.2022481 0.0053637857 0.23086593 -0.26145694
000180 f3 8f 37 3d 02 cb 35 be fd 65 0b bf 9d 6e 3f be
       0.044815015 -0.17753223 -0.54452497 -0.1869454
000190 e3 f6 e7 bd 75 49 85 3e 0e da f4 bd 09 af bb bd
       -0.11326387 0.26032606 -0.11955653 -0.09164245
0001a0 1d dc b5 3e 4c c9 32 bd e6 9f 8d 3d 20 87 e7 3e
       0.35519496 -0.043649003 0.06915264 0.4522028
0001b0 0a 8d 7b be 14 b3 4a be a7 1b be 3b e2 77 e8 bd
       -0.24565521 -0.19794875 0.0058016363 -0.11350991
0001c0 1a 8f 08 be a4 09 ef bd d3 6e 74 be 69 b3 6e bd
       -0.13335839 -0.11671761 -0.23870401 -0.058276568
0001d0 00 3b 4c bd ae 52 47 bd 2d 9a f4 bb 78 a1 c6 3c
       -0.049860954 -0.048662834 -0.0074646682 0.024246916
0001e0 a6 4b 96 bd e5 2e a9 bc 8a e7 b3 bd e2 eb 17 bd
       -0.073386475 -0.020652244 -0.08784397 -0.03709019
0001f0 c9 1f 80 bd f8 5d f6 3b 77 01 21 be 3b 3e 37 3e
       -0.062560625 0.007518526 -0.15723215 0.17894833
000200 52 c5 de bd d8 4b c5 bc fe 6e f5 bd 1b 3f 1a be
       -0.108774796 -0.024084017 -0.11984061 -0.15063135
000210 92 02 20 bd e0 8b d8 bd ee 80 50 bb 2a c1 66 3d
       -0.03906495 -0.10573554 -0.003181513 0.05633656
000220 92 bc 8f bd ad f5 f9 3c 7f 68 5e 3d b4 84 55 bd
       -0.07018389 0.030512655 0.054298874 -0.05212851
000230 18 62 ad 3d 1b d5 e4 bd 79 ca 2e 3e 1e a2 e3 3e
       0.084659755 -0.11173459 0.17069425 0.44459623
000240 bf 9f d3 3d 76 67 0d bd 55 ca 4e 3d 13 2c d7 bd
       0.103332035 -0.034522496 0.050485928 -0.10506453
000250 0b 72 86 bc 51 dc 6b bd 9b ae f6 bd 20 13 d1 bd
       -0.016411802 -0.057583157 -0.12045022 -0.10208726
000260 11 2f a9 bd ae 22 7b 3c e4 1d cc bc 02 bb cf bc
       -0.0826093 0.0153280925 -0.024916597 -0.025357727
000270 c6 19 69 bd 46 9b 07 3e 7a e4 e5 bd 69 8b 32 be
       -0.056909345 0.13242826 -0.11225219 -0.17435993
000280 ea fc 07 be dc 0b bb bd f7 dd 5b 3c 5d e1 01 be
       -0.13280073 -0.09133121 0.01341962 -0.12683626
000290 4d d0 f3 bc f3 39 4a 3d 49 84 9d 3c e9 e1 b5 3d
       -0.029762411 0.04937167 0.019228118 0.088809796
0002a0 df fe cc bd da 4e 55 be 2b 66 af 3b da 63 9f 3c
       -0.1000955 -0.2083086 0.0053527555 0.019456793
0002b0 71 aa eb 3c 4c 47 91 3b 3d d5 2f bc 31 d1 21 3d
       0.028767796 0.004433548 -0.010731992 0.03950614
0002c0 be 8d 8a 3c d5 58 b4 3d 54 8a b8 3d 5b 94 25 be
       0.016913291 0.08806006 0.09010759 -0.16169874
0002d0 98 ed d7 3d 63 3a 17 3e 9f 19 51 3e c8 c9 13 bd
       0.10543364 0.14768367 0.2041993 -0.036081105
0002e0 8e c0 82 3c f9 6d ac 3b 24 d8 00 3d 28 35 89 bd
       0.015960958 0.005262133 0.031456128 -0.06699592
0002f0 f2 5b d5 3d ca 98 14 3e 0a fb ed 3c 99 07 df 3d
       0.10417928 0.1451141 0.029050369 0.10890121
000300 5b 76 8f 3d f0 fe a0 bd e3 2c 19 bd ad 19 4a bd
       0.070049964 -0.078611255 -0.037396323 -0.049340893
000310 29 c1 b1 3d b2 31 3f be 92 cf f1 bc 90 d5 50 be
       0.086794205 -0.18671301 -0.029517923 -0.20393968
000320 a3 49 e4 bd 59 25 2b 3c 44 e4 b6 3d a0 80 b2 bd
       -0.111468576 0.010445916 0.08930257 -0.087159395
000330 20 ea 83 3d 86 44 9f bd 3e 8c 41 be 87 da 35 be
       0.0644114 -0.07776742 -0.18901154 -0.17759143
000340 af 9d 75 be 29 2a 0b bc 90 23 57 bd c9 2e 8b 3d
       -0.23985933 -0.0084939385 -0.05252415 0.06796033
000350 0c 9f dd 3d 4d e2 2b 3e b8 e1 31 3e 94 48 4e 3e
       0.108213514 0.16785546 0.17371261 0.20144874
000360 a6 33 1f 3e c8 69 04 be 49 f5 c9 be dc d4 3a 3e
       0.15547046 -0.12930977 -0.3944495 0.18245262
000370 29 ab 62 be 65 e8 90 be 2a 47 82 bd 62 e2 85 be
       -0.22135605 -0.28302303 -0.0636123 -0.2614928
000380 29 58 0b bd e7 48 0f be 84 44 38 3d 24 78 29 3d
       -0.034019623 -0.13992654 0.044987217 0.04137434
000390 5d ee c7 3c a0 a2 9b bd 8e f2 9e bd 40 24 aa 3d
       0.024405653 -0.07599378 -0.077611074 0.083076954
0003a0 3b 2e 9e 3c 3f 21 c0 3c c6 e0 97 3c e4 cf a1 bb
       0.019309154 0.023453353 0.018539798 -0.0049381126
0003b0 6e c9 ec bd 31 69 eb 3c ce b4 0f 3e 4a 68 ed bc
       -0.11561857 0.028736683 0.14033815 -0.028980393
0003c0 09 dc 0a 3e 1a 77 a3 be 81 56 b4 bd d2 f2 9b bc
       0.13560499 -0.31926805 -0.08805562 -0.019036684
0003d0 45 59 67 bd 8e 9b 88 3d 78 b0 a5 3d ab 77 73 be
       -0.05648162 0.06670295 0.08090299 -0.23776118
0003e0 00 a3 54 3d 73 a7 8e 3d a8 0e 4c bd 8b 5b e8 3d
       0.05191326 0.06965532 -0.049818665 0.113455854
0003f0 8f ef b6 3b d6 94 d9 3d 4e 05 b8 bd 73 2a 7e 3d
       0.005582757 0.10624091 -0.08985387 0.0620522

encoders.1.conv.conv1.bias f4 [32]
000000 a8 e9 9d bd 2e 88 e2 bc 89 a6 6b bf f3 3a 27 bd
       -0.07710582 -0.027652826 -0.9205099 -0.040827703
000010 09 81 de 3c ed 98 6e be a8 0d ca 3d 66 ed 88 be
       0.027161138 -0.23300524 0.09865886 -0.2674362
000020 9b df 69 be 25 0a 69 bc 13 42 af 3d 32 f0 00 3e
       -0.22839205 -0.01422361 0.085575245 0.12591627
000030 2f 14 9b bd f1 de 38 bf 52 3d b0 be 1f cd a1 bd
       -0.07572209 -0.7221518 -0.34421784 -0.07900452
000040 28 44 9a be 32 c2 0f 3e 02 53 09 be d1 e5 ef 3d
       -0.30130124 0.14038923 -0.13410571 0.11713756
000050 41 13 99 bf 6a 25 1c 3d 0c 5b 4c bf 27 38 97 be
       -1.1959001 0.03812162 -0.79826427 -0.29535028
000060 2d 3b 4a bd 21 ba 16 3d 04 4c 10 3c 73 c6 1f 3b
       -0.04937284 0.0367986 0.008807186 0.002437976
000070 2a 1b 9b 3d 75 59 5c be 5a bb 07 bf c8 21 00 be
       0.075735405 -0.215185 -0.5302025 -0.12512887

encoders.1.conv.conv2.weight f4 [32, 32, 3, 3]
000000 64 df 9c bd 7a eb 76 be 5c c6 69 be 3f 0f a7 3d
       -0.07659796 -0.24113265 -0.22829574 0.08157205
000010 e9 f2 77 3e eb f3 df bc 86 08 93 3e f6 7c c6 3b
       0.24213757 -0.027337989 0.2871744 0.006057377
000020 d8 b5 44 bd 1f ed 6b bd 10 9f 1f be 9d c2 eb bd
       -0.048024982 -0.057599183 -0.15588021 -0.11511729
000030 73 cd 81 be 65 0d af 3d 60 8e cc bd b7 e2 d1 bd
       -0.25352058 0.08547477 -0.099880934 -0.102483205
000040 15 b8 97 3d 73 aa 81 be ea c8 24 be 88 29 75 3d
       0.07408158 -0.25325355 -0.16092268 0.05985406
000050 09 45 b7 3c 8a b7 b3 3d d9 b9 ed 3c 9b 01 ea 3d
       0.022371786 0.08775242 0.029019283 0.114260875
000060 81 b3 5d be 87 a2 34 bd 3f bf 84 3d 5c 85 69 bd
       -0.21650507 -0.04410031 0.0648179 -0.057011947
000070 2e d5 93 be 88 cc e2 3d 5e 6c 7c be f8 d3 c4 bc
       -0.2887358 0.110741675 -0.24650714 -0.024026856
000080 0f 53 86 3e 25 39 cf be fe 3f 1c bd cc c8 a7 be
       0.26235244 -0.40473285 -0.038146965 -0.32770383
000090 15 66 c7 be 52 38 c0 be a4 90 2d bd 2c 8c ad be
       -0.3894507 -0.3754297 -0.04237427 -0.33896005
0000a0 ac f9 46 be 82 26 84 3d e8 03 43 be f9 74 70 3d
       -0.1943118 0.06452657 -0.19044459 0.058705304
0000b0 1a fa f9 bc 71 ff df bd 04 a3 e7 bd 0f c6 08 be
       -0.030514766 -0.109373935 -0.1131039 -0.13356803
0000c0 d0 d8 1c bd 53 cc 85 bd 88 d0 0c be 2e 70 78 bc
       -0.038292706 -0.065331124 -0.13751423 -0.0151634645
0000d0 b9 36 38 be 83 72 9e 3d 56 8b 02 be 17 57 e5 3d
       -0.17989625 0.07736685 -0.12748465 0.11198252
0000e0 67 fb 2c be f1 a3 9b bd 80 e3 fc 3d 19 14 64 bd
       -0.16892777 -0.07599629 0.1234808 -0.05568323
0000f0 c9 61 2c be 40 a2 c5 bd 1d 80 e6 bd 99 26 ce bd
       -0.16834177 -0.09650087 -0.112549044 -0.10065956
000100 93 9e 27 bc 47 54 7b bd 17 3c 21 3e 98 dd c6 bd
       -0.010230678 -0.06135967 0.15745579 -0.097102344
000110 c8 0b 5a 3e c3 63 97 bd c7 aa f7 be ff 93 db 3d
       0.21293557 -0.07392075 -0.4837248 0.107215874
000120 39 46 6a 3d 3e 27 11 bf e9 65 a4 3c 35 3b 08 be
       0.057195876 -0.56700504 0.020068126 -0.13303836
000130 00 7e 83 3d 79 5d dc bd f2 cd 84 bd 9c b7 9d be
       0.06420517 -0.10760016 -0.064845935 -0.30804145
000140 4f 86 56 3d 24 01 8e bd 1c b0 35 3d 0b 6c 25 3e
       0.05237418 -0.06933811 0.044357404 0.16154496
000150 37 50 d1 bd 0d 26 60 3d 78 35 97 bd a6 fc b6 be
       -0.10220378 0.054723788 -0.07383245 -0.3573963
000160 3a c4 9a bd 87 b4 42 bd f2 82 49 3c d9 e8 84 bd
       -0.075569585 -0.047535446 0.012299286 -0.06489725
000170 4c 4f 97 3d a4 5b b3 bb 8c 11 33 be e1 ba 30 3e
       0.073881716 -0.005473571 -0.17487162 0.17258789
000180 98 b1 4d 3d 83 bb 05 bf e0 6c a0 bd 6d 94 41 3e
       0.050218195 -0.52239245 -0.07833266 0.18904276
000190 c8 5d ca be f7 b6 c5 3b 89 48 f1 be f8 65 c9 be
       -0.39524674 0.006033774 -0.47125652 -0.39335608
0001a0 89 f5 26 3e f9 22 eb 3c 11 77 54 be b2 6a 0a 3e
       0.16304602 0.0287032 -0.20748545 0.13517264
0001b0 44 c7 bb 3c d2 6e 59 bc e3 2f 21 bd cb 8f 98 3c
       0.022922166 -0.0132710505 -0.03935231 0.018623253
0001c0 3f 2f 80 be 9c 13 be 3d b1 06 41 bc 35 e1 e2 bd
       -0.25036046 0.09281084 -0.0117813805 -0.11078111
0001d0 7e 07 37 bd 4a 38 3d be 15 49 e3 bd a0 88 4c bf
       -0.04468488 -0.18478504 -0.11097924 -0.79895973
0001e0 97 d5 92 bc 5c 8b 55 3e 72 65 8f bd 4d 7b 2c be
       -0.017924113 0.20853943 -0.07001771 -0.1684391
0001f0 60 37 e0 3d d8 fb 9f be 84 43 14 bd 0c 9a b5 3a
       0.10948062 -0.3124683 -0.0361972 0.0013855114
000200 33 e8 9b be 8e 68 bc 3d a0 0d 47 3d fb 0a 9e bd
       -0.3045059 0.0919963 0.04859698 -0.07716938
000210 9b 8a 33 3d 45 71 24 3b 60 43 b9 bd 7d 2f f1 3d
       0.043833356 0.0025091928 -0.09046054 0.11776636
000220 f4 77 10 3d 49 54 a4 bd 3e 71 16 3e a3 50 9c 3d
       0.035270646 -0.080238886 0.14691636 0.07632568
000230 86 11 a3 be d7 7d 1b 3d 06 1d 72 bd 9d 98 ce bc
       -0.31849307 0.037961807 -0.05910971 -0.025219256
000240 af 98 33 bf 6c 13 f2 be 07 92 8f 3d 8b 9f 09 3d
       -0.7015485 -0.47280443 0.070102744 0.033599418
000250 52 bc 1c be 42 45 db bd 0b 49 88 3d 09 28 a3 be
       -0.15306213 -0.10706569 0.06654557 -0.31866482
000260 5e 1f 3c bd ba 7b bc 3c 41 01 08 3e d3 43 d1 bd
       -0.04592835 0.023008216 0.13281728 -0.102180146
000270 91 83 22 be 8c a1 8a be 88 df a0 bd 19 c5 87 be
       -0.15870501 -0.27076375 -0.07855135 -0.2651756
000280 31 83 83 ba e4 92 55 bd 51 62 9d bd 57 31 fb bc
       -0.0010033605 -0.05214204 -0.07684768 -0.030663176
000290 54 37 14 bd 1e 20 8f 3d 05 fb 82 be b7 5f a2 be
       -0.036185578 0.06988548 -0.25582138 -0.3171365
0002a0 aa ef 68 3d d8 2f 8c 3c 34 92 ed 3d 96 67 19 3d
       0.056869186 0.017112657 0.11600152 0.037452303
0002b0 ad 35 90 bd 98 12 d3 3d fe ea 58 bd 42 75 35 bd
       -0.07041488 0.10306281 -0.05295848 -0.04430128
0002c0 1a 5e d3 3d 1d 74 03 be ed 02 99 3c 16 ca 59 3d
       0.10320683 -0.12837262 0.018678153 0.05317124
0002d0 55 8a ea 3d 14 f7 92 bd 61 ea 87 3d 9c 2a 07 bd
       0.11452166 -0.07176033 0.06636501 -0.03299962
0002e0 5c 3c af be e0 9b ac bd c9 58 ba bd f5 82 89 be
       -0.34225738 -0.08428168 -0.09098966 -0.26857725
0002f0 e2 ad 9b bd 63 ac fd bd 02 0f 20 be 9e a4 11 3a
       -0.07601525 -0.12386396 -0.15630725 0.0005555841
000300 fb 47 9c 3d 11 a9 37 be ed 3d b0 bb 4a 5c 97 bd
       0.07630917 -0.17935587 -0.005378476 -0.073906496
000310 89 50 9c bc 68 2d 9a bd 12 6f 8f 3d cc 1b c5 3d
       -0.01908137 -0.07528192 0.07003607 0.096244425
000320 77 33 85 bd 7b f5 54 be 32 5b a6 bc 04 68 c5 3d
       -0.06503957 -0.20796768 -0.020307157 0.0963898
000330 91 1a 37 3e 08 39 c8 3d 0b f0 94 bd 5e 92 13 3e
       0.17881228 0.09776503 -0.07272347 0.14411303
000340 25 74 f3 bd e2 66 c4 3d 6a 4f a3 bc 39 d9 15 be
       -0.11887387 0.09589936 -0.019935329 -0.14633645
000350 db fc 5d 3e 08 2a 52 3e 12 1e 18 bc c1 b9 48 bd
       0.21678488 0.20523846 -0.009284513 -0.049005274
000360 33 71 c8 bb af 4a 07 3d 20 c7 b5 bd 10 2a 14 3c
       -0.00611701 0.03303021 -0.08875871 0.009043232
000370 48 0b 29 bd 38 62 b0 bd 95 f6 5a 3c 8f a7 b9 bd
       -0.041270524 -0.08612484 0.013364454 -0.090651624
000380 70 36 a2 bd fe d5 09 bc 68 96 b4 3c c0 61 a7 3d
       -0.079205394 -0.008412836 0.022044376 0.08172941
000390 5a 64 66 be 67 bf 86 bd cf 7d 36 bd 1f 81 8d 3d
       -0.22499219 -0.06579476 -0.044553574 0.069093935
0003a0 72 9b 19 be 52 d8 d2 3d e4 e7 b6 be ef 3e ac bd
       -0.15000704 0.10295166 -0.35723794 -0.08410441
0003b0 f3 9d 2b be 4b 01 87 3c b7 75 ee bc ac 9e 9a bd
       -0.16759472 0.016480109 -0.029108865 -0.075497955
0003c0 d9 3a f7 be f4 0d 36 be e8 44 c4 bd de 65 88 3d
       -0.48287085 -0.1777876 -0.09583455 0.066600546
0003d0 a0 75 01 be 24 58 a2 3d c1 c5 13 3d 3b 12 dc 3a
       -0.12642527 0.07926968 0.036077265 0.0016790101
0003e0 1b c8 9c bd a0 7f 68 be ee 1d 33 be 94 6c a4 bc
       -0.076553546 -0.22704935 -0.17491886 -0.020071305
0003f0 71 9c 37 3d e2 d4 3b bd 71 77 e8 be c7 7d 3c be
       0.04482693 -0.045857318 -0.45403627 -0.18407355

encoders.1.conv.conv2.bias f4 [32]
000000 2d c5 00 be 91 b5 dc 3d 2c 0c 19 bf 0c 33 0f bf
       -0.12575217 0.107768185 -0.597842 -0.55937266
000010 40 c1 c8 3e 5f be bb 3e 2b a6 6a 3e 05 c0 87 bc
       0.39209938 0.3666868 0.2291495 -0.016571054
000020 ff a4 3a bf 15 f4 14 3f 1d 3d 75 bd c2 0d 8a bc
       -0.72908014 0.5818494 -0.059872735 -0.016852263
000030 36 ef 15 bf 88 01 85 be 6d 13 45 be c9 48 a0 bd
       -0.5856813 -0.2597773 -0.19245692 -0.07826383
000040 29 06 fa bd 97 3b 26 3e 54 39 d8 bd 90 b6 22 3f
       -0.12208206 0.16233669 -0.105578095 0.6355982
000050 5c 46 2b be 5b c9 22 3e 5e 46 ed 3c 5c ec f8 be
       -0.16726059 0.15897124 0.028964218 -0.48617828
000060 6c 2d c6 bd 90 48 64 bc 3e 9f d6 3a dc e5 48 be
       -0.09676632 -0.013933316 0.0016374362 -0.19618934
000070 cc 7b 40 3d a2 7f f1 be 09 33 cb 3e 98 18 58 3f
       0.046993062 -0.4716769 0.39687374 0.8441253

downsamples.0.down_conv.weight f4 [32, 32, 3, 3]
000000 80 fe a6 3c 45 b9 a9 bd ae 2f 49 3d 36 f6 28 be
       0.020385027 -0.082872905 0.049117737 -0.16500172
000010 25 4c b7 bd 92 ac 38 3e 38 b6 af 3e 89 9c 00 bd
       -0.0895007 0.1803458 0.3431871 -0.031399284
000020 ac 81 d6 bd 4e 59 47 bd 60 7c 81 bd 0f 6c 85 3e
       -0.10473952 -0.048669152 -0.06322551 0.26059005
000030 21 13 85 be 40 0c 6f be 4f 64 ff bd eb 43 5b be
       -0.25991157 -0.23344517 -0.12470304 -0.21412627
000040 d9 ba 9a bd b3 dd 15 3e cf 39 97 3e 68 55 fb 3c
       -0.075551696 0.14635353 0.29536292 0.030680373
000050 d3 ef 06 be 5f fb e7 3c 1c 7c c7 bd 45 82 93 bc
       -0.13177423 0.028318105 -0.09740469 -0.018006453
000060 0e 0c 58 be 2d 73 31 bc bc 1d b6 bd e2 34 58 bd
       -0.21098348 -0.010830683 -0.0889239 -0.052784808
000070 4d 41 32 be 70 0d d1 bc 4b e7 25 be 55 30 e3 3d
       -0.17407723 -0.025519103 -0.16201513 0.11093203
000080 87 a8 26 be 33 4b a4 3d 42 1c a0 3b 59 50 52 3c
       -0.16275226 0.080221556 0.004886181 0.012836539
000090 25 0c ff 3c 5d ea 20 be c6 40 e0 bd 16 20 d3 3a
       0.03113372 -0.15714402 -0.109498546 0.0016107585
0000a0 25 e2 6c bd 61 c0 a0 be 72 46 e6 bc 0d 42 a8 bd
       -0.057832856 -0.31396773 -0.028109763 -0.08215723
0000b0 79 97 dc bd 67 db d3 bc c4 aa 31 bc fc 30 2f 3d
       -0.107710786 -0.025861455 -0.010843936 0.042771325
0000c0 47 c8 30 3d aa ad b8 bc 9e 41 10 3e d5 57 14 3c
       0.04315975 -0.022543747 0.14087531 0.009054144
0000d0 61 a1 a4 3d 13 2e 06 3e 40 c9 e5 3d eb 65 db bd
       0.08038593 0.13103513 0.11220026 -0.10712799
0000e0 bc e2 59 3d f6 a8 06 3e 9b 47 90 3d 5e 71 50 bd
       0.053194746 0.13150391 0.07044908 -0.050889365
0000f0 ad 6f 85 3e e8 c4 11 3e 8e 89 2f 3e a6 a5 80 be
       0.26061764 0.1423527 0.17142317 -0.2512638
000100 d3 c3 36 be 5a 6e 80 be dd cb 3d 3d 06 8b 72 3d
       -0.17848139 -0.25084192 0.046336997 0.059214614
000110 2a 7f 4e 3d 43 c7 9f 3d 7a 95 fa bd 59 90 b0 3d
       0.05041424 0.07801678 -0.12235542 0.08621282
000120 8e a9 bb bc d9 18 10 bd 35 da 33 3d 56 77 c5 3d
       -0.022907998 -0.035179947 0.04390927 0.09641902
000130 79 a4 99 bd e3 6f 6a bd 1d 5f 43 3e 90 18 25 be
       -0.07502074 -0.05723561 0.19079252 -0.16122651
000140 8f 5f 45 bd ff bb 4b bd f3 ae 96 bd cb b1 2c 3e
       -0.048186835 -0.049739834 -0.07357588 0.16864698
000150 68 b3 4f bd 0c 1a f2 bd 71 13 53 bd 2f a1 35 be
       -0.050708205 -0.11821374 -0.051532213 -0.17737268
000160 23 2a c7 bd e4 5a 53 be 92 47 3d be fc db 3e bd
       -0.09724834 -0.20640141 -0.18484333 -0.046596512
000170 68 a5 89 bc c6 74 09 3e c0 96 82 3d 48 b2 ee 3d
       -0.016802505 0.13423452 0.063764095 0.11655098
000180 f2 42 90 bd c6 b0 12 3e bd 38 75 3e 79 dd 8b 3e
       -0.07044019 0.14325246 0.23947425 0.27317408
000190 58 d7 c0 3d cb ce 58 3e ea ad 43 3d 27 aa 63 bd
       0.094160736 0.21172635 0.04777328 -0.05558219
0001a0 bf a0 c1 3d 6e 60 a2 3e 30 42 46 be d0 2c df bd
       0.09454488 0.31714195 -0.19361186 -0.10897219
0001b0 bc e7 75 bd 62 dd 4d 3e 90 33 02 be e3 45 86 be
       -0.060035452 0.20103982 -0.12714982 -0.26225194
0001c0 d3 7b 83 be b1 c8 98 3d fd b6 18 be 72 92 87 3d
       -0.25680408 0.07460154 -0.14913554 0.06619729
0001d0 bb 22 ce 3d d2 81 e0 3d 2e 29 08 3d 5c 43 cc bc
       0.10065218 0.10962261 0.033242397 -0.024934463
0001e0 9a f3 6f be d1 2c a8 bd 32 b9 00 bc 28 63 1c 3d
       -0.2343277 -0.08211673 -0.007856654 0.0381805
0001f0 b0 0f e1 bc 8e 77 84 be e0 46 f9 bd b7 27 02 3e
       -0.0274733 -0.25872463 -0.121717215 0.12710463
000200 72 fe 65 3e 61 b8 17 3c c0 f1 fb 3c 1f cc 0a 3e
       0.22460344 0.009260268 0.030754924 0.13554429
000210 5c 0c 81 be c7 0b d2 bd 0d 0c c1 bc 74 31 b3 bd
       -0.25204742 -0.102561526 -0.023565317 -0.08749667
000220 dd 9c 8a 3d 8a ba 99 be f8 34 d8 3b e5 df bb be
       0.067682005 -0.3002513 0.0065981112 -0.36694255
000230 d9 bc b0 3d f8 38 5e be 6e c5 ea be 86 0c a8 be
       0.0862977 -0.2170142 -0.45853752 -0.32822055
000240 61 67 ec 3d ba 33 0e 3f 6b 43 15 3f 83 aa b8 bd
       0.115431555 0.5554768 0.58305997 -0.090168975
000250 af 13 b9 3b 3b be b0 3e 8b fe 3e 3e e6 4d b0 3e
       0.0056480984 0.34520134 0.18651788 0.34434432
000260 cb f3 0f 3e bc 60 c6 3c f8 db 47 3e 58 1c 8b 3d
       0.14057843 0.024216048 0.19517505 0.067925155
000270 12 bf 53 3e 0a 2d 91 3e 21 5d 63 3e 27 bd 58 3e
       0.20678356 0.28354675 0.22203495 0.21165906
000280 be 55 c0 3e 60 67 5e 3e 04 81 1c be ac 74 37 be
       0.37565416 0.21719122 -0.1528359 -0.179156
000290 8a e9 94 bd 87 2a 8f be 0a bc fb be a3 f3 b5 be
       -0.072711065 -0.27962133 -0.491669 -0.35537443
0002a0 a0 1f a2 be 21 b1 e5 be b1 7a 7d be 8f 11 4d be
       -0.31664753 -0.448617 -0.24753834 -0.2002623
0002b0 0d c3 21 be 27 e5 72 3e 44 64 e5 bd f2 59 65 be
       -0.15797062 0.23720227 -0.11200765 -0.22397593
0002c0 ec b9 27 3d 29 fb af be bb 58 06 bd 23 e5 b0 bc
       0.040948793 -0.34371307 -0.032799464 -0.021593636
0002d0 b7 6c a7 3d 88 9c 6e 3e 39 f5 9b 3d 9e 60 6f 3e
       0.081750326 0.233019 0.07615132 0.233767
0002e0 d5 c1 39 3e d2 24 88 be b3 4b 27 3e 2d 2a b4 bb
       0.18140347 -0.26590592 0.1633747 -0.005498192
0002f0 68 ee 63 bd 9f 2f 2f bd ef c7 e9 3d d3 ee 2a 3d
       -0.055647284 -0.042770024 0.114150874 0.041731667
000300 15 7d 47 3d b7 b6 f9 3c c7 87 0a 3e be 62 11 3c
       0.048703272 0.030482633 0.13528357 0.00887364
000310 7b 01 c8 3d 4a 10 1e be db 1c 86 3e ab fc c2 bc
       0.097659074 -0.15435901 0.2619389 -0.023802122
000320 21 cc f0 bd 73 69 ee 3d 04 1e 62 be 8e 6b a8 3e
       -0.117576845 0.116412066 -0.22081763 0.32894558
000330 58 2f 49 bd ae 77 a9 be 33 bb 4e 3d e4 73 70 bc
       -0.049117416 -0.3309912 0.050471496 -0.014676068
000340 ba 23 5a be 24 c9 05 be 9a f7 9f be 24 c4 ac be
       -0.21302691 -0.1306501 -0.31243593 -0.33743393
000350 11 d3 9b be 00 45 f8 3d 22 2a 30 be d3 a5 0c be
       -0.30434468 0.12122536 -0.17203572 -0.13735132
000360 4f 93 38 3c 4b aa cf 3a f7 5d f9 3d 2a c8 a8 bd
       0.01126559 0.0015843598 0.121761255 -0.08241303
000370 7c 6b 87 bd 55 10 a9 3d 51 be 99 3e 2e 80 7f bb
       -0.06612298 0.08255068 0.30028012 -0.0038986313
000380 d1 1c 24 3e 41 93 8d 3e fe 8a 2e 3e 31 2b 89 bb
       0.16026618 0.27651408 0.17045209 -0.004186057
000390 02 05 00 3d 34 02 24 be bc 4d 55 bd 62 ef 5e bd
       0.031254776 -0.16016465 -0.052076086 -0.054427512
0003a0 c4 be 1b 3e cc 8e ca bd 4f 0e a4 3d 50 77 2a 3d
       0.1520949 -0.098905176 0.08010542 0.04161769
0003b0 5d 4c ba 3d ea f1 d2 3c e7 e1 08 3e c0 36 d7 3e
       0.090965964 0.02575012 0.13367425 0.42033958
0003c0 a0 bd 23 bd 0b 70 37 3d d3 af a3 bd 97 42 49 3e
       -0.039975762 0.044784587 -0.0799252 0.19654308
0003d0 a7 92 2c be 04 5e 17 be 0e b4 a4 bc eb a5 a2 bc
       -0.16852818 -0.14781958 -0.020105388 -0.019854506
0003e0 b8 36 09 bd 78 d7 32 3e ae bc b4 bd fa 5d 89 3e
       -0.03349945 0.17465007 -0.0882505 0.2682951
0003f0 da 1f 03 be f3 92 0c be e2 34 24 be 32 66 00 bf
       -0.12805119 -0.13727932 -0.16035798 -0.5015594

downsamples.0.down_conv.bias f4 [32]
000000 73 6f ec 3d d3 c3 93 bd b6 0d 8a bd 27 0c b9 bd
       0.11544695 -0.07215085 -0.067408964 -0.09035521
000010 7d bb 15 be 12 74 19 be c0 47 2d 3e 65 ff 15 3d
       -0.14622302 -0.14985684 0.16921902 0.036620516
000020 31 18 93 be 2f b0 8c be 1c 51 3a bd d3 9a f4 3c
       -0.28729394 -0.27478167 -0.04548751 0.029858982
000030 41 89 66 3e 17 6b d0 be 5a a5 ed bd 5e ee 8d bc
       0.22513296 -0.40706703 -0.11603804 -0.017325576
000040 e5 1a 29 be fe 3e d4 bc cb 5b 66 be 61 e2 23 3e
       -0.16514166 -0.025908943 -0.22495954 0.16004325
000050 1c 42 39 3d ef 31 07 be d5 a4 41 be e2 27 37 bd
       0.045229062 -0.13202642 -0.18910535 -0.04471577
000060 49 ae 88 3d b6 5a b5 be b1 0a 51 3c fe 02 4e be
       0.06673867 -0.3542077 0.012758897 -0.20118329
000070 c4 b1 65 be f8 60 74 be dc c8 64 be e8 fd 55 3d
       -0.22431093 -0.23865116 -0.22342247 0.052244097

downsamples.0.conv.conv1.weight f4 [32, 32, 1, 1]
000000 43 40 a2 bc 59 8a 1f 3f b7 3d bf 3d e4 d2 9a 3d
       -0.019806033 0.62320477 0.09337943 0.075597554
000010 a9 23 31 3e 03 85 88 be a5 f3 95 be b3 58 7f 3e
       0.1729876 -0.2666398 -0.2928745 0.2493618
000020 0f 8f 83 bd 8c db ed bd cc 75 12 be 9a 0c 51 3e
       -0.06423771 -0.11614141 -0.14302748 0.20414963
000030 e3 3b d5 be d8 c8 17 3e 38 0c d9 3d 06 48 82 be
       -0.41647252 0.1482271 0.10598034 -0.25445575
000040 93 be 6f be d2 0a d8 bd 99 f2 09 3e 4a 62 11 3f
       -0.23412542 -0.10548939 0.1347145 0.567906
000050 7b c3 04 bd 9a a7 da bb 93 ef 04 3e d0 41 b5 3e
       -0.032412987 -0.0066728117 0.12982015 0.35401773
000060 d1 88 d5 bd dc 68 9a bc 1d 6d 1d be df d1 2a be
       -0.10426486 -0.018848829 -0.15373655 -0.16681622
000070 5d 3b a2 be 06 d3 eb bd aa 7b 18 be 20 24 55 be
       -0.31685916 -0.11514859 -0.14890924 -0.20814562
000080 40 2b 88 bc 4d cc 8f be 78 fb 7a be f6 7b c2 3e
       -0.016622186 -0.28085557 -0.2450999 0.379852
000090 57 b7 1f bf 83 87 ae 3c dc 54 c8 3d 80 1e 58 3e
       -0.6238913 0.021304851 0.09781811 0.21105385
0000a0 fa a9 3d be 3b c4 c5 3e cd 8d a9 3e 04 57 bb 3e
       -0.18521872 0.38626274 0.33115998 0.36589825
0000b0 42 28 d5 3e c6 6a 29 3e ca 9f f3 3d d0 dd 62 3e
       0.41632277 0.16544637 0.11895712 0.22154927
0000c0 0e cf bf 3d ef a9 db 3d 0b d9 9e 3c a8 18 8c 3d
       0.093656644 0.10725772 0.019390604 0.0684064
0000d0 b6 ab 98 3e e6 3b 73 bd 0a e9 26 3e 77 4b 10 be
       0.29818505 -0.059383295 0.16299835 -0.14091288
0000e0 0b ec 05 bf a1 aa c2 be c0 37 9d 3c 14 87 ad bc
       -0.523133 -0.38020805 0.019191623 -0.021182574
0000f0 aa 5a ac bd 89 32 bd bd df f6 9c bd b3 ad 99 bc
       -0.0841573 -0.092381544 -0.076642744 -0.018759584
000100 f4 5c 94 bd ec a5 98 3f 89 98 b4 3c 6b d1 1e bd
       -0.07244292 1.1925635 0.02204539 -0.038773935
000110 78 04 e2 3d a2 25 37 bd 0b e3 08 3e 1b c1 20 3e
       0.110360086 -0.044713624 0.1336786 0.15698664
000120 2f ee 3d 3c 9f 04 96 bd f2 70 37 3c 6b 1f dd 3e
       0.011592432 -0.073251 0.011196362 0.43188033
000130 f7 8b 82 3d 93 15 e6 bd fd e0 93 be b9 f5 83 bd
       0.063743524 -0.11234584 -0.2888259 -0.06443352
000140 29 3c 8a be 92 b7 81 be 96 11 2c 3e 9a 57 2d 3d
       -0.26999024 -0.25335366 0.16803584 0.04231987
000150 ae 49 68 3e 25 d8 d9 3d 4c 2f 2e 3c fd 7d b4 3c
       0.22684357 0.106369294 0.010631394 0.022032732
000160 59 a4 24 be 64 60 2a 3c 4c cb 4c be bd b6 13 be
       -0.16078319 0.010398958 -0.19999427 -0.14425178
000170 a9 70 53 be ee 55 c5 be 05 0d 4a be 3d c2 18 be
       -0.20648445 -0.38542122 -0.19731529 -0.14917846
000180 db fd c6 3d c9 14 95 bd 95 be e0 be 82 f8 1b bb
       0.09716388 -0.07279355 -0.43895403 -0.0023799245
000190 ac fc a7 be 3f c6 9d bd 8e 19 89 be 8d 83 19 3e
       -0.3280996 -0.07703828 -0.2677731 0.14991589
0001a0 55 1a 83 be 81 26 f4 bd dc e1 79 3e 61 6c 28 be
       -0.25606027 -0.119214065 0.24402565 -0.16447593
0001b0 e7 7e f4 3c af 10 ba 3d 01 d4 76 be f7 46 ad bd
       0.029845668 0.090852134 -0.2410431 -0.08460801
0001c0 24 df fc bd b6 f4 1b be b8 77 1b be a9 2b 4f be
       -0.12347248 -0.15230069 -0.15182388 -0.20231499
0001d0 4c cd ab 3e 05 75 a9 bd 83 e2 15 bd 27 c9 f6 3e
       0.33555067 -0.08274273 -0.03659297 0.48200342
0001e0 5f c5 c8 3e 67 5e a8 3e 05 49 00 3d a2 8c 8f 3d
       0.39213082 0.32884523 0.031319637 0.070092455
0001f0 7e 87 84 3d 73 e9 da 3e 0c 95 a9 3e c1 4f 77 3d
       0.064711556 0.42756233 0.33121526 0.060378794
000200 b0 c9 3a 3e bd 96 a9 3d bf b1 c6 bd 2f c3 25 3e
       0.18241 0.08280704 -0.09701871 0.16187738
000210 b2 44 ad 3e aa d9 47 3e ef 69 97 3e cd a6 92 3e
       0.33841473 0.19516626 0.29573008 0.28642884
000220 b8 48 b3 3e 44 1a 40 be 50 cd 48 3d 5c ae 54 3d
       0.35016418 -0.1876002 0.049023926 0.051924095
000230 45 38 bc 3e 45 8a 03 3c 72 d0 90 3e 6a 01 dc 3d
       0.3676168 0.0080285715 0.2828403 0.10742457
000240 8e 74 0f bd 5b ac 0b 3d d4 dd d5 be 7f e0 02 bd
       -0.035023265 0.034099918 -0.41770804 -0.031952377
000250 80 be 19 3e 35 67 5d be db 72 bd bd 49 8e 76 3e
       0.15014076 -0.21621402 -0.092504226 0.24077715
000260 e3 56 86 3e cf 8a 39 3e 76 80 37 bf 5d 65 b1 3d
       0.26238164 0.18119358 -0.7168039 0.08661912
000270 c2 19 e4 be 44 94 8b be 5d ab 0c bd 0d d6 1b be
       -0.44550902 -0.27261555 -0.034343112 -0.15218373
000280 22 c9 b8 3d b3 00 48 be e1 40 4f be 79 c7 f1 bc
       0.09022738 -0.19531517 -0.20239593 -0.029514061
000290 96 dc 54 3d 7a 33 7a be 08 5a 29 be e3 d6 28 3e
       0.05196818 -0.24433699 -0.1653825 0.16488223
0002a0 29 1d eb be c5 e0 58 3e 7b b5 e4 be 8b fd 96 3e
       -0.45920685 0.21179493 -0.4466971 0.29490313
0002b0 51 1b 7b be b3 67 63 3d 0a 03 82 3e 12 11 9a bd
       -0.24522139 0.055518817 0.25392944 -0.07522787
0002c0 2e b9 8e 3d b2 a2 fb 3e 01 e9 e5 3e f2 b3 4b 3b
       0.06968914 0.49147564 0.4490433 0.0031082598
0002d0 02 ec ae 3e 45 a5 d9 bd c0 4d 90 bc 3d ad 70 bd
       0.34164435 -0.10627226 -0.0176152 -0.058758963
0002e0 ee 95 8b bd d0 14 d5 be 28 46 9c 3d cf 71 91 3d
       -0.06815706 -0.4161744 0.07630569 0.071017854
0002f0 9c aa 48 be 9e c1 e8 be 4d 9f 20 be 31 1e 18 3e
       -0.19596332 -0.45460218 -0.15685768 0.14855267
000300 68 cb 98 3d 95 08 8f 3e a3 12 a7 be fc 10 80 3d
       0.07460672 0.27936235 -0.32631406 0.062532395
000310 b4 36 7e 3e 46 7b 1d 3f 71 62 33 3f ae 37 e2 3d
       0.24825555 0.61516225 0.70072085 0.11045776
000320 e3 aa 07 3e 58 48 1b be d6 af a0 3e f9 4c 9a 3e
       0.13248782 -0.15164316 0.31384152 0.3013685
000330 fa 5c 04 3e c6 96 37 be 62 db 3c 3e 42 ce 44 3e
       0.12926093 -0.17928609 0.18443063 0.19219306
000340 3b 44 8a bd 79 79 ab bc 34 f1 30 be 3c 5e 64 be
       -0.06751295 -0.020931946 -0.17279512 -0.22301573
000350 0c 2a 85 3e 1a d3 c7 3d 1d 35 89 be 6d 9a 1f 3c
       0.26008642 0.09757061 -0.26798335 0.009741408
000360 f3 ec c0 bd f0 f2 80 bd 9f 1a bd 3d 25 66 85 bc
       -0.094201945 -0.06296337 0.09233593 -0.016284058
000370 96 d5 1c 3d 9a f0 09 bf 46 3e e5 bd a3 c1 f3 3d
       0.03828963 -0.53882754 -0.11193518 0.11902168
000380 a7 88 28 be 56 0b 8e be a9 12 55 bd a3 57 0e bf
       -0.16458379 -0.27743024 -0.05201975 -0.55602473
000390 2e f2 15 be 26 c8 7a 3e af 02 43 be 48 0f 42 bd
       -0.14643165 0.24490413 -0.19043992 -0.047377855
0003a0 f2 8d f5 3e a4 b4 75 3e 2f 1f f6 3e 3a 9f 37 3e
       0.47959858 0.2399469 0.48070666 0.17931834
0003b0 b8 6d 91 3e d7 83 12 be ee 61 a3 be 09 09 90 3c
       0.2840402 -0.14308105 -0.31910652 0.017582433
0003c0 ba d1 cd bd 3b a7 ae 3e 8b 58 0e 3d 25 d2 95 3e
       -0.10049768 0.34111962 0.03475241 0.2926189
0003d0 cc c4 88 3c b5 5d 13 3f 5c 50 db 3e 87 01 88 3d
       0.016695403 0.5756486 0.42834747 0.06640916
0003e0 f8 23 ca 3e dd 3a 1b 3d c3 d4 9e be 12 9a c0 bb
       0.39480567 0.037897933 -0.310217 -0.0058777416
0003f0 35 79 7d 3d af 3c 95 bc d2 0d 3a bd 82 3b 8a 3e
       0.06188317 -0.018217413 -0.045423336 0.26998526

downsamples.0.conv.conv1.bias f4 [32]
000000 55 50 66 3b 6b 87 af bd a7 ee db bc d7 4e 5c 3d
       0.0035143096 -0.08570751 -0.026847197 0.053786125
000010 43 c3 04 be 1c 84 77 bd 21 bb 3f 3e 5d 51 ee bd
       -0.12965111 -0.060428724 0.18723728 -0.116366126
000020 ad b4 fb bd 41 ff 38 be 25 5c a3 3d 8a dc 26 3e
       -0.122903205 -0.18066122 0.079765595 0.16295066
000030 79 ae 11 3e 60 08 18 be 82 01 0c 3e 80 f3 ad 3d
       0.14226712 -0.14846945 0.1367245 0.084937096
000040 79 bd 01 3e 6c 32 f0 3d 63 8c fd 3c 39 05 0d 3d
       0.12669934 0.11728367 0.03095073 0.03442881
000050 83 b2 f4 3d 32 98 31 3d fa 33 2b be 35 0c c2 3c
       0.11948111 0.043358035 -0.16719046 0.023687461
000060 bd f0 28 3e ce 6c 1b 3e 86 e1 00 3e a6 52 5b bc
       0.16498084 0.15178224 0.1258603 -0.013386404
000070 52 a6 15 3c 41 1e 21 be 78 e9 00 3e 9a 9f 7a 3d
       0.009133892 -0.15734197 0.12589061 0.061187364
