Model/v1.0-alldata-ufish_c32.pth (torch, 685931 bytes, 80 tensors)

encoders.0.conv.conv1.weight f4 [32, 1, 3, 3]
000000 c7 92 d0 3d 16 52 90 be 89 4b ff bd d3 a6 13 3e
       0.101842456 -0.28187627 -0.12465579 0.14419107
000010 f1 24 70 be 94 86 19 be fe 34 0f 3e 8b 17 6c 3e
       -0.23451592 -0.14992744 0.13985059 0.23055856
000020 75 e9 20 be 94 d5 79 bd ad a1 fd bd 42 f2 60 be
       -0.15714057 -0.0609947 -0.12384353 -0.21967414
000030 bd 85 97 3d 31 cc 30 3e cf 7b 1e 3e 38 05 d8 3d
       0.073985554 0.17265393 0.15476917 0.105478704
000040 b4 d3 a4 be 11 7a 28 be 31 05 c5 3d 9a c5 9a 3e
       -0.32192767 -0.16452815 0.09620131 0.30228883
000050 09 ab e1 bd db 5f 3b bd d2 09 d2 3c 3c 8a 67 3d
       -0.110189505 -0.04574571 0.025639448 0.056528315
000060 d0 d7 e0 3d b4 88 5b be 8e 7d 35 be 84 6b 48 be
       0.10978663 -0.21438867 -0.17723677 -0.19572264
000070 db 7a a9 3e d0 83 4a 3d ce ed 90 be e3 69 ce 3d
       0.33101544 0.049442112 -0.2830643 0.1007879
000080 af 6a 8b be 71 fa 8a be c9 eb b6 be 54 35 6e be
       -0.2722983 -0.27144197 -0.35726765 -0.2326253
000090 e3 95 81 be 8f e7 56 be 49 f4 65 3e b4 bc 41 be
       -0.25309667 -0.2098677 0.22456469 -0.18919641
0000a0 aa e3 96 3e 0b 2f 12 3d ed 91 3b be 43 ac 58 3e
       0.2947057 0.035689395 -0.18317385 0.21159463
0000b0 ee 3d e2 3d 2f a0 32 3d bc 27 aa be 24 8a 69 3d
       0.110469684 0.043609794 -0.3323344 0.057016507
0000c0 99 49 22 3d 07 a8 37 3e 9f 8a 93 3d 83 f7 af 3d
       0.03962097 0.17935191 0.07204174 0.08592131
0000d0 b1 8c 0f bf 16 69 b0 3d 60 af a2 3d c1 3d 56 3d
       -0.56074053 0.086137936 0.079436064 0.052304987
0000e0 a0 ba b9 3e 17 8c 7e 3d 31 83 91 be 3c 7e 50 be
       0.36275196 0.06214532 -0.28420404 -0.20360655
0000f0 0a e5 88 bd ac f0 3f be 80 73 eb bd 1c df 7a 3d
       -0.06684311 -0.18744153 -0.11496639 0.06124793
000100 b3 a7 67 3c 81 ee 8d be af c5 70 bd 23 0b d2 ba
       0.014139104 -0.27721027 -0.058782276 -0.0016025048
000110 43 8d b5 3d da de 95 be 6a 47 1c be e4 b6 27 3e
       0.08864834 -0.29271585 -0.15261617 0.16378361
000120 b9 07 91 be f8 5f 40 3e 4f d3 2e 3e 88 7c 00 3d
       -0.28326204 0.18786609 0.17072795 0.031368762
000130 1a 73 a7 bd 16 b6 b3 3d 9e 6f 90 be 4e b0 df bd
       -0.08176251 0.087749645 -0.28210157 -0.10922299
000140 64 6b 45 be 9b a4 1d be 0c 26 a2 bd 2c 27 4b 3b
       -0.19279248 -0.15394823 -0.07917413 0.003099869
000150 e7 0a 70 3e 78 96 25 bd c8 ed 89 bd 81 d9 31 3e
       0.23441659 -0.0404267 -0.06734806 0.17368127
000160 15 f8 d4 bd 3b 38 01 be 09 1f 84 be 21 09 c7 3e
       -0.103988804 -0.12619106 -0.25804928 0.38874152
000170 a8 b6 5f be ac 00 b3 bd 70 69 49 bd b8 59 2a bb
       -0.21847022 -0.087403625 -0.04917282 -0.0025993418
000180 3a e3 2d bd 64 73 3c 3d 31 e8 7b bc 99 19 a2 bd
       -0.04245303 0.046008483 -0.015375183 -0.079150386
000190 88 07 06 be 66 ee 18 be c1 41 da 3d 1b ba a2 3d
       -0.1308881 -0.14934692 0.10657073 0.07945653
0001a0 60 be b7 bd 99 dd 12 3e 9b bc 3f be 37 f8 37 3e
       -0.08971858 0.14342345 -0.18724291 0.1796578
0001b0 d6 0e c7 bd b3 37 24 be dd 1e 05 be 7f 54 c1 bc
       -0.097196266 -0.16036873 -0.13000055 -0.023599861
0001c0 2e fb 07 3f c0 07 6c bc bb 76 07 be 95 77 74 bd
       0.53117645 -0.014406145 -0.13228886 -0.059684355
0001d0 5b 5b da bd 9f 87 a3 bd 60 32 3a 3d b6 b2 b1 3e
       -0.10661956 -0.07984852 0.045458198 0.34706658
0001e0 a0 55 96 bd 8d e5 56 3e 11 cf ea 3d b2 94 3e be
       -0.073405504 0.20986004 0.11465276 -0.1861141
0001f0 b2 36 a7 be 84 0f 19 bd 83 57 0b 3e 5b 68 cf bc
       -0.32658917 -0.037368312 0.13607602 -0.025318315
000200 b0 a8 26 3d c8 58 53 be 0a 20 41 be c4 49 b9 3c
       0.040688217 -0.20639336 -0.18859878 0.022618182
000210 6e a3 8e be 61 31 43 3e 06 5e 5b bd 3c 28 29 be
       -0.27859062 0.19061805 -0.053556465 -0.16519254
000220 72 55 6a 3e 9a ff a1 be e4 70 76 3e 57 90 80 bd
       0.22884157 -0.3164032 0.24066502 -0.06277531
000230 ef 0e b1 be 49 74 21 be a6 53 94 bb f0 7c b3 3d
       -0.34581706 -0.15767016 -0.0045265732 0.08764064
000240 be fb ce 3d 07 3e 56 3e 9a a5 3f be 5d a7 61 3d
       0.1010661 0.20922099 -0.18715516 0.05509125
000250 17 00 38 3e b5 5f a7 be 25 53 92 3d 6e 33 02 be
       0.17968784 -0.32690206 0.07144765 -0.12714931
000260 58 7d 14 bd d8 44 cc bd 3e 65 be 3d 60 5b 85 be
       -0.03625235 -0.099740684 0.09296654 -0.26046276
000270 b1 29 65 be ab 1f a9 3e 91 36 b9 3d e9 90 c8 3d
       -0.22379185 0.33031973 0.09043611 0.097932644
000280 88 f7 8a be 11 4d 8f 3b 4e 48 f1 3d 4d 14 04 be
       -0.27141976 0.0043732007 0.11781369 -0.12898369
000290 96 8b ae be e9 20 5e 3c e5 5c 20 bd 1a da c4 3c
       -0.3409087 0.013557651 -0.03915109 0.02402978
0002a0 44 29 97 3e 8a bf f5 3d df a8 e4 bc 15 2a e3 be
       0.2952367 0.11999424 -0.027912555 -0.44368044
0002b0 96 31 10 bf 6a d8 8f be 4a 56 91 bd 7b 1f a4 3e
       -0.5632566 -0.28094798 -0.070965365 0.32055268
0002c0 cf 1b 82 be 71 c3 9d bc 65 8b 9e be 97 7c a4 3e
       -0.2541184 -0.019258233 -0.30965725 0.32126305
0002d0 fd e6 98 3e 51 fa cc bd f3 49 1d 3e 5a a5 47 3e
       0.2986373 -0.100086816 0.1536024 0.1949667
0002e0 93 39 8b bd ce ed 8a be e6 1e 23 be aa a4 be bd
       -0.06798091 -0.27134556 -0.15929756 -0.09308751
0002f0 89 6f 1a be fc b4 25 be d8 4b 08 3e 06 7f e5 3d
       -0.1508161 -0.16182321 0.13310182 0.112058684
000300 ce ec 8f bd d8 dc 95 be d4 1f 6b 3e ee 1f 4a ba
       -0.07027589 -0.29270053 0.2296136 -0.00077104464
000310 e0 0b 99 bd 27 5e c3 3d be af ae bd c8 7d 5a be
       -0.07472968 0.095394425 -0.08529614 -0.21337044
000320 41 9b 81 bc cb d8 80 be d8 ee b4 3d 39 cc b7 3d
       -0.015821101 -0.251654 0.08834618 0.08974499
000330 2d ab 80 3e cb 03 90 3b 17 30 d4 3d 7e 69 ad be
       0.25130597 0.0043949834 0.10360735 -0.33869547
000340 19 a9 25 3d 4d 85 84 3d 03 cb f1 3d d7 99 fd 3d
       0.040444467 0.064707376 0.118062995 0.12382858
000350 58 a7 ba bd ba ed 75 3d 5f 9e f2 bc 58 eb 0d be
       -0.091139495 0.060041167 -0.029616533 -0.13859308
000360 ea 78 b1 3d 34 01 10 be 6b 2b 12 3e c8 4a 83 be
       0.08665641 -0.14062959 0.14274375 -0.2564299
000370 eb fc 91 3e de 6e 90 be 8d 1d 6b 3d 73 ca 96 bd
       0.28513274 -0.28209585 0.05740123 -0.07362833
000380 e5 b1 23 3d 71 ee 63 be ca 9f 12 3d 69 21 89 3e
       0.039964575 -0.22258927 0.035796918 0.26783302
000390 60 09 6e be 90 15 19 be 14 2a d5 bc 65 4f ed 3c
       -0.23245764 -0.14949632 -0.026021041 0.028968522
0003a0 19 42 2b 3e ff 83 35 bd 8d ea ef bd e1 76 d1 bd
       0.16724433 -0.044315334 -0.11714659 -0.102277525
0003b0 b4 c6 37 be 7b 00 fc 3d 66 29 ef 3c 22 24 30 be
       -0.17946893 0.12304779 0.029194545 -0.17201284
0003c0 f7 91 1d be f3 d2 67 3e 7b 89 a2 3e 0a c9 df be
       -0.15387712 0.22639064 0.31745514 -0.43708068
0003d0 b5 73 0b bf bd f5 0a 3d 1c 5f f4 be 03 e8 c6 be
       -0.5447343 0.03392576 -0.47728813 -0.38848886
0003e0 ee 0e 4e bc 0e 7b 4d 3e 81 75 39 3c 78 0b 18 3e
       -0.012576802 0.20066473 0.011319519 0.14848125
0003f0 a5 53 59 bd 3b 2b 48 3d db 55 8e bd 6c cd f4 bd
       -0.053058285 0.048869353 -0.069499694 -0.119532436

encoders.0.conv.conv1.bias f4 [32]
000000 32 77 f6 be 5a f3 1f be 87 63 9a be 6f 06 64 bf
       -0.48137814 -0.15620175 -0.30154058 -0.89072317
000010 82 b2 85 be ed 4a 1d be 3b ea 0e bf 9a 8c d8 3d
       -0.26112753 -0.15360613 -0.5582616 0.105736926
000020 15 d1 e0 3e dc b8 02 be 6e 18 a9 3e a4 70 d5 bd
       0.43909517 -0.12765831 0.3302645 -0.10421875
000030 aa 4c 47 3e 1e cb 47 be 90 aa c8 bd e6 ff fa 3d
       0.19462839 -0.19511077 -0.09798157 0.1225584
000040 80 e2 b6 3d 8a c6 8c 3e fa 9b c9 be e5 bf 4a bf
       0.0892992 0.27495223 -0.39376813 -0.7919906
000050 88 a8 db bd b2 38 35 be c7 1e 4a be b9 f5 b0 bd
       -0.10725504 -0.17697409 -0.19738303 -0.08640618
000060 d9 b6 cf bd 0f 56 ee bd 82 67 ab 3e 0d 3f 42 3e
       -0.10142297 -0.11637508 0.33477408 0.18969364
000070 82 4b 18 3d 02 f2 30 bf 10 e6 e4 3d 69 bd 76 be
       0.037181385 -0.69119275 0.111766934 -0.24095692

encoders.0.conv.conv2.weight f4 [32, 32, 3, 3]
000000 1c 70 39 3e 53 72 ef 3d 6d 32 42 bd 7a 48 1f be
       0.18109173 0.116917275 -0.04741137 -0.15554991
000010 51 c7 42 be 21 73 41 bf 04 3b 1f 3e f4 67 fc bd
       -0.19021346 -0.755663 0.15549856 -0.12324515
000020 22 23 aa 3c 4f fe d3 3d 75 5c 66 be 61 c8 fa 3d
       0.020768706 0.1035124 -0.22496207 0.122452505
000030 90 26 d7 be 1a bd c6 bc 6b 76 41 3e b6 dc 14 be
       -0.42021608 -0.024260093 0.18892829 -0.1453732
000040 a1 45 0d 3d c7 c4 42 bd a6 43 67 bc 44 11 a9 bd
       0.03449023 -0.047550943 -0.01411525 -0.08255246
000050 9b 84 87 bd 59 30 e4 bb 05 db 95 3c e4 83 c6 3d
       -0.06617089 -0.0069637713 0.018292913 0.09693125
000060 fc 0b a2 bc 76 66 27 3d 13 5f 12 3e 8d 9d fd 3d
       -0.019781105 0.0408692 0.1429408 0.12383566
000070 1f 7c 1f 3e e9 81 59 3e 0f e6 b5 be 03 60 00 3e
       0.15574692 0.21240963 -0.35527083 0.12536626
000080 6b 80 8c 3e 92 ff b5 be 25 27 6c be 58 3b 46 be
       0.27441725 -0.35546547 -0.23061807 -0.19358575
000090 3e b5 54 3e 61 38 83 bd 54 51 8c 3c 84 bc 7a 3d
       0.20772263 -0.06407238 0.017128624 0.06121494
0000a0 16 3b 8d bc 64 aa 11 bd 88 74 75 bd 3e 30 32 bd
       -0.017240088 -0.035562888 -0.059925586 -0.04350304
0000b0 00 82 87 bd 46 60 2c 3e 42 13 2b 3d 3d f7 3d bd
       -0.066165924 0.168336 0.041766413 -0.046378363
0000c0 5e c8 3f be 67 ce 15 3e cc 3a 2c 3e 10 b9 b3 3d
       -0.18728778 0.14629517 0.16819304 0.08775532
0000d0 5a 75 c7 bc 48 52 03 3d ef ab 8e 3d fb fa 58 bd
       -0.02434795 0.03206089 0.069663875 -0.05297373
0000e0 bf 53 fd bd b0 6e 7c 3d 3e 51 49 be bb 31 c5 bd
       -0.12369489 0.061628997 -0.19659898 -0.09628626
0000f0 81 b3 fe bd ff b4 0a 3d 59 50 84 be a3 63 19 be
       -0.124365814 0.033864018 -0.2584255 -0.14979415
000100 e5 c8 cb be 7e 4c f7 3c 50 f8 81 be 98 8c 12 bf
       -0.39801708 0.030187842 -0.2538476 -0.5724578
000110 1c 6a f1 3d 33 24 0b be 44 cc 66 3d 0e e2 38 3e
       0.11787817 -0.13588028 0.056347147 0.18054983
000120 0d 75 ff bd ed 28 fa bb cd a0 56 3b 61 86 f7 3b
       -0.124734975 -0.0076342733 0.0032749653 0.007553861
000130 d3 a4 90 3d 53 cc 35 3e c4 96 3d be e2 18 51 be
       0.07062688 0.17753725 -0.18514544 -0.20419648
000140 aa a8 86 be ea 10 0c bf 41 10 bb be d1 06 b5 bc
       -0.26300555 -0.5471331 -0.36535838 -0.022097977
000150 de cb 70 bc 05 36 8d bd bd de e1 bb bc c6 e5 3d
       -0.014697043 -0.06895069 -0.0068930076 0.11219546
000160 9c b0 b9 be 97 1b 95 be ee e0 d7 be 86 1f 0c bf
       -0.36267555 -0.29122612 -0.42163795 -0.547356
000170 4e 4b 4d 3e 7b 8c 51 bf da ce 19 bd 83 dc 99 3e
       0.20048258 -0.8185498 -0.037550785 0.3005105
000180 c2 bc 22 be d9 2e 78 3e 3e 44 03 bf 43 39 87 be
       -0.15892318 0.24236621 -0.51276004 -0.26410875
000190 28 e4 17 bf 2b 5e b2 3c 9d d8 72 3d ff e1 9b 3d
       -0.59332514 0.021773418 0.05928861 0.07611465
0001a0 3c c8 4f be 22 df b7 bd 40 f3 05 3e 75 14 02 be
       -0.20291227 -0.08978106 0.13081074 -0.12703116
0001b0 3b 07 a4 be dc 8a 17 3e 64 c2 85 be ca 06 fe be
       -0.32036766 0.14799064 -0.2612487 -0.49614555
0001c0 b3 bb 9e 3c 09 62 a8 bc da 0c 0d bf a1 ea 73 bf
       0.019376611 -0.02055456 -0.55097735 -0.9527989
0001d0 76 cf 21 be 2d ec b5 3c b2 12 cf bd c8 ff 0b bd
       -0.15801796 0.022207344 -0.10110988 -0.03417948
0001e0 0a 04 0b 3e d6 ed ce 3c 08 18 b0 bd e3 af c5 3d
       0.1357576 0.025259893 -0.085983336 0.09652688
0001f0 63 ee 26 3e e3 e9 95 3c 37 7f 42 be 78 30 97 bd
       0.16301875 0.018300002 -0.18993841 -0.073822916
000200 82 2a 8a be 66 5d 69 bc 2a 3f ad be b9 ca bb 3d
       -0.26985556 -0.014243459 -0.33837253 0.09169526
000210 84 59 6d bd 59 75 d7 bc 2e d7 8b 3c 79 bc 14 be
       -0.057946697 -0.026301073 0.01707038 -0.14525022
000220 0c 10 10 3f a8 93 52 3e 6e 5d 32 3c dd 42 cd 3d
       0.56274486 0.20564139 0.010886533 0.10022519
000230 b4 11 9f be b1 38 8b 3e 83 70 b5 be 5b a1 00 bf
       -0.31068194 0.2719169 -0.35437402 -0.5024621
000240 39 39 85 3d 29 f8 04 be 22 f4 26 be 4b 6c 17 3e
       0.06505055 -0.1298529 -0.16304067 0.14787404
000250 6d 24 83 3d 01 ae eb 3a bf c7 49 be 12 18 97 bd
       0.06403432 0.0017980934 -0.19705103 -0.07377638
000260 12 44 1d b9 57 cb 2b be df f2 ec 3c 0d bd 30 3e
       -0.00014998045 -0.16776787 0.028924404 0.17259617
000270 f9 09 34 bf b1 4a 33 be d1 7f fd bd 4d 8d a3 be
       -0.7032772 -0.17508961 -0.12377895 -0.3194374
000280 04 23 b7 bd 94 c8 0e bd e1 4a 0f be c6 1f 3b be
       -0.089422256 -0.034859255 -0.13993408 -0.1827384
000290 99 b3 5c bd 6f 65 03 3e a4 c6 09 3d 8d d7 be bd
       -0.053882215 0.12831663 0.033636704 -0.09318457
0002a0 b6 4a 7b 3b 46 31 81 3d 07 39 20 be 40 2f 2f be
       0.0038344092 0.06308226 -0.15646754 -0.17107868
0002b0 b8 c3 ac 3c 2a 04 18 be 4f 61 6c be 9c e3 45 be
       0.02108942 -0.14845338 -0.23083995 -0.19325107
0002c0 b3 05 04 bf 9f 52 ac 3e 9e 0b b9 3e 50 f2 61 3d
       -0.51571196 0.33656785 0.36141676 0.055162728
0002d0 c0 c5 84 bd b6 20 09 be fe e2 43 bd 36 9c f4 be
       -0.0648303 -0.13391384 -0.0478239 -0.4777543
0002e0 b0 32 10 3d 3e be 5f bb 36 5d 09 be ed b7 4d be
       0.03520459 -0.0034140493 -0.13414463 -0.20089693
0002f0 6f 65 f7 bd 7d 5c 55 bd da 99 4e bd 11 24 2c 3e
       -0.12079894 -0.052090157 -0.050439693 0.16810633
000300 46 d3 13 bd ad 39 2b bd f0 78 19 3e 8f b5 57 bb
       -0.036090158 -0.04180305 0.1498754 -0.0032914614
000310 3f 04 8e bd 21 da e8 bd 85 32 c2 bc e0 78 c9 bd
       -0.06934404 -0.1136973 -0.02370573 -0.09837508
000320 87 24 29 bc 69 2a 02 be 60 0b c0 3c 6b 92 86 3d
       -0.01032365 -0.1271149 0.023442924 0.06570896
000330 7b 81 39 be aa ef 0d 3e 22 17 03 3c 18 f4 0b bd
       -0.18115799 0.13860956 0.008001121 -0.034168333
000340 bc 8b ef bd e7 fd 2a bc 70 b1 e5 3d 8c 7b 15 bf
       -0.11696574 -0.010436512 0.11215484 -0.5839164
000350 9b c9 80 be 20 3f 33 3e 9c 7c 78 be d8 f1 d6 bd
       -0.25153813 0.17504549 -0.24266285 -0.10495347
000360 c1 c9 58 be 0d e2 d3 bd 51 48 21 be ce 35 11 3e
       -0.21170713 -0.1034585 -0.15750243 0.14180681
000370 6e 65 6e be 0b e1 97 bd d0 18 7b 3e 64 c4 9a 3e
       -0.2328088 -0.074159704 0.24521184 0.3022796
000380 22 d8 2b 3e a1 64 c8 be e1 34 83 bd 93 d5 57 be
       0.16781667 -0.39139274 -0.0640657 -0.21077566
000390 89 42 3a bd 41 25 1d be 1f 0f 9b bc e8 12 a6 bd
       -0.04547361 -0.15346242 -0.018928109 -0.08109075
0003a0 c5 90 a3 be f6 84 82 bd 5f 6e 83 3c ca 9e 05 3d
       -0.31946388 -0.063730165 0.01604384 0.032622136
0003b0 c2 a2 ac bd 99 01 a9 be 9b 55 c0 3c 6b fa 53 bc
       -0.08429481 -0.3300903 0.02347832 -0.012938122
0003c0 a0 9a 7b be 04 26 c2 3b ab 3a 1d bd db f1 dd be
       -0.24570704 0.005924942 -0.03838603 -0.43348584
0003d0 46 13 47 be 91 4d 3b bd 77 72 a7 bd ed 6a 6b be
       -0.19440946 -0.04572827 -0.08176129 -0.22990008
0003e0 54 f2 40 bd 16 4d d6 bd 93 18 48 3d 19 65 89 be
       -0.047106102 -0.10463922 0.04885156 -0.26834944
0003f0 7d f7 9d 3d e6 df 00 bd 31 d0 00 be bd 05 97 3d
       0.0771322 -0.031463526 -0.12579419 0.07374141

encoders.0.conv.conv2.bias f4 [32]
000000 fb 22 23 3e 57 72 d5 be bd 4b d3 3d 8a 96 74 be
       0.15931313 -0.41688797 0.1031718 -0.23885551
000010 fa 6a fc 3e 35 c7 09 be 8d e9 9c 3d 3a 38 9b bc
       0.49300367 -0.13454898 0.07661734 -0.01894771
000020 82 d1 5f be ff e9 8b bd 5e d0 02 3f 9f 14 a0 be
       -0.21857265 -0.068317406 0.51099193 -0.31265733
000030 cd de c6 be 21 07 e6 bd 57 a2 0b bc b9 79 06 be
       -0.38841859 -0.112318285 -0.008522592 -0.13132371
000040 41 c2 93 be e2 bc 3e be 3c 8a e7 bd ab 11 a0 be
       -0.2885914 -0.1862674 -0.11305663 -0.3126348
000050 a6 81 9d 3b 68 ca 13 3e 22 29 67 bf c6 f2 4d 3e
       0.004806715 0.1443268 -0.9029714 0.20112142
000060 e1 2c a3 3e 60 a5 ce 3c a6 92 51 be 7e 6a 5c be
       0.31870177 0.025225341 -0.20466098 -0.21524999
000070 51 54 12 be 4d eb 8a bc 56 a4 e1 3d 85 33 14 bf
       -0.14289977 -0.016957903 0.11017673 -0.5789111

encoders.1.conv.conv1.weight f4 [32, 32, 3, 3]
000000 2a 45 18 3c 6f 18 07 3e c0 5b 62 3d 30 e0 58 3d
       0.009293834 0.13192914 0.05526328 0.052948177
000010 9f 04 dc bd c0 c5 18 be ea 45 b7 3d 2d 5c e1 3c
       -0.10743069 -0.14919186 0.08948882 0.027509773
000020 c4 3c 69 3d 86 a4 82 3d e0 ca ab 3d 28 ae e5 bc
       0.056942716 0.063790366 0.08388305 -0.028037146
000030 72 12 2f 3e 40 e7 0c be f6 c7 5c 3d 65 8f 55 3e
       0.1709688 -0.1376009 0.053901635 0.20855482
000040 21 16 3f 3e 60 cf 95 bd 3d 6f ee 3b 28 f9 a0 3c
       0.18660785 -0.07314944 0.007276444 0.019650057
000050 ca 4e 67 be 5d 7d 89 3d ff 66 2f 3d c1 2d ec bc
       -0.2258865 0.06713364 0.042822834 -0.02883041
000060 1a f9 0c 3d c9 21 28 bd a8 a6 f7 3c 89 f2 04 3d
       0.03441725 -0.041047845 0.030230835 0.032457862
000070 6f 21 8c bd 03 b0 51 3d de 5c 7f 3d 5f 76 bd 3d
       -0.068423145 0.05119325 0.062344424 0.09251093
000080 32 74 1e be 34 fa e6 bb 44 e8 a5 3c 23 68 59 bd
       -0.15474012 -0.0070488695 0.020252354 -0.05307783
000090 39 1d 20 bd af 72 06 bd 95 73 a6 3d b0 50 5c 3d
       -0.03909037 -0.032824215 0.08127514 0.053787887
0000a0 82 7b 1f 3d dc 95 4c 3c df 3f 11 3d 52 5d b4 3c
       0.038936146 0.012486901 0.035461303 0.022017155
0000b0 0c cd 24 be 91 5a 32 3e 98 63 3e bc 82 1d 56 3d
       -0.16093844 0.17417361 -0.011620425 0.052274235
0000c0 a4 7b 9b bd 10 f5 78 be fc 73 21 3e 58 ef fa bd
       -0.07591942 -0.24312234 0.15766901 -0.122526824
0000d0 1e 4a d0 bd 7d 0b ce bd 35 39 51 bd 93 d8 f7 3d
       -0.10170387 -0.10060785 -0.051079948 0.12101855
0000e0 5a 49 48 bd 39 30 24 bd 76 17 b0 bd e4 4b 0d 3e
       -0.04889808 -0.04008505 -0.08598225 0.13798481
0000f0 4b 92 3f be 5f 6d bf 3d f2 86 82 bc dc 4f 82 bd
       -0.1870815 0.09347033 -0.015933488 -0.06362888
000100 43 d0 da 3b 57 56 38 3d 6c 2c 41 3d d4 7f 99 bc
       0.0066776588 0.045004215 0.047161505 -0.018737711
000110 f4 75 96 3d 89 02 3a 3d c8 42 89 bc cb 9d 23 3e
       0.073467165 0.045412574 -0.016755477 0.15978162
000120 b9 54 f5 3b df 75 55 bd 75 26 40 be e0 37 a6 bd
       0.0074869064 -0.052114364 -0.1876467 -0.08116126
000130 3f 18 b6 3c 4d a3 fd bd 4f b0 5b bd 89 10 9a 3d
       0.022228358 -0.12384663 -0.053634938 0.07522685
000140 00 26 17 3d 32 e7 26 3d dc 98 00 3d c0 3b 0b 3e
       0.036901474 0.04074783 0.031395778 0.13597012
000150 ee f2 81 bd 8e 34 a6 bd b5 bb 83 bd dd 03 39 bd
       -0.06345163 -0.08115493 -0.06432287 -0.0451697
000160 25 f8 34 3e 84 58 02 3d d6 b2 0c 3d 38 e7 70 3d
       0.17672785 0.031822696 0.03435024 0.058814257
000170 ba 61 08 be f0 dc 14 3c ce eb 15 3e 42 7d 93 be
       -0.1331853 0.009085879 0.14640734 -0.28806502
000180 02 2e 76 3d d2 3e 0d be c2 d6 d0 be d7 73 33 be
       0.06010247 -0.13793495 -0.40788847 -0.17524658
000190 23 3f bd bc 44 8a 3a 3e f9 0a d8 bd 64 a3 68 bd
       -0.023101395 0.18216807 -0.10548968 -0.056796446
0001a0 ab f9 b3 3e b7 4a 78 bd f0 14 97 3d 87 2c 8c 3e
       0.3515142 -0.06061813 0.073770404 0.27377722
0001b0 37 ed 86 bd 57 2e 0c be f5 d3 5c bd ba 3a 4a bd
       -0.06588214 -0.13689552 -0.053913075 -0.049372412
0001c0 d3 ea 86 3b 01 56 21 bd 07 a9 41 be be 86 3a bd
       0.0041173487 -0.03938866 -0.18912135 -0.045538656
0001d0 d3 27 46 bd fd a9 b4 3b 92 fe 40 3c eb 8c 24 bd
       -0.048377823 0.0055134282 0.011779444 -0.040173452
0001e0 e3 35 02 bd ff 76 09 3d fe 92 e0 3c b3 00 96 3c
       -0.03178967 0.03356075 0.027413841 0.01831088
0001f0 86 24 c7 bd 02 6c 76 bc 80 9b 0f be f8 ca dd 3d
       -0.09723763 -0.0150403995 -0.14024162 0.10829729
000200 8e 1c 10 bd b2 a6 96 b9 66 c2 8f bd 90 0c 93 bd
       -0.035183482 -0.00028734427 -0.070195004 -0.071801305
000210 13 f8 e4 bc a9 05 f3 bc 1b e5 0b be 0f 33 46 3d
       -0.027950322 -0.029665785 -0.13661616 0.048388537
000220 bc f9 48 bd 22 37 14 bd 8f e7 8c 3d 08 bb 4f bd
       -0.04906629 -0.03618539 0.06880104 -0.050715476
000230 d4 af c6 bb 31 f0 8b bd 39 87 0c 3e 10 17 94 3e
       -0.006063441 -0.06832922 0.13723458 0.28923845
000240 53 73 75 3d c7 26 a4 3c 60 07 1a bd ba 7b 6c bd
       0.059924435 0.020038022 -0.03760469 -0.057735182
000250 dd 7f 0b 3d 0b d4 f3 bd ca f1 ff 3b be dd 5b be
       0.034057487 -0.11905678 0.007810806 -0.21471307
000260 f2 94 8c bd 67 ba d0 bc 98 45 a1 3c 14 df 3a 3d
       -0.068643466 -0.025479509 0.019686505 0.0456229
000270 da 7e 58 bd be f8 18 3e 29 95 52 bd 4d 3f 1a be
       -0.05285535 0.14938638 -0.05141178 -0.1506321
000280 fa 97 22 be 5b 50 aa bd f1 57 df bd 68 c3 a2 bd
       -0.15878287 -0.08316108 -0.10905445 -0.07947427
000290 a0 94 5d bd 57 50 d0 3c 76 6d 1a 3d 47 72 18 3e
       -0.054096818 0.025428934 0.037702046 0.14887343
0002a0 7a 4b 90 bd ed b1 fc bd ff 52 1e bd 1e 79 9f 3d
       -0.07045646 -0.12338624 -0.03865337 0.07786773
0002b0 3d bf a2 bb 84 51 52 bd 75 40 ed bb 2f a6 12 3d
       -0.004966645 -0.05134727 -0.00724035 0.035803016
0002c0 56 78 93 3d 89 5c f8 3d a9 7f 09 3e 7e 8f 4d 3d
       0.07200687 0.12127025 0.13427605 0.050185673
0002d0 0f 7a a3 3d 1f f5 2c 3d eb 6c 1b 3e 85 2b 2d bd
       0.07982265 0.042225953 0.15178268 -0.04227783
0002e0 c1 0d 37 bd 4a ab 89 3c d7 7a 4e 3d 22 70 de bd
       -0.04469085 0.01680531 0.050410118 -0.108612314
0002f0 6d 7e 7c 3d 52 76 75 3d 82 d3 98 3c 47 ef 7a 3d
       0.061644007 0.059927292 0.018655542 0.06126335
000300 bc c1 f0 3d b8 a8 89 bd cd a0 c0 bd 43 ff 14 bd
       0.11755702 -0.06721634 -0.0940567 -0.03637625
000310 64 92 b2 3c f3 bb 0e be c6 81 41 3c f1 e7 29 be
       0.02179832 -0.13938884 0.011810726 -0.16592385
000320 3a 6a 31 bd ab 49 08 3d 6e 50 5a 3d 51 d6 79 bd
       -0.043314196 0.03327338 0.05329936 -0.060995404
000330 aa 5b ec 3c 98 ac 99 bd 91 b0 2a be 0b d1 08 be
       0.028852303 -0.07503623 -0.16668917 -0.13360994
000340 97 45 29 be 4a 13 7d bd 43 c1 95 bc 1e 77 8e 3c
       -0.16530453 -0.061785974 -0.01828063 0.017390784
000350 b5 d2 be 3d 23 73 f6 3d 13 f5 28 3e b2 d4 59 3e
       0.09317533 0.12033679 0.16499738 0.21272543
000360 37 af 14 3e ab ae 14 be 1d a5 9e be ce 91 38 3e
       0.14519964 -0.14519756 -0.30985346 0.1802437
000370 61 8b 2e be c4 48 7b be 6a f5 bd bd 36 4f 2c be
       -0.17045356 -0.24539477 -0.09275325 -0.16827092
000380 5c b0 ce bd d9 a0 17 be fd cf 0d 3d 6f c1 be 3d
       -0.10092232 -0.14807452 0.03462218 0.09314238
000390 dd de 85 3d 87 7d ae bd 86 5a 0e bc 94 b2 9f bd
       0.065366484 -0.08520036 -0.008688575 -0.07797733
0003a0 72 8c 45 3d e3 c2 5c 3c 41 f2 80 3d ba 98 29 3d
       0.048229642 0.013474199 0.06296206 0.041405417
0003b0 4e 2b 9b 3c d6 39 20 3c 05 b0 47 3d e3 a8 0f bc
       0.018941548 0.009779414 0.04875185 -0.008768293
0003c0 b4 77 67 3d 88 a8 23 be 44 54 47 3a 9f 0b 68 3d
       0.056510642 -0.15982258 0.0007603804 0.056651708
0003d0 1b 1b df 3c 13 f4 ea 3c 5f 1f 51 3d 32 ca 0e be
       0.027234605 0.028680837 0.05105531 -0.13944319
0003e0 87 95 df 3d 1e ba 97 3c 56 a9 63 bc bc 8d de 3d
       0.10917192 0.018521365 -0.013895353 0.108668774
0003f0 97 e7 08 ba b9 31 bf 3d 12 ec 9c bd 27 df 95 3d
       -0.0005222498 0.09335656 -0.07662214 0.073179536

encoders.1.conv.conv1.bias f4 [32]
000000 31 d0 5b bd a4 f3 26 bd af d1 3a bf 10 97 a0 bc
       -0.053665344 -0.040759698 -0.729762 -0.019603282
000010 49 63 8a 3d 89 00 2f be 91 45 10 3e 8a d1 dd bd
       0.067572184 -0.17090048 0.14089037 -0.10830982
000020 af 6d 56 be e7 f7 04 3d 5a 4c c1 3d 2d 04 e9 3d
       -0.20940278 0.03246298 0.09438391 0.113777496
000030 76 81 92 bd b0 2d fe be 23 33 a2 be 4a 72 5b bd
       -0.07153599 -0.49644232 -0.3167964 -0.05357579
000040 dd 0e 1b be 94 7d fc 3d fc 2d 6f be 9e 65 4e bc
       -0.15142389 0.123286396 -0.23357385 -0.01259747
000050 37 9a 87 bf 0c a6 96 bc 4b 81 13 bf ec da 35 be
       -1.0593938 -0.018389724 -0.5761916 -0.17759293
000060 b5 64 c3 3c 99 ce b3 3d 88 7a 89 3d c1 c8 b3 bb
       0.023851732 0.0877964 0.06712824 -0.005486578
000070 6d a4 9f 3d 52 de 46 be 7f 2c de be 3d 75 19 be
       0.077950336 -0.19420746 -0.43393323 -0.14986129

encoders.1.conv.conv2.weight f4 [32, 32, 3, 3]
000000 29 34 35 bd 28 19 57 be 2b be 79 be 48 3c 0f 3e
       -0.044239197 -0.2100569 -0.2438895 0.13987839
000010 a0 90 33 3e 4e 96 af 3c 0f 81 73 3e d1 05 3c ba
       0.17535639 0.021433976 0.237797 -0.00071724976
000020 df 2d 0b 3d 01 db 15 3d 01 5d a3 bd 98 86 0f be
       0.033979293 0.03658581 -0.079767235 -0.14016187
000030 c5 0b 97 bd 71 1e 37 3c 38 2b 31 be ad 00 29 bd
       -0.07375292 0.011176691 -0.17301643 -0.04126041
000040 eb f5 47 bd a3 17 88 be 86 c6 b9 bd bb 88 39 bd
       -0.04881851 -0.26580533 -0.090710685 -0.045296412
000050 b7 e0 a8 3c 06 20 51 3d 5c 53 d0 3d 83 ed 45 3d
       0.020614965 0.05105593 0.101721495 0.048322212
000060 c9 62 89 bc 9a 81 79 bb c6 7d 8a 3b d2 96 d6 bd
       -0.016770737 -0.0038071633 0.004226419 -0.104779854
000070 8f 1e 6c be ae fb 6a 3d 80 85 68 be cd be 27 3d
       -0.23058532 0.057368927 -0.22707176 0.040953446
000080 e3 30 2e 3e 48 c3 c4 be 69 b2 2a bd 30 e2 64 be
       0.17010836 -0.38430238 -0.04167405 -0.22351909
000090 4d 51 d0 be 9e d4 82 be fa 65 68 3d f9 6a ad be
       -0.40687028 -0.2555284 0.056737877 -0.33870676
0000a0 90 37 0c be 6f d7 e7 3c 71 87 b4 be ba d1 63 3d
       -0.1369307 0.028300969 -0.35259584 0.055619933
0000b0 41 92 6d 3c 92 1a dd bc 53 d3 1c be ee 37 99 bd
       0.014500202 -0.026990209 -0.15314989 -0.07481371
0000c0 95 52 15 3d e3 1c fd bd e0 b1 13 be 0d bc 4a bc
       0.03645571 -0.12359025 -0.14423323 -0.012373936
0000d0 ad 33 a6 bd 21 97 05 3e a8 ea da bd 2d ae f2 3d
       -0.08115325 0.13045932 -0.106892884 0.11849628
0000e0 7d 5f d1 bd b2 d9 e5 3b 09 39 6c bc ea 44 15 39
       -0.10223291 0.0070144767 -0.014417895 0.0001423542
0000f0 47 38 ec bd aa 4b 44 bd fe 03 f5 bb 4b a0 69 be
       -0.115341716 -0.04792372 -0.0074772825 -0.22815053
000100 d2 41 e7 bc 30 14 a4 3c 52 a0 58 3d 07 fa ec 3b
       -0.028229628 0.020029157 0.05288727 0.007231954
000110 43 e0 bd 3d 4b 89 2d bd 9a 5d a5 be 60 f5 ec 3d
       0.0927129 -0.04236726 -0.32297975 0.11570239
000120 a4 7a b1 3d f8 2f f2 be e1 58 d4 3d 6f 8c 07 be
       0.0866597 -0.47302222 0.10368515 -0.13237165
000130 5b b3 c9 3d 53 0f 0f be 05 89 48 be e0 24 e8 bd
       0.098486625 -0.1397069 -0.19583519 -0.11335158
000140 b0 f9 43 3d f2 c7 79 bb ef 20 86 3c f8 e9 c0 3d
       0.047845542 -0.0038113561 0.016373126 0.09419626
000150 1a d5 16 bd be 84 6c 3d e1 95 47 3d 58 60 b8 bd
       -0.036824323 0.05774378 0.04872692 -0.09002751
000160 36 48 94 bb fa 7d 9e bc 6d 42 8c 3d b5 1a 22 be
       -0.00452521 -0.01934718 0.06848607 -0.158305
000170 b0 3f 02 be f2 e0 77 3d 87 9e 43 bd 10 dc 0b 3e
       -0.12719607 0.06051726 -0.047758605 0.13658166
000180 16 70 cf 3d 21 00 d3 be 6e 7c 6b 3d 13 c2 70 3d
       0.101288006 -0.41211036 0.057491712 0.058778834
000190 bb 10 30 be f7 69 21 bd ae ca c1 be c3 37 9b be
       -0.17193882 -0.039407697 -0.37849945 -0.3031598
0001a0 33 29 11 3e 97 14 c7 bd de ef 1e be f7 0c f0 bc
       0.14175873 -0.09720724 -0.1552119 -0.029303057
0001b0 f2 fa ae 3d 5a 25 97 3d ab 13 24 3d 14 65 a2 bd
       0.08543958 0.07380171 0.04005782 -0.07929435
0001c0 9d 81 9f be 7a ee df 3d 08 a9 e1 3c a0 5a 92 bd
       -0.31153575 0.10934158 0.02754642 -0.071461916
0001d0 a8 ad 87 bc dc 0c 87 be 55 2e 76 be be 62 1d bf
       -0.016562298 -0.26376998 -0.24041112 -0.61478794
0001e0 4d 00 3a bc 20 70 25 ba 2c 5b 3f be b6 f7 96 be
       -0.011352611 -0.00063109584 -0.18687123 -0.29485863
0001f0 10 15 32 3c 4f 58 8c be 14 e8 e9 3c 74 a5 71 bd
       0.0108692795 -0.27411124 0.028553046 -0.05899568
000200 66 f1 a4 be fe 46 48 3d 28 f7 19 3e ee 8f 34 bd
       -0.32215422 0.04889583 0.15035689 -0.044082575
000210 b8 87 df 3d d2 5b 42 3d 5f a5 41 bc f8 28 a1 3d
       0.10914558 0.047450848 -0.011819213 0.07869142
000220 68 7c 0b 3a db da 9c 3d 99 34 d7 3d 6e 8d 8b 3d
       0.0005320967 0.07658931 0.10508079 0.06814085
000230 53 54 2e be 82 89 a6 bc 9e 38 de bd 65 dd dc bc
       -0.17024355 -0.02032924 -0.108506426 -0.026961038
000240 65 a6 15 bf e1 2b cd be dd fc f5 3c 25 31 8c 3d
       -0.5845702 -0.4007254 0.030027801 0.06845311
000250 59 53 92 bb b7 f9 c0 bd 53 9a 18 3d 31 dd 56 be
       -0.004465502 -0.09422629 0.03725655 -0.20982815
000260 91 f0 a8 3c 52 e3 8f 3d 8d f9 d8 3c 8e 75 55 3c
       0.020622524 0.0702578 0.026486183 0.0130285155
000270 19 64 01 be 3e d6 aa be a0 89 a4 be 61 bc d8 bd
       -0.1263584 -0.3336658 -0.3213625 -0.105828054
000280 82 fd 9d 3b 79 d7 e1 bd 10 81 29 bd 2e fe 40 bd
       0.0048214803 -0.11027426 -0.04138285 -0.047117405
000290 3e 46 c8 bc 7c 30 aa bc b2 e2 5f be be 3d 50 be
       -0.024447557 -0.020775072 -0.21863821 -0.20336053
0002a0 d6 77 e4 3c c5 2e c1 3d f3 e6 68 3d 9c 65 df 3d
       0.027889173 0.09432749 0.056860875 0.10908052
0002b0 dd ec c2 bd 47 ff 6d 3d 4d 2b 7c bd ed 56 94 bd
       -0.09517834 0.05810478 -0.061564732 -0.07243142
0002c0 13 59 87 3d 54 46 5c bd ef de 22 bc 3e dc 2d 3d
       0.066087864 -0.053778008 -0.009940847 0.042446367
0002d0 af a4 ae 3d 38 92 b5 3d 7c c5 7f 3d b4 c7 77 bd
       0.08527505 0.0886578 0.062444195 -0.060493186
0002e0 86 ed 95 be 0b df 35 3b f6 b0 d1 bc d0 7a ca bc
       -0.29282779 0.0027751352 -0.025597077 -0.024716765
0002f0 ea 5b ed 3c 1c 81 83 bd 00 d6 cd be ac 34 3d bd
       0.028974492 -0.0642111 -0.40202332 -0.04619281
000300 ac d4 c5 3c c4 1b ec bb ca 38 fe 3c dd b3 89 bd
       0.024149261 -0.0072054584 0.031032939 -0.06723759
000310 5c 68 2e ba 2d 9b 16 bd 59 67 d4 3d 78 ae 14 3d
       -0.0006653124 -0.03676908 0.103712745 0.0362992
000320 46 52 a4 bd c8 9e b2 bd c7 36 8b 3c 72 b1 41 bd
       -0.08023505 -0.08721691 0.016993893 -0.047288366
000330 14 06 79 3d 38 5f df bb be d9 42 3d cb 34 0c 3e
       0.060796812 -0.006816771 0.047570936 0.13692014
000340 30 82 36 be e3 96 a5 3d 07 ea 51 bd 12 ed 51 be
       -0.178231 0.0808542 -0.051248576 -0.20500591
000350 c8 37 2c 3e 3f 3f 1a 3e f6 46 a1 3c e4 e0 bb bc
       0.16818154 0.15063189 0.019687157 -0.022934385
000360 75 fa 8c 3b c7 97 83 3d 2d 43 0b bd ce 4d 0d 3d
       0.0043023177 0.064254336 -0.03399961 0.03449803
000370 c8 51 90 3a f4 41 ac bd 5c e6 85 bc e3 63 c9 bd
       0.0011010701 -0.08411017 -0.016345195 -0.09833505
000380 7b 0f d0 bd a7 0a 0c 3d 0e 5a 09 3d 07 3d bd 3d
       -0.10159203 0.034189846 0.03353315 0.09240156
000390 48 ff 66 be d2 43 cb bc a9 07 da bc 8f 8f 46 3d
       -0.2255832 -0.024812613 -0.02661498 0.048476752
0003a0 b1 ab 21 bd f0 4d e0 3d 7b ef 6a be 47 bc fa bd
       -0.03947038 0.109523654 -0.22942917 -0.12242942
0003b0 40 57 89 bd a3 29 69 3c 1d 73 86 bd 75 49 1d bd
       -0.06706095 0.014231118 -0.06564925 -0.038400132
0003c0 4d 10 74 be f4 0f a4 bd 3b f1 77 bd 13 b7 bc 3b
       -0.23834343 -0.08010855 -0.06053279 0.005759129
0003d0 48 2f 99 be a6 94 b0 3d d1 1a ae 3c 9d ba 53 bd
       -0.29918885 0.086221024 0.021253021 -0.05169164
0003e0 2b ba 9b bd d1 65 10 be c6 11 56 be 20 8d 2c be
       -0.07603868 -0.1410134 -0.20905218 -0.1685071
0003f0 28 10 46 3d 80 00 ab bd 18 5b 60 be 3d b8 4c be
       0.04835525 -0.08349705 -0.2190975 -0.19992156

encoders.1.conv.conv2.bias f4 [32]
000000 0e b1 22 3d 55 f9 18 3e 1b 4f b3 be 0d 00 9d be
       0.039719634 0.14938863 -0.3502129 -0.306641
000010 c7 66 c2 3e a5 f6 a0 3e e1 7b 80 3e 35 e2 98 3c
       0.37969038 0.31438175 0.25094512 0.018662551
000020 7b 1d df be c9 b7 08 3f 43 c8 1c be 76 a0 5e bc
       -0.4357718 0.53405434 -0.15310769 -0.013588062
000030 87 5d a6 be e3 7d 73 be 2c 7b d4 bd 97 45 03 be
       -0.3249323 -0.2377849 -0.10375056 -0.12819515
000040 17 a6 00 be 2b 55 50 3e 8d 77 b1 bd 6b b3 08 3f
       -0.12563358 0.20344989 -0.086653806 0.5339877
000050 dd 06 3c be 3a 8a 29 3e 2a e2 f3 3c d7 0c ed be
       -0.18361993 0.16556635 0.02977093 -0.4629886
000060 fa 80 4c be 02 d5 e4 bc ac ed 0b bc b7 b3 4d be
       -0.19971076 -0.027933601 -0.008540552 -0.20088087
000070 18 fd 0a 3e 95 19 cb be da 8b bd 3e 6b 80 47 3f
       0.1357311 -0.39667955 0.3702076 0.77930325

downsamples.0.down_conv.weight f4 [32, 32, 3, 3]
000000 5f b6 1d bd c2 34 8d bd 2d 5a 7a bd 94 9f 91 bd
       -0.038504 -0.068948284 -0.061121155 -0.07110515
000010 a5 f0 a3 bd 76 fe 39 3d d0 73 55 3e f2 65 dc 3c
       -0.08004884 0.04540869 0.2084496 0.02690408
000020 c7 c2 4f bd 09 94 ba bc a4 aa 20 bd 71 2f 34 3c
       -0.050722864 -0.022775667 -0.039225236 0.010997639
000030 71 59 22 be 4e ec 51 be 38 42 ea bd c5 07 55 be
       -0.15854432 -0.205003 -0.114384115 -0.20803745
000040 44 9e 44 be 64 99 e0 3b 71 4e 6e 3d 4b c1 f9 bc
       -0.19200999 0.006854223 0.058180276 -0.030487677
000050 b3 ec af bd c8 1a 49 bb 73 2f 16 be 0f e5 98 bd
       -0.08590069 -0.003068613 -0.14666538 -0.074655645
000060 b1 27 f1 bd 8c 86 bd bc d8 6e fd bd 1f 3e 31 3d
       -0.11775149 -0.023135446 -0.123746574 0.043272134
000070 d6 7f 83 ba e1 c0 15 bc 90 a2 63 bd da fc 88 3d
       -0.0010032605 -0.009140224 -0.055574954 0.066888526
000080 6c 01 43 bb 65 8c a4 3d f3 f9 1f 3d 71 08 8a 3d
       -0.0029755486 0.08034591 0.03905673 0.06739891
000090 3e 0b 9b 3d 1b 05 c8 bd 87 2a 04 be 03 f6 98 3c
       0.07570504 -0.09766599 -0.12906848 0.018671995
0000a0 c9 3b b1 bd 5d c0 7e be 07 3c 2c 3d 74 4c 8d 3d
       -0.08653981 -0.24878068 0.042049434 0.06899348
0000b0 d5 23 40 bd bf 18 fc 3b 51 6e cc bc 1e b4 4b 3d
       -0.046909172 0.0076933797 -0.024954947 0.04973232
0000c0 2e 48 3e bd 30 81 7c bb cd a4 4a 3d 08 76 0c 3d
       -0.046455555 -0.003852915 0.049473573 0.03429225
0000d0 e1 3f 29 3d 06 1f 24 3c 22 9c 22 3c ad 59 37 bc
       0.041320685 0.010017162 0.00992492 -0.011190814
0000e0 6c 42 8d 3d 9f 55 b0 3d 0b 5f 2f 3d c7 54 9e 3c
       0.068974346 0.08610081 0.04281525 0.019327534
0000f0 df 66 54 3e 89 97 42 bb 91 c7 d2 3c 4e 6b e1 bd
       0.20742367 -0.0029692373 0.025729926 -0.11006795
000100 a7 0f 5d be da 5c 2e be 82 21 83 3c f7 3c f8 3c
       -0.21588002 -0.17027608 0.016007189 0.030302508
000110 cb 2f 20 3c 6b 22 91 3d 78 bb 95 bd da 0e d7 3d
       0.00977702 0.07086643 -0.073111475 0.105008796
000120 96 b3 20 bd c4 23 93 3b fa 58 46 3d 32 c9 a0 3d
       -0.039233766 0.0044903476 0.0484247 0.07850875
000130 c6 fd 0a be 1e 82 72 3d b3 28 80 3d 76 94 8e bd
       -0.1357337 0.05920612 0.06257763 -0.069619104
000140 3b 03 3a bd e0 7f 44 bd 08 cf 94 bd 56 49 b0 3d
       -0.045413237 -0.047973514 -0.072660506 0.08607738
000150 61 3d fb bd 73 81 62 bd e6 c7 e3 bc 1c 12 26 be
       -0.122675665 -0.055299234 -0.02780528 -0.16217846
000160 5f 52 dd bc df 29 5b be cf f9 d9 bd 1c 52 94 bd
       -0.027016817 -0.21402691 -0.1064335 -0.072422236
000170 f8 67 6c bb ea 09 90 3d 6b c7 23 3e 4c b7 f1 3d
       -0.0036072712 0.07033141 0.1599404 0.11802539
000180 b6 d9 cc bc 94 0a fb 3d 95 fe 46 3e 59 6d bd 3d
       -0.025006156 0.12257877 0.19433053 0.09249372
000190 44 81 71 3d f9 29 05 3d 70 c0 c1 bd 70 27 94 3d
       0.058961168 0.03251073 -0.09460533 0.072340846
0001a0 ff 1f 48 3b cf ac ff 3d 19 84 b2 bd 4c 99 4d be
       0.003053665 0.124841325 -0.08716602 -0.2007801
0001b0 c1 0b 51 bc be 3d 0a bd 72 69 55 be 63 68 0f be
       -0.01275915 -0.03375029 -0.20841005 -0.14004664
0001c0 22 5c 48 be 65 c4 31 3d 23 3e 43 be b3 d3 7d bd
       -0.19566396 0.043400187 -0.19066672 -0.06196947
0001d0 a7 04 54 3d 7e 8f 12 bd 5a 93 8d bd 4a 82 7c 3d
       0.05176225 -0.035781376 -0.06912871 0.06164769
0001e0 62 4e fc bd 41 5d 54 be a3 a6 97 bd 08 71 93 bc
       -0.12319638 -0.20738699 -0.0740483 -0.017998233
0001f0 bc 84 a6 bc af 8b 5a be 01 41 8c bd 2e 4f c5 3d
       -0.020326965 -0.21342348 -0.06848336 0.09634243
000200 06 f2 e3 3d 04 53 1f bd 57 e6 4d 3d d9 fa f5 3c
       0.11130147 -0.03889753 0.050268497 0.03002684
000210 84 86 41 be b7 b4 a3 bd cc 91 66 bd e8 b0 73 bd
       -0.1889897 -0.07993453 -0.056291386 -0.059494883
000220 6f 5a 8c 3d e6 f7 c6 bd ad 6d d5 bc 83 b2 3d be
       0.06853186 -0.097152516 -0.026053274 -0.18525128
000230 bb 7a c2 bd 9f 93 29 be ae f8 93 be 05 0e 4f be
       -0.09496065 -0.16560219 -0.28900665 -0.20220192
000240 1e 5e 47 3d 88 a7 e4 3e 08 61 93 3e 63 dc 27 be
       0.04867374 0.44659066 0.28784966 -0.16392665
000250 18 0f 45 3e 08 c1 6d bc 77 ec 5d 3e d3 68 16 3e
       0.19244039 -0.014511354 0.21672235 0.14688425
000260 0f d3 c2 3d 2e e1 a0 3d da f1 40 3e 39 ac c7 3d
       0.095129125 0.078554496 0.18842259 0.09749646
000270 81 2a 32 3e d0 09 2d 3e 2a e6 1d 3e fe 89 28 3e
       0.17399026 0.16898274 0.15419832 0.1645889
000280 d0 8b 9d 3e 42 89 5c 3e 7c 91 59 be 1a 5e da bd
       0.3077073 0.21536735 -0.21246904 -0.1066248
000290 94 2e 35 be 9d f2 fd bd 5f f3 f7 be 1f 5c d9 be
       -0.1769355 -0.123997904 -0.48427865 -0.42453095
0002a0 b1 95 80 be 1c e6 f6 be b2 ae 76 be 0b af bd bd
       -0.25114205 -0.48222435 -0.24090078 -0.092619024
0002b0 14 d0 7d bd 49 9d 09 3e aa fc 87 bd 1a 48 5e be
       -0.061966017 0.13438906 -0.06639989 -0.21707192
0002c0 93 eb 1a 3d 60 d5 67 be 28 f8 0f be c6 1e de bd
       0.037822317 -0.2263999 -0.14059508 -0.10845713
0002d0 23 08 20 3e aa ed 25 3e 1e ab d1 3d 3e f6 3b 3e
       0.15628104 0.16203943 0.10237716 0.18355653
0002e0 7e eb 16 3e ea 21 20 be ec cb ea 3d 59 a3 0c bd
       0.1473827 -0.15637937 0.11464676 -0.034335468
0002f0 6e 17 34 bd a5 40 d8 bc f0 03 a0 3c 23 49 b8 3d
       -0.043967657 -0.026398012 0.019533128 0.08998325
000300 3a 07 f2 3d fc f0 db 3d 36 af ca 3d 77 1e 93 3d
       0.118177846 0.107393235 0.098967 0.07183545
000310 64 79 ff 3c 18 2b ca bd 38 b5 84 3e c9 e0 a6 bc
       0.031185813 -0.09871501 0.2591951 -0.020370858
000320 14 a3 a0 3c cf 08 ee 3d cd dd 0b be 3e 7c d1 3e
       0.019609012 0.11622774 -0.13658829 0.40915102
000330 8e 3f 63 bd 00 96 84 be 93 3d a0 ba cb eb a3 bd
       -0.055480532 -0.2589569 -0.0012225382 -0.08003958
000340 63 11 f8 bd 8c 68 cf bd da e1 68 bd c3 50 9a be
       -0.12112691 -0.101273626 -0.056856014 -0.3013974
000350 bb 97 65 be 8d a6 bd 3d 1d 74 d5 bd 5f 80 e8 bd
       -0.22421162 0.09260283 -0.104225375 -0.1135261
000360 38 62 a0 bb ab a7 79 3c 9c 41 c3 3d a8 cb 25 be
       -0.004894521 0.015237729 0.09533998 -0.1619097
000370 b0 b5 0f bd e6 dc ff 3d ff 48 5b 3e f4 2a 85 bc
       -0.03508538 0.12493305 0.21414565 -0.016255833
000380 58 42 a8 bc 11 38 50 3e 84 7b 2a 3e de 2f 27 3d
       -0.020539448 0.20333888 0.1664868 0.040817134
000390 55 fe 1d 3d eb a4 25 bd 54 7a 9f bd 04 54 61 bd
       0.038572628 -0.04044048 -0.07787004 -0.055011764
0003a0 d2 a3 3f 3c 92 d6 a3 bd 03 ca 4f 3e df 35 29 3d
       0.011696773 -0.079999104 0.20291905 0.04131114
0003b0 8e 43 b3 3d 27 75 79 3d 73 59 e8 3d 98 d7 4c 3e
       0.087531194 0.06090274 0.11345186 0.20004117
0003c0 2a bc 15 3e 28 eb 24 3e 0c 7b a0 3c 8a 5f 92 3e
       0.1462256 0.1610533 0.019589923 0.28588516
0003d0 b4 84 29 3d 6f 96 9c bc 1c 02 06 3d 1f 46 df 3d
       0.04138632 -0.019114701 0.032716855 0.109020464
0003e0 e8 25 9a 3d 2d 20 31 3e b7 b8 42 bd bd d1 89 3e
       0.07526761 0.1729743 -0.04753944 0.2691783
0003f0 c9 a5 f9 bd 76 e7 0a be fe 02 88 bd 43 3a c5 be
       -0.12189824 -0.13564858 -0.06641196 -0.38521013

downsamples.0.down_conv.bias f4 [32]
000000 46 a2 a7 3d e2 a6 53 bc 32 93 f0 bd a4 d7 a5 bd
       0.08185248 -0.012918206 -0.11746825 -0.08097771
000010 33 b4 12 be 9b 26 e0 bd 68 96 1b 3e db 68 79 3d
       -0.14326553 -0.109448634 0.15194094 0.060891014
000020 ab b7 95 be 6c c5 53 be 77 84 ab bd 73 10 d1 3d
       -0.2924169 -0.20680779 -0.08374875 0.102082156
000030 00 d1 5a 3e dc 22 a7 be fe 0a 6b bd f4 0d 98 bb
       0.2136879 -0.32643783 -0.05738353 -0.004640335
000040 3d 02 2b be 75 48 5d bd e7 da 2a be 73 17 e9 3d
       -0.16700073 -0.05402418 -0.16685067 0.11381426
000050 08 53 d0 3d 72 b9 f3 bd b2 94 1e be 9a df 93 bc
       0.10172087 -0.11900605 -0.1548641 -0.018050957
000060 46 16 eb 3c 95 ca 92 be ae 37 90 bd a3 fd 43 be
       0.028697144 -0.28670183 -0.0704187 -0.19139723
000070 d3 28 5c be ab 4b 77 be c5 0f 52 be cc 7b 46 bc
       -0.21499948 -0.24149959 -0.20513828 -0.012114476

downsamples.0.conv.conv1.weight f4 [32, 32, 1, 1]
000000 62 70 d5 3c 8c e8 0b 3f cc b2 9a 3d ff ff 19 3e
       0.026054565 0.54651713 0.07553634 0.15039061
000010 4b 8b a3 3e 7a 15 9b be ea 15 9e be 5e e2 3f 3e
       0.3194221 -0.30289823 -0.30876094 0.18738696
000020 9c b4 21 be 46 96 c6 bd 58 ce 3b 3c 6f 78 8a 3d
       -0.15791553 -0.09696631 0.01146277 0.06761252
000030 87 15 cb be 0e 40 3a 3e 09 18 a3 3d 7a f0 3a be
       -0.39664862 0.18188497 0.07963569 -0.18255797
000040 d6 af 13 be ad 8d 05 be 2f 28 81 3d 00 98 e9 3e
       -0.14422545 -0.13042326 0.063064925 0.4562378
000050 ca 0f 1b be d2 8b d2 bd ea 0d 26 3d 31 dd 9b 3e
       -0.15142742 -0.10280575 0.040540613 0.30442193
000060 f6 7a 99 bd 7b 1f 0c bd 90 9a d3 bd b1 28 5d 3d
       -0.07494156 -0.03420971 -0.10332215 0.053993884
000070 fe 26 fb bd e4 ef 45 bd 17 9b 65 bd 8c 80 ed bd
       -0.122632965 -0.04832448 -0.05605611 -0.11596784
000080 1a dd 83 bd 00 4b 35 be 33 af 2e be cf bd b6 3e
       -0.06438656 -0.17704391 -0.1705902 0.35691687
000090 58 9e 1b bf 92 5b 8d 3d 18 ab 96 3d ba 81 60 3e
       -0.6078849 0.06902231 0.07356852 0.21924487
0000a0 d1 c9 61 be 8d 35 2e 3e 4a ed 62 3e 5a 11 af 3e
       -0.22049643 0.17012616 0.22160831 0.34192926
0000b0 ed 4a b0 3e e1 72 40 3e b3 34 8f 3d f3 08 6b 3e
       0.34432164 0.18793823 0.069924735 0.22952633
0000c0 0a 13 c7 3d 63 77 04 3e 8a 55 0f 3d 43 5a 70 3d
       0.09720428 0.12936167 0.034993686 0.05867983
0000d0 c2 8a b4 3e 3e 00 a4 bd 65 29 45 3e 21 57 02 be
       0.35262114 -0.08007859 0.19254072 -0.1272855
0000e0 c3 47 c6 be 5c c0 97 be fb 18 34 3e 87 fd 35 bd
       -0.38726625 -0.29638946 0.17587654 -0.044431236
0000f0 c6 03 88 bd 05 5a 08 be 28 fb 24 be ef 3b c9 bd
       -0.06641345 -0.1331559 -0.16111434 -0.098258846
000100 83 bf 0f be df 0c 5e 3f b8 6c 3e 3d 73 b7 52 bd
       -0.140379 0.8673839 0.0464904 -0.051444482
000110 c7 6f 38 3e 75 7f 4f bc cb 87 fe 3c 96 66 a4 3d
       0.1801139 -0.0126646655 0.03107061 0.08027379
000120 dd 38 8c bc 5c e8 b1 bd 0c 61 18 3d c3 94 c6 3e
       -0.017116958 -0.08686897 0.037201926 0.3878537
000130 e1 b6 c3 3c 82 0b 66 be 40 c6 9d be 40 27 cf bc
       0.023890914 -0.22465327 -0.30815315 -0.02528727
000140 61 e7 a0 bd 12 a5 51 be cb 8a 73 3e d3 ed 56 bd
       -0.07856632 -0.20473126 0.23783414 -0.0524729
000150 63 f2 0e 3e 69 e8 9e 3d 52 23 9b bd 92 fe cf bc
       0.1395965 0.077591725 -0.07575096 -0.025389943
000160 06 f2 8a be 9d b7 77 bd a8 a0 70 be b3 32 cb bc
       -0.27137774 -0.06047784 -0.23498785 -0.024804449
000170 1d 1c b1 bd 23 e4 9d be be 9d 20 be ec 48 3a be
       -0.0864794 -0.30838117 -0.15685174 -0.1819188
000180 1e 3e 38 3d 9a 00 46 be 11 93 be be be 10 25 bd
       0.044981115 -0.19336167 -0.37221578 -0.04029917
000190 a2 f2 96 be b7 94 07 be 4d b0 6c be 16 51 ee 3d
       -0.2948199 -0.13240324 -0.23114128 0.1163656
0001a0 5a 2e 4f bd 3e bf 05 be 6e 72 19 3e db 73 43 be
       -0.050581314 -0.13061234 0.14985058 -0.19087164
0001b0 f4 4a bb bc 81 eb 26 3d 97 cc 79 be 36 17 64 3d
       -0.022862889 0.040751938 -0.24394451 0.0556862
0001c0 e1 9b 19 3d 9e 9b 0f 3d 39 02 b8 bd 4b 64 71 be
       0.037502173 0.035060517 -0.08984799 -0.23573415
0001d0 b6 05 c1 3e 3d c6 9c 3c 65 f2 9b bd f7 45 c8 3e
       0.3769967 0.019137496 -0.076145925 0.3911588
0001e0 a5 6f 5d 3e 9d 6a 52 3e ed 29 a0 3c 00 0f 1c be
       0.2162462 0.20548482 0.019551242 -0.15240097
0001f0 ab 8a 5b 3c 8b 22 c0 3e ff 5a 81 3e 55 3a b5 3d
       0.01339976 0.37526354 0.25264737 0.088490166
000200 8e 17 a2 3d b1 57 9f 3d 17 4e a1 bd 59 54 0c 3e
       0.07914649 0.07780398 -0.078762226 0.13704051
000210 15 2f d9 3e de b8 16 3e c3 74 91 3e 18 ff 05 3e
       0.42418733 0.14718959 0.28409395 0.13085592
000220 4a 92 8c 3e 6d d8 89 be 99 e4 74 bd 15 44 77 3d
       0.2745536 -0.26922932 -0.05978832 0.060367662
000230 06 65 49 3e 0d 93 a5 bd 78 96 da 3d bc ea aa 3d
       0.19667444 -0.08084688 0.10673231 0.08345553
000240 44 cc 63 bb 1d 0f 00 3e fa 09 81 be ef 18 35 bc
       -0.0034759203 0.12505765 -0.25202924 -0.011053308
000250 5c 0b a2 bc 6d 95 28 be f7 cd b7 bd 43 32 41 3e
       -0.019780807 -0.16463251 -0.089748316 0.1886683
000260 2a e4 5c 3e ea 2c 01 3e 42 7c 24 bf 6c 67 2c 3e
       0.21571413 0.1261479 -0.642521 0.16836327
000270 44 1e eb be 26 2a ac be dc 5d 05 3e cd 59 28 be
       -0.45921528 -0.33625907 0.13024086 -0.16440506
000280 2b 75 75 bd fb 88 1d be 32 2d 5f be e7 3e 7d bd
       -0.059926193 -0.15384285 -0.21794584 -0.061827566
000290 a8 35 f6 3d 79 c8 c7 bd d9 88 36 bd a9 44 f1 3d
       0.12021953 -0.09755034 -0.0445641 0.11780674
0002a0 a5 85 ae be e3 98 f1 3d c5 d0 87 be 48 b5 9a 3e
       -0.34086338 0.11796739 -0.26526466 0.30216432
0002b0 e2 27 f2 bd 77 71 a9 3d cf 5e 6d 3e 44 78 06 bd
       -0.11824013 0.08273595 0.23180698 -0.032829538
0002c0 a1 f8 45 bd 19 7c e2 3e 94 67 c6 3e 5e 7d 8b 3d
       -0.048332814 0.44235304 0.387509 0.06811021
0002d0 2c 6c 6c 3e d0 f9 9f 3b a4 6a cb ba ad e8 a6 bd
       0.2308814 0.004882075 -0.0015519452 -0.08149848
0002e0 b0 09 d6 bd e2 1c c5 be 3d 9c b3 3d a1 8c b9 3d
       -0.104510665 -0.38498598 0.087700345 0.09060026
0002f0 77 b7 7b be 45 d9 eb be 64 f0 02 be 34 cd a3 bc
       -0.24581705 -0.460642 -0.12787014 -0.01999531
000300 85 ad 1b 3d 0a 89 8d 3e c2 87 75 be cb 3e 2c 3e
       0.038007278 0.27643615 -0.23977569 0.16820829
000310 06 c8 80 3e 77 be 0c 3f c6 fa 0e 3f ed ed 50 bd
       0.25152606 0.54978126 0.558514 -0.051008154
000320 74 88 fa 3d f5 4f 18 be 29 c0 f4 3d 06 4d 80 3e
       0.122330576 -0.14874251 0.11950714 0.25058764
000330 ae 60 a4 3d ba 2b 3b be af 61 87 3e 40 e0 8b 3d
       0.08026253 -0.18278399 0.26441714 0.06829882
000340 fb 55 80 bd 73 87 32 bd cf 9f 79 be 5e 58 0b be
       -0.062663995 -0.043586206 -0.24377368 -0.13607928
000350 b1 ab c9 3d 1e 30 e5 3d 21 07 a5 be 8a da 14 bd
       0.09847201 0.11190818 -0.32232 -0.036341228
000360 9a 5b 76 be 6b 4f bd bd 9f 5a 35 3d 2c a2 82 3d
       -0.2405838 -0.092436634 0.044275876 0.06378588
000370 ad e5 35 bc 5c b3 ef be 4f b8 8c be 7f a0 9d 3d
       -0.011102122 -0.46816528 -0.27484366 0.07696628
000380 16 6d 65 be 0c 21 6b be 63 24 9d bd 76 b2 0f bf
       -0.22404894 -0.22961825 -0.07672956 -0.56131685
000390 d3 ba eb bc fc 65 8e 3e ad a5 21 be 25 4a eb bc
       -0.028775608 0.27812183 -0.15785857 -0.028721878
0003a0 97 c7 c8 3e 4b 39 93 3e 1a ca af 3e aa 8a 08 3e
       0.39214775 0.2875465 0.3433388 0.13334146
0003b0 10 fc 93 3e c3 e8 2b be 21 bb 4e be b8 b4 2c 3d
       0.28903246 -0.1678801 -0.20188572 0.042164534
0003c0 34 c6 3d bd 62 cc 4f 3e 15 9c ee bc 00 90 31 3e
       -0.0463316 0.2029281 -0.02912716 0.17340088
0003d0 25 e3 1b bc 55 e8 00 3f 8a 64 a6 3e 02 56 a9 3d
       -0.009514605 0.5035451 0.3249858 0.08268358
0003e0 26 1b bb 3e 53 19 07 bd 14 5a 73 be e3 a5 95 3c
       0.3654415 -0.032983135 -0.23764831 0.018267578
0003f0 f3 53 a7 3d 59 98 2a 3d a2 5e c5 bd b0 96 4d 3e
       0.08170309 0.041649196 -0.096371904 0.20077014

downsamples.0.conv.conv1.bias f4 [32]
000000 c7 57 47 3c 45 2a 86 bd 11 5e fc bc 2c 29 2f 3d
       0.012166924 -0.06551031 -0.030806573 0.042763874
000010 4c 20 00 be d8 62 65 bd 55 ab 3a 3e b8 e4 00 be
       -0.1251232 -0.056002468 0.1822942 -0.1258725
000020 2c 3d f7 bd 43 1e 37 be c9 ec 9c 3d 34 e5 26 3e
       -0.120722145 -0.17882638 0.07662351 0.16298372
000030 8e c1 11 3e e1 c6 1a be be d6 0b 3e ac e0 ad 3d
       0.14233992 -0.15114929 0.13656136 0.084901184
000040 67 b8 01 3e 19 59 00 3e 87 b7 c6 3c 12 25 55 3d
       0.12668 0.12533988 0.024257435 0.052037306
000050 74 0b eb 3d 5e 07 4f 3d 11 30 2a be 7e 28 dc 3c
       0.11476794 0.050544135 -0.16619898 0.026874777
000060 78 75 36 3e 53 ce 1f 3e eb 75 0b 3e fc b6 fd bc
       0.17818248 0.1560605 0.13619201 -0.030971043
000070 92 38 e3 3b 2e 21 17 be de e5 00 3e 61 f3 7d 3d
       0.006934234 -0.14758751 0.12587687 0.061999682
